weights/lol_dataset/discriminator_weight.pth (torch, 310090 bytes, 5 tensors)

conv1.weight f4 [64, 3, 3, 3]
000000 90 ca 91 3c 82 2e 1a 3e 5e 44 a6 bd bb 84 a4 bd
       0.017796785 0.15056804 -0.08118509 -0.08033129
000010 20 b0 26 be 57 ca 3d be 40 2b 99 bd 9a 80 bd bd
       -0.16278124 -0.18534218 -0.074789524 -0.092530444
000020 4a a8 21 3e 4d 12 0a 3e 91 b6 38 bd 0e 9d 16 3e
       0.15786853 0.13483544 -0.045095984 0.14708349
000030 10 93 0b 3c ca a1 01 be 03 70 10 3e 50 5d 12 3e
       0.008518949 -0.12659374 0.14105229 0.14293408
000040 ca 6a 27 3e b3 10 d8 bc 32 f1 22 be d5 68 1e bd
       0.1634933 -0.02637515 -0.15912321 -0.038674194
000050 2c 19 d6 bd 39 9b ad 3d 86 c8 da bc 7e 11 c7 bb
       -0.1045402 0.08476872 -0.026706945 -0.0060750833
000060 33 b7 37 be 35 b6 88 3d 5d 6c c8 3d 01 df 3a be
       -0.17940979 0.06675378 0.09786294 -0.18249132
000070 32 4b fe bd 16 39 0b 3e cb d6 2f 3e b0 0f f7 bd
       -0.12416686 0.13595995 0.17171781 -0.12063539
000080 c7 09 95 bd a6 6e 0a 3e fb ff 44 3c ae 07 00 be
       -0.072772555 0.13518772 0.012023921 -0.1250293
000090 c0 90 fd bd 3a aa 7e bd f9 b5 5d 3d f4 87 0b bd
       -0.123811245 -0.06217406 0.05412862 -0.034065202
0000a0 53 c8 fa 3d d7 51 09 3e 15 dd ee 3d 08 26 03 3e
       0.1224524 0.13410126 0.11663262 0.12807477
0000b0 59 71 ae 3d 16 4b 19 be dc 08 bd bb cf a5 9c 3d
       0.08517713 -0.1497005 -0.0057688784 0.07648813
0000c0 23 70 97 bd d0 21 3d 3e 0a 05 30 be 9a eb 26 3d
       -0.07394435 0.1846993 -0.17189422 0.04075203
0000d0 1f d8 39 be 69 4e 48 3e 8e 8b 3b 3e 4a ce 01 be
       -0.1814885 0.19561161 0.18314955 -0.1267635
0000e0 4c 29 aa bc 57 54 04 be d6 32 cd bd 5d 4b 8e bd
       -0.020771645 -0.12922798 -0.10019462 -0.06947968
0000f0 d6 42 37 3d de d7 bb 3d d7 b4 cc 3c 3f 61 8b bd
       0.044741474 0.09172033 0.024988575 -0.068056576
000100 a8 b6 20 3e bb fd d5 3d 9f a6 ac 3d bc 0c ab 3d
       0.15694678 0.10448786 0.08430218 0.08352038
000110 2f 8c 96 bd 63 c3 09 3d ab 7c a9 3b d4 5a 02 bb
       -0.07350957 0.0336336 0.0051723323 -0.0019890564
000120 e9 66 62 3e 80 bd 05 be 4b 7b 2c 3e 5a e5 2f 3e
       0.2210957 -0.1306057 0.16843908 0.17177334
000130 3c 4c a8 3c 2e 3b 16 3e 4d 8a e6 3d 5d 99 33 3e
       0.020544164 0.14671013 0.112568475 0.17538972
000140 2d 8c 39 3e e3 59 9c bd 60 b7 9e bd 53 df 1d be
       0.18119879 -0.07634332 -0.0774982 -0.15417223
000150 46 2c 22 3e 34 17 0e 3d 53 20 28 3e 4f 4d b8 bb
       0.15837201 0.034690097 0.1641858 -0.0056244503
000160 06 5e a1 3d a8 0b ba 3d a9 cc 76 3c 67 62 5a be
       0.07879262 0.090842545 0.015063443 -0.213266
000170 4a 63 05 bc 5f 0f d7 bd b7 f9 f0 3c 66 1f a5 bd
       -0.008141348 -0.10500979 0.029415948 -0.080626294
000180 41 75 50 be 6d b5 a9 3d c2 da 14 3e 4e 63 ec 3d
       -0.20357229 0.08286557 0.14536574 0.11542378
000190 35 a9 21 be 84 93 88 3b d3 0a ef 3d f5 07 fc 3c
       -0.15787204 0.004167976 0.116719864 0.030765513
0001a0 ba 26 8b 3d f0 e9 26 3e 7e f8 10 bd a9 26 2c 3e
       0.06794496 0.16300178 -0.03539323 0.16811623
0001b0 8d 38 2c be d8 5f 2d ba 53 92 ec 3c 43 b6 4e bd
       -0.16818447 -0.0006613708 0.028878367 -0.050466787
0001c0 ca 2a a9 3d fd 4d af 3c 4e 62 6a bd ca 7f 26 3e
       0.082601145 0.021399492 -0.057222657 0.16259685
0001d0 ae 9a 39 3e 83 7a 73 bd a9 16 08 be 20 a8 07 3e
       0.18125412 -0.05944301 -0.13289894 0.13247728
0001e0 e5 1b 28 3d 0e df b0 3d 68 13 1f be c3 41 4d bd
       0.041042227 0.08636294 -0.15534747 -0.050111543
0001f0 b2 52 32 3e 7a 39 7f bd 55 db 12 3d 38 61 41 bc
       0.17414358 -0.062310673 0.035853703 -0.011802964
000200 81 e6 99 3d 27 38 57 3c 54 60 44 bd 2d ad 0e be
       0.07514668 0.013135946 -0.04794343 -0.13933249
000210 41 56 ec bd 34 0d 60 bc b5 ec 38 be 07 10 14 3e
       -0.11539889 -0.013675023 -0.18059047 0.14459239
000220 b2 10 c0 bd a2 16 33 3e cf 3c 6c 3c be 99 bc 3d
       -0.093781844 0.17489102 0.014418795 0.092090115
000230 4e 9f 9d bd 33 7d 53 bd bc 8a 3f 3e dd 17 dc bd
       -0.076964006 -0.05163307 0.18705267 -0.10746739
000240 f6 21 c4 3d 38 a7 77 bc 93 d4 06 3e 60 4e 4d 3e
       0.0957679 -0.015115552 0.13167028 0.20049429
000250 66 c7 12 be 19 9a ff bc 7d db 05 be fc 63 7e 3c
       -0.14333877 -0.03120141 -0.1307201 0.015526768
000260 65 23 7d bd b5 d0 e8 bd c8 26 ce bc b1 28 08 be
       -0.061801333 -0.11367933 -0.025164977 -0.13296773
000270 7c fe 8f 3a a2 96 8f 3c bf a7 37 3d 61 bf 87 bd
       0.0010985876 0.017527882 0.04483771 -0.066282995
000280 32 76 2b be 6c e5 97 3d 30 08 51 be 20 d1 16 3e
       -0.16744307 0.074168056 -0.2041328 0.14728212
000290 bc 85 52 be 4e 3e fd bd 95 dc 44 be b6 e7 fb bd
       -0.20558828 -0.12365399 -0.1922477 -0.12300055
0002a0 67 46 02 3e 17 0b 0e 3e 14 b2 02 be fe cd 52 3d
       0.12722169 0.13871418 -0.12763244 0.05146598
0002b0 4d d9 0b bd a5 98 84 bd 1c 3a 12 3e 37 ef 2e 3e
       -0.03414278 -0.06474427 0.1427998 0.1708344
0002c0 13 68 ab 3c 82 bc ee 3c b4 93 0d be c4 e2 33 3d
       0.02092365 0.029142622 -0.13825876 0.043917432
0002d0 49 42 3e 3e 40 6d c5 bd 47 f0 0c 3e 2a 1f 0e be
       0.18579973 -0.096399784 0.13763534 -0.13879076
0002e0 9b 49 16 3e 40 8c 5d bc b7 96 be bc 8d 6f d2 3d
       0.14676516 -0.013522208 -0.023265226 0.10275183
0002f0 1f 0e 67 bd a0 16 22 bd 42 e6 24 be 92 6a 7c bd
       -0.05640995 -0.039572358 -0.16103461 -0.06162507
000300 9d 26 5b 3d 33 1d 92 bd cc 7f 52 3e c8 c1 ef 3b
       0.05350362 -0.071344756 0.20556563 0.0073168017
000310 71 aa af bd ae 12 80 bd c6 cf c6 3d 7a c7 22 3e
       -0.08577431 -0.06253563 0.097075984 0.15896407
000320 b9 90 f6 3c c2 8d 42 be 3f 8f a6 bd 55 4b a4 3c
       0.030098306 -0.18999389 -0.08132791 0.020055452
000330 79 dc 0c be d4 e3 44 be c9 40 29 3e 1b b9 6a 3c
       -0.13755979 -0.19227535 0.1652862 0.014326359
000340 8c f8 20 be c1 3f 15 3d 9f 08 fe bd b4 a8 d4 3c
       -0.15719813 0.036437754 -0.12403988 0.02595935
000350 fa 0d fc 3d 22 8c 8a bc ea 2e a2 bd 3d 59 39 3d
       0.12307353 -0.016912524 -0.079191044 0.04525112
000360 98 ff 8d 3d 17 e0 46 3a 57 1e ed 3d 00 5e 3d 3d
       0.06933516 0.00075864926 0.115780525 0.046232224
000370 17 f8 d9 bd 6b 43 69 3d b6 0d 39 be fd 87 1c be
       -0.106430225 0.05694906 -0.18071637 -0.1528625
000380 73 27 35 3c 62 67 06 3d b4 dc 98 3d 8d ae ba bd
       0.011056769 0.032813437 0.07463971 -0.09115324
000390 87 a5 b1 3c a5 17 05 3e fa 96 24 3e 50 29 87 bd
       0.021685375 0.12997301 0.16073218 -0.065996766
0003a0 8e 85 25 bd 67 bd 95 bc 17 05 6c bd 7b 29 f0 bd
       -0.04041057 -0.01827879 -0.05762204 -0.11726662
0003b0 43 26 f0 bd 56 ff 47 3d dc c1 13 be 1c c9 e0 3d
       -0.11726048 0.04882749 -0.1442942 0.109758586
0003c0 7b 00 25 be 97 48 4f bc 61 60 09 3e 9d 9d 39 bd
       -0.16113465 -0.012651584 0.13415672 -0.045316327
0003d0 ac f8 64 3c 34 5e f7 3d 72 01 81 3d ba 5d 1c bd
       0.013975304 0.12078515 0.06299104 -0.038175322
0003e0 84 77 e7 3d d8 1a db bc 7e a3 fc bd 46 f3 c0 3d
       0.11302093 -0.026746199 -0.12335871 0.09421401
0003f0 cb 22 b0 3c 82 25 ea 3d fe ec 49 be a5 dd 3b be
       0.021500966 0.11432935 -0.19719312 -0.1834627

conv1.bias f4 [64]
000000 8a 72 9b bd af 90 44 be 38 f3 5b be 80 13 59 be
       -0.07590206 -0.19195817 -0.214795 -0.21198845
000010 dd e8 26 3e db d9 ee bd 60 89 4f 3e 7a f8 2c be
       0.16299768 -0.116626464 0.20267248 -0.16891661
000020 4b 2a 29 3e 4d 01 8a bd a8 7e 20 be 35 93 01 be
       0.1652004 -0.06738529 -0.15673316 -0.12653811
000030 15 29 03 bc 9b 58 a2 3c 56 fb 48 bd 69 9f f3 bd
       -0.0080054 0.019817641 -0.049067818 -0.118956394
000040 b8 fd 1d be 72 46 00 3e 40 d4 d2 bd d6 24 88 bd
       -0.15428817 0.12526873 -0.1029439 -0.06647651
000050 ce 54 4a bc ec 38 52 3e 20 2e 47 3e fc 48 62 bd
       -0.012349321 0.20529526 0.19451189 -0.055245385
000060 31 44 b4 bc 2d 42 1f bd 75 10 e5 bb cd fc ee 3d
       -0.022005172 -0.03888147 -0.006990487 0.11669312
000070 ba 31 19 3e 1c ad 95 3d 15 bf d5 bb cb d3 29 3e
       0.14960375 0.073084086 -0.006523023 0.16584699
000080 8a 15 5b 3a 87 08 6f 3b 78 97 1d be 5d 90 14 bd
       0.00083573966 0.0036473589 -0.15389812 -0.036270488
000090 d6 e4 1a 3e 4a 2b 47 3c bf 0d 35 3d d7 88 6d 3e
       0.15126356 0.012156317 0.044202562 0.23196732
0000a0 48 e6 9d bd 94 dc 87 bc 65 37 28 be 4b a6 42 3e
       -0.07709938 -0.016584672 -0.16427381 0.19008748
0000b0 b7 b7 0e 3a 6a 50 75 3d 58 97 9f bd 66 f4 e0 3c
       0.0005444246 0.059891142 -0.077925384 0.027460288
0000c0 49 79 e5 3d 63 01 42 3e 22 05 00 bd a7 26 bf 3d
       0.11204774 0.18945841 -0.031254895 0.09333544
0000d0 8b 46 41 3d 1d 3d 43 3e cd 42 66 be 01 e4 5d be
       0.047186416 0.19066282 -0.2248642 -0.21669008
0000e0 49 16 36 bc 47 da b7 3d c2 4c 83 be ce 1d 47 3e
       -0.011113712 0.0897718 -0.256445 0.19444963
0000f0 ac c9 0c 3e 80 fa 02 3e 92 ec e7 bc c0 fa b5 3d
       0.13748807 0.1279087 -0.028311048 0.088857174

conv2.weight f4 [128, 64, 3, 3]
000000 9a fc 0f bd d8 11 fc bc d6 d6 8d bc b6 1b c8 bb
       -0.03515301 -0.030770227 -0.017314356 -0.006106819
000010 37 e8 81 bd 8e 8a 5c bd 76 49 15 bd 6e 79 88 bb
       -0.063431196 -0.053843074 -0.03644701 -0.004164866
000020 88 0b 14 bc 78 fc 59 3b 1e e5 94 bc 38 ff a8 3c
       -0.009035952 0.0033262055 -0.018175658 0.02062951
000030 4b c1 b2 bc 98 47 3c 3c 18 fb 55 3d ec 24 b5 3c
       -0.021820685 0.011491679 0.052241415 0.022112332
000040 fc 75 3b 3d 31 bc 14 3c aa 56 fa 3c 19 10 80 3c
       0.045766816 0.009078071 0.030558903 0.015632676
000050 0a ab 60 3c 9c 2d f6 bc ce 9c 98 3c a5 91 41 bd
       0.013712654 -0.030051045 0.018629458 -0.047258038
000060 35 e9 97 3b d3 ed 42 bc 6f d5 8f bc b9 2f c9 3c
       0.0046359547 -0.011897522 -0.017557828 0.024558889
000070 a7 83 03 3d e4 f1 d4 3d 03 ff 27 3d e7 81 a1 3d
       0.032107975 0.103976995 0.041014683 0.07886105
000080 30 fe 26 3d 82 a7 aa 3d cc aa 9f 3d 84 77 89 3d
       0.040769756 0.08332731 0.07796249 0.06712249
000090 da 92 b7 3c 21 7f df 3c 53 b8 9d 3d de 06 89 3d
       0.022408891 0.0272823 0.07701173 0.06690763
0000a0 ed 73 21 3d ce 98 d9 3c be 5c aa 3d 8d e7 86 3c
       0.039417196 0.02656212 0.083184704 0.016467834
0000b0 94 f3 ad 3d 78 a4 98 bc 52 a5 46 3d 72 05 05 3d
       0.084937245 -0.018633112 0.048497505 0.032475896
0000c0 23 03 78 3c ee ba 3a 3d 2c dc dd bc d9 2b a8 bc
       0.015137467 0.045588426 -0.027082525 -0.02052872
0000d0 00 cc 5e 3d b7 f9 af 3c c0 dd 8b bc 36 20 59 bc
       0.05439377 0.021481378 -0.017073512 -0.013252309
0000e0 7f 5d 0e bd c6 96 22 bd 99 c3 87 bd 2b 74 65 bd
       -0.034757134 -0.03969457 -0.06629104 -0.05601899
0000f0 6d 91 9f bd 72 24 9c bb 99 f5 cd bc 90 3f db 3c
       -0.0779141 -0.004765087 -0.025141524 0.026763707
000100 c2 b2 8c bc d7 88 ec 3a c3 1c 29 bd 95 7b a1 bc
       -0.017175082 0.0018046153 -0.041287195 -0.019712249
000110 c1 8a 97 bc 58 23 db bc 0d 23 db 3c 9a c8 0e ba
       -0.01849878 -0.026750252 0.026750112 -0.0005446762
000120 fc 4b 75 ba d6 44 14 3c a0 eb 5a 3d 57 d8 85 bc
       -0.0009357331 0.009049615 0.053447366 -0.01633851
000130 d8 c3 41 3d b2 c7 49 3d 83 ff 76 3d c7 e1 0a 3c
       0.04730591 0.04926271 0.06030227 0.008476681
000140 96 75 79 bc 13 e5 3b 3d de 33 39 3d 3f 5e 03 3d
       -0.015225789 0.04587276 0.04521548 0.032072302
000150 fd af 47 3d e1 08 6f 3d 4c d6 7e 3d f0 75 93 3c
       0.04875182 0.058358077 0.06221609 0.018000573
000160 d1 11 a4 3d e3 20 8f 3d 3d 75 1c 3d 4c 14 23 bd
       0.08011211 0.069886945 0.038197745 -0.03981428
000170 13 2e 48 3c 92 f8 03 3d 9f b4 83 3c ab 82 86 3c
       0.012218016 0.032219477 0.016077338 0.01641973
000180 33 e1 30 3c 3e 3d 0c 3d ff 3e 26 3c db d8 aa 3c
       0.010795879 0.034238093 0.010146855 0.020855358
000190 9b be c1 3c 7a 41 cf bc e4 c8 d9 3c ac 0b 2b bc
       0.023650458 -0.025299776 0.02658505 -0.0104397945
0001a0 38 c3 0a bd af 4f 1b 3b 55 2d 91 3b 6e dd 7f bc
       -0.03387758 0.0023698618 0.004430453 -0.015616758
0001b0 2d ca f3 3b f7 dd f4 3c b8 78 f9 3c 4c db 8c 3d
       0.0074398727 0.029890997 0.030453071 0.06877765
0001c0 77 ad 5a 3d 77 62 8d 3c 15 12 6e 3d 99 d1 69 3d
       0.053388085 0.017258866 0.058122713 0.057084654
0001d0 b7 91 00 3d 2d 05 86 bc 53 d2 b5 3c f1 26 07 bd
       0.031388965 -0.01635989 0.022195017 -0.03299612
0001e0 70 c8 cc 3b 33 14 f2 bc 13 f0 02 3d 54 ef 25 3c
       0.00624948 -0.029550647 0.031967234 0.010127861
0001f0 ef 01 3a bd 27 00 ba 3b d8 d2 8e 3d c7 87 86 3d
       -0.045412 0.0056762877 0.06973809 0.06568866
000200 f2 9a 7b 3d ca 49 74 3b b1 ff cf 3b 4b 25 6e 3d
       0.061427064 0.0037275427 0.0063476195 0.058141034
000210 3a dc b0 3c d7 22 0b 3d 0e f3 63 3c 43 73 bc 3c
       0.021589387 0.033968773 0.013912929 0.02300418
000220 96 d9 1b bd 0d b5 85 bc 6c 7b e9 bc b6 a7 1d bd
       -0.038049303 -0.016321683 -0.028501235 -0.03849002
000230 cc 5c fc 3b 08 88 01 3d e3 c3 b3 bc 5f 68 3b bb
       0.007701492 0.03162387 -0.021943992 -0.0028596146
000240 9e 22 5a bc 62 0d 02 3d 2d 27 2f 3d 76 da 14 bc
       -0.013313917 0.031751044 0.04276197 -0.009085288
000250 13 f0 41 bc cf b2 42 3d 54 14 4a 3d f1 9b 50 bc
       -0.011837023 0.047533806 0.049335793 -0.012732492
000260 cc ae 13 bc c7 f2 6b 3b 61 5a 81 bd 6f af 63 bd
       -0.009013843 0.003600286 -0.063160665 -0.05558723
000270 5e 5b ca bc 87 7b 6a bd 6a fe ca bc 4b 64 6d bd
       -0.02470177 -0.05724671 -0.024779517 -0.057956975
000280 8d 29 1d 3b 97 0d 25 bd 00 4b 2c 3b 48 11 2b 3d
       0.0023981065 -0.040296163 0.002628982 0.041764528
000290 73 0c 91 bb 5d 8a 1e 3c 52 1f bc 3b 86 41 40 3c
       -0.004426533 0.009676543 0.0057410384 0.011734372
0002a0 48 a1 c6 3b 1c 57 87 bc 95 65 ea bc b6 a1 cf bc
       0.0060617067 -0.01652103 -0.028612891 -0.025345664
0002b0 16 d1 79 bc 3c 14 f1 3b 6d f0 0b bd 54 e4 04 3d
       -0.015247604 0.0073571485 -0.034164835 0.032444313
0002c0 64 76 34 bd 7b 1e 00 bd 15 58 16 3d 3a fa 07 3d
       -0.04405822 -0.03127907 0.036705095 0.03319762
0002d0 44 77 a2 3c 77 b0 9b 3d 2d 7b 38 3d 0c f6 2c 3a
       0.01983226 0.076020174 0.045039345 0.0006597943
0002e0 df b9 06 bb d3 ac 7e 3d 51 e6 78 3d 31 71 53 3d
       -0.0020557565 0.062176537 0.06076652 0.05162162
0002f0 e2 c0 9c 3d 6c 1c 3e bd 35 da 7f bb 01 24 e9 ba
       0.07653977 -0.046413824 -0.0039039974 -0.0017787219
000300 41 f7 da bc 0a 25 40 3b 4c 4c e0 bb 7b 46 6f bc
       -0.026729228 0.0029318952 -0.006845033 -0.014604206
000310 67 22 93 bd 3e 82 16 bd b7 a6 85 3b 67 b9 1c 3d
       -0.07184296 -0.036745302 0.004078712 0.03826275
000320 a1 96 14 3d 3a 5f e5 3c f5 75 87 3c db 8d 06 bd
       0.036276463 0.02799951 0.016535738 -0.032850128
000330 ae 6a 06 3c 44 dc 36 bd 16 c1 0a 3d 36 a4 87 3c
       0.008204145 -0.044643655 0.033875547 0.016557794
000340 14 b9 8c 3c 8f 4a 8e bc 80 0c 3c bd a4 d3 bd bc
       0.017178096 -0.017369537 -0.04591036 -0.023172207
000350 86 e0 1d 3c fa 57 3e 3b 20 29 c8 38 7e 42 a5 3c
       0.00963605 0.0029044137 9.544403e-05 0.020173308
000360 3c 23 12 3d 5b bc 8f 3d 59 86 4b 3d 6c c4 4f 3d
       0.035678133 0.07018348 0.04968867 0.050724432
000370 3d a0 a0 3c 42 6a 5e bc a1 e4 28 3d 86 26 5e 3d
       0.019607658 -0.0135751385 0.041233663 0.054235958
000380 56 d1 0d 3b 4f 2a 8a bc d9 94 25 3d 96 cb f3 bc
       0.0021639667 -0.016865877 0.040425155 -0.029760163
000390 d4 c5 9e bc 44 a8 b9 bc 01 c1 90 bc 92 0a d9 3b
       -0.019381441 -0.022663243 -0.017670156 0.0066235745
0003a0 5a 17 51 3d 39 16 f9 3c 62 fb af 3c 92 5b b6 3c
       0.05104766 0.030406104 0.021482173 0.022260461
0003b0 8a 3d c9 3b 00 ba d4 3b 49 02 7b 3d 11 91 0d 3b
       0.006141369 0.0064918995 0.061281476 0.002160136
0003c0 31 54 a0 3d 3d f6 99 3d 90 64 8b 3d 41 e7 41 3d
       0.07828558 0.07517669 0.0680629 0.04733968
0003d0 56 ec a9 3b 2e a3 80 3d 1a cd 17 3d fc 9d a0 3c
       0.005185644 0.06281124 0.037060834 0.019606583
0003e0 5e 96 38 3d 22 a7 60 3c 41 1a 88 bb 85 81 09 3d
       0.045065276 0.013711723 -0.0041535203 0.033570785
0003f0 8c 4f 1f bd 1b 67 3b bd 1d 68 6f bd 27 1c 6d bd
       -0.03889422 -0.045752626 -0.0584489 -0.057888176

conv2.bias f4 [128]
000000 73 d6 62 bc 83 9f 39 3c d1 d8 cb 3b b3 9d 4a ba
       -0.013845074 0.011329534 0.006220915 -0.00077291875
000010 53 08 35 bd 4b 86 09 3d 0c c5 75 bc 2c 21 1e bd
       -0.04419739 0.033575337 -0.015000593 -0.038605854
000020 9e 00 a5 3a c4 93 41 bc 69 ae e9 3c 08 03 47 3b
       0.0012588685 -0.011815015 0.028525548 0.0030366797
000030 09 25 d2 bc 34 eb 98 3c b7 5e 43 bd 67 a5 b0 bc
       -0.025652425 0.018666841 -0.04769775 -0.021563245
000040 b4 0b c8 3b 23 50 12 ba c5 19 52 3d 3a a9 84 bc
       0.0061049107 -0.00055813993 0.051294107 -0.016193975
000050 73 f8 c5 ba 95 a5 84 3d 32 ae cd bc 36 a5 3e bd
       -0.0015103951 0.06476895 -0.025107477 -0.046544276
000060 d9 7b 72 3c b1 15 b7 3c 56 4a 4c bd 17 a4 5d 3c
       0.014800035 0.02234921 -0.04987558 0.013527892
000070 44 3e c4 3b 11 40 f5 bc fb a1 f7 ba 29 09 fc 3c
       0.005988868 -0.029937776 -0.0018892878 0.030766087
000080 88 91 20 3c f6 07 ce 3c b0 82 02 3d 77 3c 28 bc
       0.009800322 0.02515028 0.031862915 -0.010268322
000090 ef f1 87 3c 43 bd 14 3d d7 fb 25 3c 18 5f 22 bc
       0.016594855 0.036313307 0.010130844 -0.009910367
0000a0 e5 16 ef bc 22 66 39 3d e9 8f bb bc 8d 44 6e 3c
       -0.029185722 0.045263417 -0.02289577 0.014542711
0000b0 a5 a4 d0 3c c5 93 9d bb 7a 03 b6 bb fc c6 35 3c
       0.025469134 -0.0048088753 -0.0055546137 0.011094805
0000c0 1b e0 cc 3c 7c e9 d3 bc ea 77 4c 3d ca 30 89 3d
       0.025009206 -0.02586817 0.049919046 0.06698759
0000d0 e7 57 02 3c 12 a5 a1 bb ab c1 18 3d 77 34 b5 bb
       0.007955528 -0.004933008 0.03729407 -0.005529936
0000e0 9a 92 87 bb 3e e8 bb bc 45 c7 83 bc 55 57 22 bd
       -0.0041373493 -0.02293789 -0.01608623 -0.039634068
0000f0 ac 0c 82 3c 7f 76 46 bb 9c d4 13 bd 79 8c 41 bd
       0.015875183 -0.0030283032 -0.036091432 -0.047253106
000100 21 e9 22 bd 03 b7 58 bc c7 31 e4 bc 21 18 b5 bb
       -0.03977311 -0.013227227 -0.027855767 -0.005526558
000110 7c a9 48 3c 0c af 94 3c 1e c7 f8 3c 1c 64 19 3d
       0.0122474395 0.018149875 0.030368384 0.037448987
000120 20 b4 b5 bc 5c 9d b8 bb 2a b4 2b 3d 1c bf d8 bc
       -0.022180617 -0.005633993 0.041919865 -0.026458316
000130 e3 b3 d3 bc a9 c3 9a 3c 1c d2 89 3c 2c 38 3c bb
       -0.025842613 0.018892126 0.01682382 -0.0028720004
000140 7d 9e c0 bc f5 31 32 bd e0 92 3d 3c ae 88 2b bc
       -0.023513073 -0.043504674 0.011570662 -0.010469599
000150 e6 d7 96 3d 8f f8 b7 bc ae 7b 15 3c 07 f1 f3 bc
       0.07365398 -0.02245739 0.009123726 -0.029778017
000160 e9 89 1d 3d d7 c7 3f 3c ec 24 ed 3b 4f 76 0c 3d
       0.0384616 0.01170536 0.0072370674 0.034292515
000170 6a f6 60 3d d4 fb 66 bc c9 41 34 3b ce cc 76 3d
       0.0549225 -0.014098126 0.0027505031 0.06025391
000180 76 76 21 3d c1 7b 1a bc 55 72 2e 3d cc 72 d2 3c
       0.039419614 -0.009428919 0.042589504 0.025689505
000190 87 59 fc 3a 3a 6a 95 bc ef 7f e0 bc 2e 4d 82 3d
       0.0019252755 -0.01823913 -0.027404753 0.06362377
0001a0 f8 cd 93 3d b2 e1 51 3d 69 7f 34 bd 7b cd 81 3c
       0.0721702 0.05124063 -0.04406682 0.015845051
0001b0 24 f3 c9 bc db 04 28 bc e5 86 e4 3a 5c 1e 2b 3c
       -0.024652071 -0.010255064 0.0017435221 0.01044425
0001c0 2c 99 91 3b ce 69 0e bd e2 0b df bc 15 3e 79 3c
       0.0044433083 -0.034768872 -0.027227346 0.015212555
0001d0 b2 5d 30 bd 92 d7 11 bd e8 fe 0c bd 10 75 14 3a
       -0.043058105 -0.035605974 -0.034422785 0.00056631956
0001e0 a0 51 c0 3c 18 cf d6 3c 67 f0 2c 3b 15 0b 3d 3a
       0.023476422 0.026221797 0.0026388408 0.0007211429
0001f0 8d dd ae 3b ef 4f 51 bd f9 f5 81 bb 4d 23 6b 3c
       0.0053364695 -0.05110162 -0.00396609 0.014351678

conv3.weight f4 [1, 128, 3, 3]
000000 36 b4 0f 3e 42 a8 26 3e 4a 92 2c 3e ff e5 0f 3e
       0.14033589 0.16275123 0.1685268 0.1405258
000010 3a cd 2f 3e 69 e7 1b 3e e1 59 32 3e 24 c0 0f 3e
       0.17168131 0.15224995 0.17417099 0.1403814
000020 92 09 28 3e 28 8d 64 3d b9 6a 43 3d f2 2a b4 3d
       0.16409901 0.05579868 0.0477092 0.08797254
000030 49 b4 b8 3d c9 d4 bf 3d b9 3f b9 3d 24 6f 9b 3d
       0.09018762 0.093667574 0.09045357 0.07589558
000040 b2 4a c3 3d d9 33 8d 3d 90 c5 00 be d5 f8 f7 bd
       0.095357314 0.06894655 -0.12575364 -0.12108008
000050 d3 c2 d6 bd f5 4e bd bd e0 03 c9 bd 7d bc df bd
       -0.104863785 -0.092435755 -0.09815192 -0.10924623
000060 0c 06 e2 bd ea 39 a9 bd 3f 96 c0 bd 73 8e d5 bc
       -0.110363096 -0.08262999 -0.09403657 -0.026068902
000070 88 30 27 bd 88 d9 f6 bc 08 58 55 bd 17 ae 43 bd
       -0.040817767 -0.030133024 -0.052085906 -0.047773447
000080 eb 69 04 bd c8 3a 9e bc 38 10 49 bd 2e a7 96 bc
       -0.032327574 -0.019315138 -0.049087733 -0.018390264
000090 f8 a1 82 bd 3f c7 a9 bd c3 66 a2 bd 9a 55 3a bd
       -0.06378549 -0.08289956 -0.079297565 -0.045491792
0000a0 86 39 b6 bd e2 ec af bd 3a df 92 bd 60 63 b8 bd
       -0.088976905 -0.08590104 -0.07171483 -0.09003329
0000b0 a9 24 b6 bd 1e 72 c8 bc 4a 1d 4a bd 18 09 d5 bc
       -0.08893711 -0.024468478 -0.04934434 -0.026005313
0000c0 c0 ce 02 bd 8c be 20 bd 27 32 6c bc 26 07 54 bd
       -0.031935453 -0.03924422 -0.014416254 -0.05176463
0000d0 48 a3 fc bb 29 73 0f bd 95 82 27 bd 0e 36 af bc
       -0.0077098943 -0.035021935 -0.040896017 -0.02138808
0000e0 89 46 63 bd d8 d9 1c bd fd a8 37 bd 59 9d 49 bd
       -0.05548719 -0.03829369 -0.044838894 -0.049222324
0000f0 78 74 a3 bc d4 f9 80 bc d0 ca 45 bd 8c 3d e0 3c
       -0.019952998 -0.015744127 -0.04828912 0.027373098
000100 56 d7 e8 3c 08 3d 08 3d a9 fc 02 3d 12 f9 09 3d
       0.028422993 0.03326133 0.031979237 0.033684798
000110 89 d3 20 bb 24 ce 17 3d 51 4c 3b 3d 91 72 0d 3d
       -0.0024540147 0.037061825 0.045727078 0.034533087
000120 f4 e1 c9 3d 1e 2f 8b 3d e5 38 ae 3d 5c 63 b2 3d
       0.0985755 0.06796096 0.085069455 0.087103575
000130 a3 34 44 3d b0 e0 bb 3d 20 a3 8a 3d e7 69 74 3d
       0.04790176 0.09173715 0.06769395 0.05967131
000140 96 42 d0 3d f2 40 a0 3d 95 b3 81 3c 38 32 6f 3d
       0.1016895 0.07824887 0.015832702 0.0583975
000150 71 d0 1c 3d be b6 11 3c 06 7a 1a 3d 52 93 89 3d
       0.038284723 0.008893667 0.037714027 0.06717552
000160 ff f2 1b 3d 17 d3 99 3d f3 4b 33 bd 76 fd a1 3b
       0.038073536 0.07510965 -0.043773603 0.004943545
000170 0a 94 5a bd e2 fa 84 bc b5 ef 06 3b ce 4f 80 bc
       -0.053363837 -0.016232911 0.0020589654 -0.015663054
000180 23 d5 d4 bc 74 cf 5a bd 0d d3 8b bc 5f f5 ce 3c
       -0.025980538 -0.0534205 -0.01706841 0.025263486
000190 e4 33 a2 3c 1b 9d 19 3d a3 78 4d 3d 1e f9 25 3d
       0.019800134 0.037503343 0.050163876 0.04052078
0001a0 6c 0b a2 ba 89 05 29 3a 6b 37 f9 3b 57 fe 66 3d
       -0.0012363023 0.0006447663 0.0076054833 0.0563949
0001b0 42 d1 1c 3d af b9 c2 3c 15 da 0e 3d 31 17 07 3d
       0.0382855 0.023770181 0.034875948 0.0329811
0001c0 0d 67 46 3d 35 06 90 3b 33 6f 15 3d f0 81 bd 3c
       0.04843812 0.004395271 0.036483 0.023133248
0001d0 08 2c 1c 3d a7 62 77 bc 35 e3 41 3c 14 9e 3d bc
       0.03812793 -0.015099204 0.0118339555 -0.011573333
0001e0 2c d9 89 bc 96 bd 30 3c cf 87 b8 bc ec 63 3c bc
       -0.016827188 0.010787388 -0.022525696 -0.011498433
0001f0 66 db db bc 8e f3 8e 3c 34 10 08 3c d4 9f a9 3c
       -0.026838016 0.01745012 0.008304644 0.020706095
000200 ce 6c e7 3b 0a 4f f5 3b d3 39 00 3d db 14 8e 3c
       0.007062531 0.007486229 0.031305145 0.017343929
000210 56 2d 95 3c 3a 37 23 3d cf 1c 32 3d 51 b4 0c bd
       0.018210094 0.03984759 0.043484505 -0.03435165
000220 44 e9 ee bc c4 49 2d bd 93 f2 4c bd eb 00 61 bd
       -0.029163964 -0.042306677 -0.050036024 -0.054932516
000230 42 9f f3 bb 16 94 4d bd 64 98 73 bd fd 73 dd bc
       -0.0074347565 -0.050190054 -0.059471503 -0.027032847
000240 af 8f 0e 3d ff 4a 64 3d 7f 4d 45 3d ce 3d 3e 3d
       0.034804996 0.055735584 0.04816961 0.04644566
000250 b8 9e cc 3c 05 f3 55 3d 47 2b 74 3d bc 5e 82 3d
       0.024978027 0.052233715 0.059611585 0.063657254
000260 b3 c5 84 3d ab 22 81 bd 97 c8 41 bd 04 36 71 bd
       0.06483021 -0.063054405 -0.047310438 -0.058889404
000270 50 69 37 bd 6b 9f 5f bd 70 9a 36 bd e8 dd 83 bc
       -0.04477817 -0.054595392 -0.044580877 -0.016097024
000280 ab 4d 47 bd 94 88 0f bd fd 2d 2a bd d1 91 ef bc
       -0.048658054 -0.03504236 -0.041547764 -0.029244335
000290 3c 9c 53 bd b4 8e c8 bb 62 ac 0f bd 0a 0e 62 bc
       -0.05166267 -0.006120527 -0.035076506 -0.0137972925
0002a0 c3 b0 0c bd 81 13 56 bd 96 c6 2d bd 95 5b f4 3c
       -0.03434826 -0.052264694 -0.042425714 0.029828826
0002b0 26 d9 7f 3c 78 f8 2e 3d cd 74 0c 3c da 39 3d 3d
       0.015615737 0.042717427 0.008572769 0.04619775
0002c0 9e ae 44 3c 06 7a 33 3d 69 8f 21 3c 53 85 c1 3c
       0.012004523 0.043817542 0.009860852 0.023623144
0002d0 7c f1 8d 3d 7c aa 31 3d fb ff 5f 3d db ca b6 3d
       0.06930825 0.043375477 0.05468748 0.0892541
0002e0 d2 0b ad 3d 6a a9 4a 3d b6 b0 87 3d de 7c a7 3d
       0.0844952 0.049477972 0.06625502 0.081781134
0002f0 19 3d c5 3d d0 8b d2 bc 39 71 e9 bc 85 8c 2e bd
       0.09630794 -0.025701433 -0.028496372 -0.04261448
000300 b1 35 59 bd 8f 23 2f bd 17 58 3f bd 8e 8d b9 bc
       -0.05302972 -0.04275852 -0.04671487 -0.022650506
000310 32 33 56 bd 9a 11 89 bd 3f 37 ad 3d 89 c4 93 3d
       -0.052294917 -0.0669281 0.08457803 0.072152205
000320 50 c3 91 3d 19 42 94 3d bd 46 7a 3c 87 e7 94 3d
       0.07117331 0.072391696 0.015275654 0.07270723
000330 89 10 0b 3d 96 57 89 3d 1c a4 26 3d 65 56 6d 3d
       0.033951316 0.06706159 0.04068385 0.05794372
000340 d1 9f 96 3d 76 50 43 3d f3 48 5f 3d 03 1b ac 3d
       0.07354701 0.047684155 0.05451293 0.084035896
000350 87 c5 b1 3d bd da 7e 3d e0 a1 b4 3d f5 4c cf 3d
       0.086802535 0.062220324 0.08819938 0.101221
000360 77 f6 19 bd e5 2e 9e 3b 5a b4 ed bc fb 72 03 bd
       -0.037588563 0.0048273676 -0.029016662 -0.032092076
000370 d1 a8 eb 3b fd 44 a8 bc 3d c8 95 bb 19 e4 81 bb
       0.0071917553 -0.020540709 -0.0045709894 -0.003963959
000380 f2 08 3b bd b8 bc 97 bc 55 1c 94 bc 26 52 d0 bc
       -0.045662828 -0.018522605 -0.018079916 -0.025429796
000390 e7 1c ed 3c 06 dc 49 bc 70 78 91 bc bd 3b 3d bc
       0.028944446 -0.012320524 -0.017757624 -0.011549887
0003a0 59 1b cd 3c 67 c4 cf 3c 6c cb fb 3d 8a d8 c5 3d
       0.025037454 0.025362207 0.12294659 0.09660442
0003b0 8c 3c cf 3d 65 3b ca 3d 89 25 d3 3d 4d bb b6 3d
       0.1011897 0.0987461 0.10309894 0.089224435
0003c0 4b ae e1 3d ae 18 b6 3d ec b5 00 3e 1d 07 8f 3d
       0.11019572 0.08891426 0.12569398 0.069837786
0003d0 df 61 bb 3d b7 fb e1 3d 11 07 75 3d 94 99 9b 3d
       0.09149527 0.11034339 0.059821192 0.07597652
0003e0 bb 90 a8 3d cf 15 db 3d a8 c4 aa 3d e5 b8 cd 3d
       0.0823073 0.10697519 0.083382905 0.100450315
0003f0 dd 2a 1e 3b 58 4a 2b 3d 9b 1f ba 3c ef 58 d0 3c
       0.0024134435 0.041818947 0.022720149 0.025433032
