weights/lol_dataset/discriminator_weight.pth (torch, 310090 bytes, 5 tensors)

conv1.weight f4 [64, 3, 3, 3]
-0.15594316 0.058307357 0.027572965 0.109418534 -0.089945115 -0.19451658 0.15556628 -0.08788063
-0.11741466 0.061105754 -0.16009423 -0.08797439 0.053821325 -0.043615524 0.044462126 0.17540205
-0.21922377 -0.02043921 0.08218501 -0.0056783785 -0.056695078 -0.09317205 -0.19567621 -0.030370545
0.13476562 -0.1047726 -0.12649103 0.10667375 -0.06339069 0.06944542 -0.12615877 0.19632185
0.09193218 -0.100748874 0.033343326 -0.060656693 0.07385231 0.15008049 0.03666458 -0.07812264
0.006446006 -0.07934583 -0.102243416 -0.14142168 -0.1462712 -0.10404832 -0.024431847 -0.10367146
0.1701374 0.015216419 0.1130333 0.119004846 -0.07463487 -0.1674569 -0.15579447 -0.15682787
0.15087989 0.020598095 0.06320859 0.15766954 0.049322933 0.20593263 -0.043934546 -0.17356552
0.03828051 0.15282096 0.0017727349 -0.14984657 -0.14618942 -0.0035398218 0.10340988 -0.025483502
-0.108033486 -0.0945699 0.04394786 -0.19964096 -0.050673112 0.089105405 -0.03919951 0.053759042
0.024167556 -0.07010229 -0.04141638 -0.057948105 0.12531944 -0.010227467 -0.09935103 0.027074125
0.13838321 0.07640299 -0.0403055 -0.12216082 -0.052410066 0.04484118 -0.074515246 -0.08359608
0.08305241 0.111053914 -0.14471531 0.08163072 0.018427428 0.010501147 0.030190706 0.0042439946
0.21402891 0.066252224 0.18164879 0.009600155 0.1114789 0.032560796 -0.032500606 -0.15976521
0.031096935 0.051999964 -0.10420585 0.02707147 0.04830374 0.18816146 -0.016084464 -0.033745084
0.03178092 -0.09651511 -0.16984572 0.17741483 -0.015576618 -0.13130215 -0.11470636 -0.11108278
0.15889367 -0.16197361 -0.056274842 -0.0024250075 0.098514296 -0.04994184 0.010620774 -0.14011435
-0.075098895 0.22169249 -0.08596022 -0.013402956 0.10579643 -0.06744335 -0.028591009 -0.1212807
-0.063655384 0.05215635 0.09596702 -0.063172914 0.053117637 0.059568938 -0.12865685 -0.17216979
-0.0049922373 0.17829484 0.11719917 -0.16984998 0.010269716 -0.121607766 0.07025486 0.14294906
0.15135475 0.13289376 0.06903649 -0.21254216 -0.15653461 0.114607304 0.08658025 -0.005683327
0.041530013 0.14940819 0.053462513 0.11801359 -0.08617873 -0.0120477965 0.033930857 0.08654264
-0.023083746 -0.06660671 -0.08425462 -0.10845004 -0.036178164 -0.08495163 -0.20856097 0.12338859
-0.20904027 -0.048697576 0.08127825 0.1395335 -0.15852468 0.117516235 -0.12840521 0.08765366
-0.051523384 0.017573921 -0.113173045 0.1879312 -0.010418376 -0.13637349 -0.08827951 -0.18482059
0.03952354 -0.12623005 -0.13091584 -0.10098439 -0.048633635 -0.017809136 0.17925212 0.10457749
-0.08335205 -0.075437896 -0.04032469 -0.14333495 -0.0344069 0.11282184 0.016786622 -0.10496696
-0.14474726 0.016174635 -0.15245731 0.15839596 -0.0052325903 -0.021293782 0.129936 0.08570747
0.15582332 -0.08910174 -0.103995465 0.018173523 -0.099805474 -0.125368 0.019935783 0.074753605
0.042795505 0.11022832 -0.12918335 0.08246463 -0.13626778 0.11766381 0.03773499 -0.14498116
-0.021596413 -0.15939042 0.018282786 0.1921246 0.17395778 0.028818741 -0.12448424 0.06024744
0.15875058 0.0182929 -0.084096916 -0.078170255 0.033299398 -0.1090372 0.16807093 -0.093379974
00000000: 90af 1fbe b2d3 6e3d b3e0 e13c d316 e03d
00000010: 2535 b8bd 5b2f 47be c44c 1f3e c2fa b3bd
00000020: 1977 f0bd 074a 7a3d beef 23be eb2b b4bd
00000030: c073 5c3d 31a6 32bd eb1d 363d 989c 333e
00000040: 327c 60be 2170 a7bc 9d50 a83d b111 babb
00000050: 1939 68bd fdd0 bebd 585f 48be a6cb f8bc
00000060: 0000 0a3e 0493 d6bd dd86 01be c477 da3d
00000070: fad2 81bd 6639 8e3d c42f 01be 9808 493e
00000080: f046 bc3d 6d55 cebd 0393 083d 2773 78bd
00000090: e13f 973d b3ae 193e 992d 163d c3fe 9fbd
000000a0: 0439 d33b 1180 a2bd ff64 d1bd d8d0 10be
000000b0: 1ec8 15be 4917 d5bd 4c25 c8bc b451 d4bd
000000c0: 8038 2e3e 494e 793c 017e e73d d0b8 f33d
000000d0: 2bda 98bd d279 2bbe 9688 1fbe 7c97 20be
000000e0: 4280 1a3e 56bd a83c 8173 813d 2074 213e
000000f0: d806 4a3d 01e0 523e b6f4 33bd 29bb 31be
00000100: 06cc 1c3d 197d 1c3e 1d5b e83a 6171 19be
00000110: aeb2 15be 5bfc 67bb 8fc8 d33d c7c2 d0bc
00000120: a940 ddbd ddad c1bd ac02 343d ae6e 4cbe
00000130: 9c8e 4fbd e57c b63d aa8f 20bd 7132 5c3d
00000140: 0afb c53c ca91 8fbd 39a4 29bd fe5a 6dbd
00000150: bd53 003e 1b91 27bc 8e78 cbbd 8eca dd3c
00000160: 54b4 0d3e 2c79 9c3d 6117 25bd 742f fabd
00000170: f0ab 56bd 63ab 373d 739b 98bd 6c34 abbd
00000180: 6217 aa3d 3c70 e33d 4030 14be 022e a73d
00000190: 1ef5 963c 010d 2c3c 8052 f73c 3511 8b3b
000001a0: 652a 5b3e 3faf 873d 2402 3a3e f849 1d3c
000001b0: 0d4f e43d 785e 053d 5b1f 05bd 7e99 23be
000001c0: 00bf fe3c eafd 543d e069 d5bd fdc4 dd3c
000001d0: 24da 453d 66ad 403e 91c3 83bc 4938 0abd
000001e0: b62c 023d b7a9 c5bd 09ec 2dbe 3cac 353e
000001f0: 1235 7fbc 1274 06be 2beb eabd 5e7f e3bd
00000200: 06b5 223e 69dc 25be 7380 66bd e0ec 1ebb
00000210: ddc1 c93d d18f 4cbd c102 2e3c 237a 0fbe
00000220: 73cd 99bd 5b03 633e e90b b0bd 1298 5bbc
00000230: ccab d83d bd1f 8abd b137 eabc 0462 f8bd
00000240: c15d 82bd e6a1 553d 5b8a c43d cd60 81bd
00000250: e191 593d 8ffe 733d 9fbe 03be 474d 30be
00000260: ec95 a3bb ec92 363e 1e06 f03d 27ed 2dbe
00000270: 5042 283c 7e0d f9bd c8e1 8f3d 3d61 123e
00000280: bdfc 1a3e 4d15 083e 0163 8d3d a7a4 59be
00000290: 9c4a 20be 3cb7 ea3d fc50 b13d 343b babb
000002a0: 601b 2a3d 76fe 183e 82fb 5a3d 1cb1 f13d
000002b0: 797e b0bd 1f64 45bc 15fb 0a3d 453d b13d
000002c0: 201a bdbc 1969 88bd b08d acbd 0e1b debd
000002d0: 8e2f 14bd 1ffb adbd 0291 55be 28b3 fc3d
000002e0: a70e 56be 1c77 47bd 3675 a63d dfe1 0e3e
000002f0: 4b54 22be 5aac f03d a87c 03be c383 b33d
00000300: 2f0a 53bd 2ff7 8f3c 45c7 e7bd 0971 403e
00000310: d6b1 2abc 7ea5 0bbe e3cb b4bd 9c41 3dbe
00000320: 6fe3 213d 7342 01be cd0e 06be e7d0 cebd
00000330: 1034 47bd 77e4 91bc de8d 373e b92c d63d
00000340: 7bb4 aabd 2f7f 9abd 812b 25bd 66c6 12be
00000350: 40ee 0cbd 230f e73d 1984 893c ebf8 d6bd
00000360: a038 14be ab80 843c c51d 1cbe 8d32 223e
00000370: 2676 abbb 4c70 aebc f10d 053e 6687 af3d
00000380: 2690 1f3e f97a b6bd 93fb d4bd a4e0 943c
00000390: d066 ccbd 7860 00be 5e50 a33c 6b18 993d
000003a0: 574a 2f3d 63bf e13d a448 04be 37e3 a83d
000003b0: c889 0bbe b9f9 f03d 0190 1a3d f175 14be
000003c0: f6ea b0bc 3e37 23be c8c5 953c 50bc 443e
000003d0: fd21 323e 4815 ec3c 98f1 febd 05c6 763d
000003e0: 838f 223e feda 953c 013b acbd ba17 a0bd
000003f0: f364 083d e54e dfbd c91a 2c3e 003e bfbd

conv1.bias f4 [64]
0.1098433 -0.070760064 -0.10941617 -0.023238664 -0.04200401 0.19349684 -0.208281 -0.17054282
-0.06349607 0.05141735 0.046600144 0.03768485 0.030131344 0.11044456 -0.16505575 0.17042679
0.08151719 -0.025810702 0.0904354 0.13046703 0.04854413 -0.020824088 -0.028357109 0.04086885
0.04074312 0.14078188 -0.113222435 -0.22254957 -0.02399255 -0.12408915 0.17599715 -0.10003192
-0.1634022 0.04022996 0.049161885 0.2314994 0.025887966 -0.086108 0.077140346 -0.12673268
0.03374654 0.20310128 -0.103582785 -0.0116739245 0.13652629 -0.036495756 0.1632745 -0.21305814
-0.19146006 -0.10682777 -0.02947063 -0.0077256984 0.06478299 0.06719757 -0.12226423 -0.1018143
0.017981298 -0.12812209 0.07630182 0.1335691 0.19647963 -0.098308586 0.04615076 -0.041026093
00000000: 86f5 e03d a7ea 90bd 9615 e0bd 035f bebc
00000010: 660c 2cbd 0924 463e 9d47 55be c7a2 2ebe
00000020: 3a0a 82bd 009b 523d cbdf 3e3d 6e5b 1a3d
00000030: 02d6 f63c c230 e23d 6004 29be 5c84 2e3e
00000040: 7cf2 a63d f770 d3bc 3236 b93d 2699 053e
00000050: 36d6 463d 4797 aabc 2b4d e8bc 1866 273d
00000060: 42e2 263d 2029 103e 2ae1 e7bd 09e4 63be
00000070: 068c c4bc 7422 febd 9938 343e 89dd ccbd
00000080: e852 27be 2cc8 243d f95d 493d 2e0e 6d3e
00000090: 0013 d43c 6459 b0bd c2fb 9d3d 36c6 01be
000000a0: d039 0a3d c8f9 4f3e 3623 d4bd fd43 3fbc
000000b0: 8ccd 0b3e 937c 15bd 6e31 273e ea2b 5abe
000000c0: 1b0e 44be 85c8 dabd 646c f1bc db27 fdbb
000000d0: f2ac 843d e19e 893d ab65 fabd 0484 d0bd
000000e0: 844d 933c 7032 03be 2144 9c3d 57c6 083e
000000f0: f531 493e 0356 c9bd 9408 3d3d fa0a 28bd

conv2.weight f4 [128, 64, 3, 3]
-0.047130976 -0.046640314 0.015027565 0.0062067504 -0.01502944 -0.031150218 -0.040788036 0.029054325
-0.009457076 0.042627856 0.022645436 0.03772559 0.032756686 0.039586306 0.020109488 0.035275467
0.014215536 0.011430866 -0.0076750526 0.024033256 0.009600306 -0.007581248 -0.02255776 -0.020728098
-0.03266842 0.0135392025 0.03388069 0.00075912994 0.030820703 0.0011979288 -0.011191877 0.034741417
0.0033760727 -0.0058198506 0.00020849187 -0.02455066 -0.029276313 0.030336425 -0.011823148 -0.04173811
0.0055428296 -0.033781722 -0.0062457495 -0.037427116 0.008192289 -0.0358436 -0.03527343 -0.03476132
0.004437645 -0.027833091 0.02654604 -0.016267875 -0.03587793 -0.033671647 -0.022759197 -0.011396413
-0.02589163 -0.013641025 -0.013919517 -0.020998694 0.011216486 0.007984291 -0.02793631 -0.012952896
-0.012599617 0.046376146 0.020048268 0.04501815 0.014742162 0.014051284 -0.0054715406 0.05173155
0.01425198 -0.015494537 0.030879674 0.030920466 -0.029999409 -0.037013046 0.006547238 -0.0005743635
-0.0009484739 -0.0029437505 0.01743668 0.0020350828 -0.009946078 0.031734392 0.007461636 -0.008550499
-0.02759528 -0.025715685 -0.04817263 0.021875165 0.010300139 0.017460952 -0.012126912 0.009892415
-0.028481264 -0.03633344 0.0023908261 -0.03719191 0.03305554 0.020455778 -0.00081813004 0.021777106
0.009263846 0.018186372 -0.008318865 0.0119698 -0.038728353 -0.018553874 0.027801428 -0.010225314
0.033837367 -0.011270129 0.033899624 0.022252996 -0.004668945 -0.05171235 0.012857608 -0.045614377
-0.028037217 0.0017533179 0.00031781883 0.008321255 0.007959404 0.022670975 -0.008781788 -0.043125167
-0.05731121 -0.036888536 -0.08021122 -0.047779102 -0.07818207 -0.053957228 -0.016704671 -0.0029687677
-0.074762434 -0.022170356 -0.0126459235 -0.02046581 -0.0062482865 0.0016953741 0.0034480426 -0.019729314
-0.050381705 -0.064731665 -0.07106865 0.008898496 0.0018490567 -0.03917788 -0.008758823 -0.005500803
-0.010621798 0.007608076 -0.026325453 0.04299174 0.030773032 0.024975507 0.039319623 0.029808918
0.010832969 -0.035638403 0.0057843523 -0.042322442 -0.025577381 -0.053342942 -0.002668594 -0.04738086
-0.017209299 -0.05469079 -0.036647566 -0.010938219 -0.017612832 0.030075315 0.047094636 0.04084075
0.01252096 0.012477903 -0.009209184 -0.0046405126 0.007648855 -0.0018891274 0.035350442 -0.035954367
-0.005240421 0.0048525766 0.01241593 -0.015966248 -0.001539735 0.036353614 -0.009137051 -0.010569628
0.025957434 -0.036323022 0.027987218 -0.01651925 -0.0072183865 -0.026823564 0.008154133 0.032463707
0.03210339 -0.013587503 0.038813226 0.00096037646 -0.0045629917 0.048337057 -0.009087391 -0.044777237
-0.009128026 -0.050609667 -0.022266274 -0.023019694 -0.000114422735 -0.045468997 -0.057302967 -0.011445842
-0.007917251 0.025525607 -0.00076851516 0.022784865 0.02903273 0.034924824 0.06436089 0.013981842
0.016508603 -0.01391168 -0.06500736 -0.064090736 0.0052820793 -0.03424243 -0.016319845 -0.038717937
-0.0036413157 -0.039714087 0.022480335 0.024459504 -0.022251667 0.017575111 -0.011750112 0.027639842
-0.018119456 -0.035716582 0.029806048 0.011666564 0.017164605 0.02832703 -0.036751077 0.0032828876
0.0019745126 -0.029704906 -0.040080763 0.028166175 0.014902344 0.01280527 -0.012845169 -4.8437392e-05
00000000: 690c 41bd ea09 3fbd 2d36 763c ff61 cb3b
00000010: 0a3e 76bc be2e ffbc 5b11 27bd 5603 ee3c
00000020: daf1 1abc 8c9a 2e3d ec82 b93c 2686 1a3d
00000030: e02b 063d 4025 223d a7bc a43c 027d 103d
00000040: 48e8 683c 8748 3b3c 027f fbbb 64e1 c43c
00000050: 9a4a 1d3c 1e6c f8bb 0dcb b8bc f9cd a9bc
00000060: 52cf 05bd 88d3 5d3c 7ac6 0a3d 5900 473a
00000070: b37b fc3c d203 9d3a 225e 37bc 044d 0e3d
00000080: 1a41 5d3b 72b4 bebb 9c9e 5a39 771e c9bc
00000090: e1d4 efbc 1884 f83c e0b5 41bc 95f5 2abd
000000a0: a0a0 b53b b45e 0abd 25a9 ccbb 2d4d 19bd
000000b0: f338 063c bdd0 12bd df7a 10bd e361 0ebd
000000c0: aa69 913b 3902 e4bc 1577 d93c 3544 85bc
000000d0: bcf4 12bd 48eb 09bd 7f71 babc 05b8 3abc
000000e0: af1a d4bc 9b7e 5fbc b00e 64bc 7405 acbc
000000f0: 5ac5 373c 8bd0 023c b0da e4bc 6238 54bc
00000100: a06e 4ebc eaf4 3d3d 443c a43c f464 383d
00000110: 1c89 713c 5b37 663c 9c4a b3bb 76e4 533d
00000120: 2381 693c ccdc 7dbc 5ff7 fc3c eb4c fd3c
00000130: 52c1 f5bc fe9a 17bd 378a d63b e290 16ba
00000140: 02a3 78ba f0eb 40bb 5ed7 8e3c 065f 053b
00000150: e0f4 22bc ecfb 013d bd80 f43b 6417 0cbc
00000160: 7f0f e2bc b3a9 d2bc aa50 45bd 8c33 b33c
00000170: eac1 283c 450a 8f3c f5af 46bc cc13 223c
00000180: 8a51 e9bc 60d2 14bd 68af 1c3b 8b56 18bd
00000190: 3f65 073d e092 a73c c777 56ba e765 b23c
000001a0: 63c7 173c 96fb 943c d94b 08bc fb1c 443c
000001b0: 9fa1 1ebd 4bfe 97bc d2bf e33c 1388 27bc
000001c0: 0d99 0a3d 59a6 38bc 55da 0a3d ea4b b63c
000001d0: f3fd 98bb 54d0 53bd b7a8 523c 24d6 3abd
000001e0: 4eae e5bc 96cf e53a eca0 a639 e055 083c
000001f0: 2968 023c 7bb8 b93c 7de1 0fbc 04a4 30bd
00000200: 29bf 6abd 6f18 17bd c845 a4bd 05b4 43bd
00000210: ec1d a0bd 4102 5dbd 3cd8 88bc a88f 42bb
00000220: 0c1d 99bd 9b9e b5bc d930 4fbc eaa7 a7bc
00000230: 6dbe ccbb 5137 de3a 8ef8 613b 5f9f a1bc
00000240: 0c5d 4ebd 0992 84bd 718c 91bd ffca 113c
00000250: 0c5c f23a fc78 20bd 2b81 0fbc 1440 b4bb
00000260: 0d07 2ebc 2b4d f93b 7aa8 d7bc 1b18 303d
00000270: ba17 fc3c 6f99 cc3c 9d0d 213d d531 f43c
00000280: c47c 313c 93f9 11bd aa8a bd3b 4c5a 2dbd
00000290: a887 d1bc 217e 5abd 94e3 2ebb 6f12 42bd
000002a0: 84fa 8cbc 7303 60bd c21b 16bd 3736 33bc
000002b0: c948 90bc 8260 f63c 4ee6 403d a148 273d
000002c0: b624 4d3c 1e70 4c3c 1ee2 16bc 710f 98bb
000002d0: 3fa3 fa3b 999c f7ba a0cb 103d e344 13bd
000002e0: d6b7 abbb 5d02 9f3b 2f6c 4b3c a6cb 82bc
000002f0: efd0 c9ba 87e7 143d 92b3 15bc 3c2c 2dbc
00000300: afa4 d43c 73c7 14bd 7345 e53c 6153 87bc
00000310: 3788 ecbb 17bd dbbc ea98 053c aaf8 043d
00000320: d87e 033d 1e9e 5ebc 9efa 1e3d c6c1 7b3a
00000330: 2685 95bb 14fd 453d 48e3 14bc 5668 37bd
00000340: b78d 15bc 154c 4fbd c367 b6bc cc93 bcbc
00000350: 3df6 efb8 b33d 3abd 84b6 6abd 5787 3bbc
00000360: 5cb7 01bc 141b d13c 2e76 49ba 53a7 ba3c
00000370: 0cd6 ed3c 550d 0f3d a4cf 833d 1914 653c
00000380: 0d3d 873c d1ed 63bc 9422 85bd 0142 83bd
00000390: 4b15 ad3b ca41 0cbd 32b1 85bc b396 1ebd
000003a0: 24a3 6ebb 3dab 22bd ae28 b83c 4c5f c83c
000003b0: 2149 b6bc aef9 8f3c 8b83 40bc f36c e23c
000003c0: 416f 94bc 8d4b 12bd d02b f43c 1e25 3f3c
000003d0: c99c 8c3c 160e e83c 4c88 16bd b725 573b
000003e0: d366 013b b457 f3bc ba2b 24bd c0bc e63c
000003f0: f628 743c 32cd 513c 8b74 52bc 4129 4bb8

conv2.bias f4 [128]
-0.018574705 0.022456087 0.038238965 0.009825282 0.018964756 -0.057110373 -0.056077383 0.018466623
-0.048712306 -0.019570902 -0.0032736321 0.053358514 0.043051917 0.026418801 0.017420497 -0.044652116
-0.021743057 -0.014408968 0.0029801817 -0.02520457 -0.03804426 -0.03567753 0.00040223263 0.034778837
0.03551674 0.045589037 0.03845649 -0.021509008 0.01210095 0.021636408 -0.029678602 -0.023917357
-0.03884814 0.023323141 -0.05187287 -0.02040359 -0.00736326 -0.004308629 -0.008049098 -0.019200906
-0.047876537 -0.002065231 -0.00462532 -0.012879538 0.016433738 -0.034990523 0.0100140525 -0.01590672
0.00042900277 0.01326848 0.01925678 -0.015402768 -0.0676723 -0.028298458 -0.022117248 0.009222364
-0.024161099 -0.00304603 0.028137976 -0.047410566 0.007242263 -0.031255282 0.013439364 0.016300973
0.039766327 -0.04300826 -0.040454287 -0.024955215 -0.014193461 0.013976927 -0.047417223 -0.016162686
0.00043481126 0.014730234 -0.037201352 -0.028610783 -0.028158275 -0.036576796 0.0022830998 -0.051626943
-0.010077187 0.025721243 0.012439481 -0.027870178 -0.012927142 -0.009995893 -0.048718005 0.0021502797
-0.011349643 -0.066077024 0.0531059 0.0089163175 -0.056444835 -0.004504622 -0.027835667 -0.020041484
-0.033816982 0.016461657 -0.0045378585 -0.04697419 0.004301358 -0.041013878 0.013260425 -0.026791053
-0.013538437 -0.037517413 -0.03627482 -0.028764315 -0.017857088 -0.0566037 0.028875742 0.012881475
0.008271801 -0.017089969 -0.008133429 0.0020879675 -0.0045396495 0.0034332126 -0.059437294 0.0154343825
0.013530858 -0.04560231 -0.006690342 -0.03613661 -0.064468555 -0.03923592 -0.018128868 -0.0075821634
00000000: fb29 98bc d4f5 b73c 76a0 1c3d 38fa 203c
00000010: fa5b 9b3c 91ec 69bd 66b1 65bd 5147 973c
00000020: 8e86 47bd 2853 a0bc 6f8a 56bb 758e 5a3d
00000030: 3557 303d 3e6c d83c 6eb5 8e3c 23e5 36bd
00000040: 7f1e b2bc 9813 6cbc 274f 433b d079 cebc
00000050: 4cd4 1bbd 9a22 12bd c0e2 d239 4174 0e3d
00000060: 007a 113d 92bb 3a3d 8d84 1d3d a933 b0bc
00000070: 1043 463c d63e b13c 8a20 f3bc 55ee c3bc
00000080: 3a1f 1fbd 2c10 bf3c a678 54bd 6e25 a7bc
00000090: 8047 f1bb 662f 8dbb 5de0 03bc 384b 9dbc
000000a0: 301a 44bd d458 07bb ff8f 97bb b304 53bc
000000b0: 0ca0 863c 3952 0fbd fb11 243c cf4e 82bc
000000c0: c7eb e039 0a64 593c 65c0 9d3c e45b 7cbc
000000d0: c697 8abd 2bd2 e7bc 3b2f b5bc 6619 173c
000000e0: 7fed c5bc e79f 47bb 9d81 e63c 9531 42bd
000000f0: 8150 ed3b 8a05 00bd c730 5c3c 9e89 853c
00000100: 04e2 223d 6e29 30bd 65b3 25bd e16e ccbc
00000110: b18b 68bc 7bff 643c 9038 42bd 9c67 84bc
00000120: 61f7 e339 1457 713c 7260 18bd 2961 eabc
00000130: 2fac e6bc 8dd1 15bd 0fa0 153b c676 53bd
00000140: c91a 25bc 5bb5 d23c f7ce 4b3c 0050 e4bc
00000150: 5dcc 53bc d0c5 23bc 888c 47bd b5eb 0c3b
00000160: daf3 39bc 6453 87bd 9285 593d bf15 123c
00000170: b332 67bd 829b 93bb a007 e4bc 0a2e a4bc
00000180: ad83 0abd 99da 863c 51b2 94bb 0268 40bd
00000190: 68f2 8c3b 2bfe 27bd 4142 593c e978 dbbc
000001a0: 52d0 5dbc dcab 19bd e894 14bd 24a3 ebbc
000001b0: 0749 92bc 48d9 67bd d28c ec3c d20c 533c
000001c0: 7386 073c 4300 8cbc 1342 05bc 48d6 083b
000001d0: 57c1 94bb c0ff 603b 8574 73bd 7ee0 7c3c
000001e0: 88b0 5d3c 7dc9 3abd a83a dbbb fb03 14bd
000001f0: 1708 84bd d8b5 20bd fe82 94bc cc73 f8bb

conv3.weight f4 [1, 128, 3, 3]
-0.023832629 0.01900738 -0.038430758 -0.034602307 -0.014941161 0.01282306 0.0020667303 0.002418853
-0.019838152 0.046414927 0.042170227 0.03687155 0.0010411056 0.028898584 0.021668477 0.00859387
0.014878321 0.024655936 -0.01613742 -0.004278542 -0.016611919 -0.01357682 -0.033180777 -0.025815284
-0.03885936 -0.03910655 0.016502807 -0.0100780465 -0.028571855 -0.013397049 -0.020900441 -0.04695711
0.0071832244 -0.035642106 -0.00334771 -0.0276201 0.015881112 0.055594478 -0.0011382921 0.041585214
0.05107517 0.0022161065 0.027511606 0.028456666 0.052881896 0.062394585 0.047087226 0.04011005
0.041362554 0.015033172 0.05874775 0.033567477 0.058169365 0.024986738 -0.016218027 0.022150481
-0.003498409 -0.014355136 0.007924428 -0.016422387 -0.021852473 -0.002992322 -0.03122488 0.016169665
-0.021804122 -0.006579184 -0.015493658 0.0153155895 -0.008119674 0.009941691 0.015533356 0.016318304
-0.01853845 -0.03333155 -0.03153766 -0.008458485 -0.047425967 -0.011117011 -0.02028196 -0.032481436
-0.0155457705 0.0058570076 -0.003876986 0.0051125074 0.009968075 -5.9165195e-05 0.011707026 -0.01891337
-0.018608479 -0.030889459 0.082409754 0.1114142 0.12074371 0.08678013 0.075907305 0.09489078
0.10394204 0.07362139 0.083444186 -0.0020145567 0.027439699 0.015670124 0.028713582 0.022357361
-0.0073502157 -0.015596959 0.017802304 0.005130026 -0.011660253 -0.030316353 -8.5032996e-05 -0.006926969
-0.019015014 -0.008526504 -0.021771366 0.0037600761 0.016061915 0.0006290427 0.003056431 0.019860849
-0.015929354 0.023467954 -0.011481271 -0.003293107 0.02512939 0.01712351 -0.015977163 0.010863486
-0.018646566 -0.008127722 0.0077988845 -0.022477651 0.0021423865 0.0066874824 -0.008923122 0.015459033
0.010026917 0.00951361 -0.0035828995 0.015028273 -0.010846561 -0.008736951 -0.013613222 -0.036358256
-0.022186456 0.007070871 -0.03330341 0.018647647 -0.01785183 0.0011149487 -0.030412149 0.020950362
0.0139019 0.0015562506 0.027550625 0.019296309 -0.0020566303 0.031459365 0.0047202692 0.040975735
0.0006686543 0.0020606827 0.017185748 -0.017461948 -0.015453484 0.013069176 -0.006601143 -0.012679295
2.221754e-05 -0.0063461675 -0.023830255 0.011432521 0.019262642 0.030590437 -0.02142785 -0.0204824
-0.0232297 -0.006444606 0.028527267 -0.009683113 -0.02990377 0.010924147 -0.030065574 -0.028767094
-0.0073057027 0.007108725 0.0038216389 -0.001385851 0.0031569055 0.017606245 -0.010409066 -0.005878589
-0.0014580667 -0.0150123285 0.037646264 -0.010267291 -0.01831668 -0.013005688 -0.018032398 -0.025075318
-0.016719941 -0.033834722 -0.03029896 -0.061192513 -0.0050284904 -0.014909293 -0.03730374 -0.0074660317
0.018055448 0.020827249 0.010313432 -0.02699485 0.0011932653 -0.024529818 0.0023426039 0.015852464
0.010227023 0.005659481 0.004426424 -0.003617183 0.018693935 0.009851138 -0.032262795 -0.004213939
0.013798833 0.011544504 0.021415962 0.0009909584 0.013309341 -0.011448642 -0.020402374 0.009030947
0.027427936 -0.01568317 -0.0036547026 0.008840998 0.0016795545 0.03949223 0.042978812 0.046438918
0.02746713 0.037580125 0.014067355 -0.010654198 0.0077054673 0.0055194725 -0.025007274 -0.017757958
-0.032591827 -0.0066790874 -0.024637334 -0.0050112233 0.017912643 -0.025083384 0.0013676854 -0.023864876
00000000: a53c c3bc 5db5 9b3c 9269 1dbd 26bb 0dbd
00000010: c5cb 74bc d017 523c fb71 073b 9f85 1e3b
00000020: 9f83 a2bc 941d 3e3d b0ba 2c3d 9f06 173d
00000030: b575 883a b9bc ec3c 1782 b13c 4ecd 0c3c
00000040: 34c4 733c 3ffb c93c 9f32 84bc 0333 8cbb
00000050: b815 88bc 4f71 5ebc 91e8 07bd 937a d3bc
00000060: fe2a 1fbd 312e 20bd e530 873c 641e 25bc
00000070: 860f eabc 4c7f 5bbc 6737 abbc 1956 40bd
00000080: 4161 eb3b 75fd 11bd 4165 5bbb 8c43 e2bc
00000090: 1b19 823c 09b7 633d bf32 95ba 4255 2a3d
000000a0: 3334 513d 193c 113b 0560 e13c f41d e93c
000000b0: b09a 583d 7791 7f3d 89de 403d 704a 243d
000000c0: c86b 293d b24d 763c 7ba1 703d 0d7e 093d
000000d0: 0043 6e3d fdb0 cc3c abdb 84bc ed74 b53c
000000e0: 9045 65bb ce31 6bbc 76d5 013c 3e88 86bc
000000f0: f503 b3bc d51a 44bb 52cb ffbc 3f76 843c
00000100: 8f9e b2bc 3296 d7bb 1dd9 7dbc 3dee 7a3c
00000110: 6208 05bc 79e2 223c 9e7f 7e3c f7ad 853c
00000120: f3dd 97bc aa86 08bd a22d 01bd 7595 0abc
00000130: bb41 42bd 2024 36bc 5a26 a6bc 410b 05bd
00000140: b0b3 7ebc 24ec bf3b 0815 7ebb d286 a73b
00000150: 2351 233c 2528 78b8 d3ce 3f3c 36f0 9abc
00000160: cf70 98bc e40b fdbc 72c6 a83d 212d e43d
00000170: 7a48 f73d c8b9 b13d 4a75 9b3d 1956 c23d
00000180: 90df d43d d0c6 963d c9e4 aa3d a706 04bb
00000190: 38c9 e03c a25e 803c bf38 eb3c c926 b73c
000001a0: 14da f0bb 638a 7fbc 23d6 913c c719 a83b
000001b0: a50a 3fbc 005a f8bc be53 b2b8 a1fb e2bb
000001c0: 60c5 9bbc c0b2 0bbc dd59 b2bc 9c6b 763b
000001d0: 4794 833c 57e6 243a 674e 483b 38b3 a23c
000001e0: 477e 82bc de3f c03c f11b 3cbc 2bd1 57bb
000001f0: 27dc cd3c 9a46 8c3c 8ae2 82bc c3fc 313c
00000200: afc0 98bc 232a 05bc c98d ff3b 0d23 b8bc
00000210: 4867 0c3b ab22 db3b 4932 12bc e247 7d3c
00000220: f047 243c f9de 1b3c 14cf 6abb 2539 763c
00000230: c6b5 31bc 6e25 0fbc fe09 5fbc 65ec 14bd
00000240: 5fc0 b5bc c4b2 e73b 2869 08bd f3c2 983c
00000250: 003e 92bc 7823 923a e622 f9bc 18a0 ab3c
00000260: cbc4 633c 1bfb cb3a d9b1 e13c 4b13 9e3c
00000270: 88c8 06bb 89db 003d 7dac 9a3b 2cd6 273d
00000280: a148 2f3a 850c 073b 20c9 8c3c 5c0c 8fbc
00000290: 9c30 7dbc 1920 563c 674e d8bb d1bc 4fbc
000002a0: ce5f ba37 83f3 cfbb ab37 c3bc 784f 3b3c
000002b0: b0cc 9d3c cc98 fa3c 7589 afbc b5ca a7bc
000002c0: 364c bebc 462d d3bb 04b2 e93c eba5 1ebc
000002d0: c0f8 f4bc 32fb 323c 144c f6bc f8a8 ebbc
000002e0: ad64 efbb 4ff0 e83b 7674 7a3b 71a5 b5ba
000002f0: 16e4 4e3b f93a 903c ca8a 2abc 2ea1 c0bb
00000300: 9a1c bfba 45f6 75bc f832 1a3d 2438 28bc
00000310: dd0c 96bc cf15 55bc aeb8 93bc c16a cdbc
00000320: 42f8 88bc 4796 0abd 8635 f8bc 00a5 7abd
00000330: 09c6 a4bb 1b46 74bc cecb 18bd 9da5 f4bb
00000340: 05e9 933c e89d aa3c abf9 283c 4e24 ddbc
00000350: 5767 9c3a c2f2 c8bc 5f86 193b 07dd 813c
00000360: 3e8f 273c 2b73 b93b 890b 913b 430e 6dbb
00000370: 0624 993c ab66 213c fe25 04bd 1515 8abb
00000380: 8014 623c 2925 3d3c 8770 af3c 0ce3 813a
00000390: 6c0f 5a3c 1693 3bbc e122 a7bc 8af6 133c
000003a0: 8db0 e03c fe79 80bc bc83 6fbb d5d9 103c
000003b0: 7f24 dc3a 9bc2 213d 8d0a 303d bc36 3e3d
000003c0: bf02 e13c 9eed 193d c37a 663c f28e 2ebc
000003d0: 257e fc3b b1dc b43b 0edc ccbc 2379 91bc
000003e0: 027f 05bd 3fdc dabb 3cd4 c9bc 3035 a4bb
000003f0: 89bd 923c ab7b cdbc e843 b33a 4680 c3bc
