weights/lol_dataset/discriminator_weight.pth (torch, 310090 bytes, 5 tensors)

conv1.weight f4 [64, 3, 3, 3]
0	0x3e44c7c1	0.19216825
1	0xbd2b795e	-0.04186379
2	0x3dc01fc4	0.09381059
3	0xbd1f8db8	-0.038953513
4	0x396225d5	0.00021567133
5	0x3e17ec42	0.14836219
6	0xbca1ed75	-0.019766549
7	0x3daed4ad	0.085366584
8	0xbd99ff65	-0.07519416
9	0xbde9e685	-0.11420921
10	0xbd9557e8	-0.072921574
11	0xbce56798	-0.028003499
12	0x3cfef7a1	0.031123938
13	0xbc9fae99	-0.019492434
14	0x3d7745e3	0.060369384
15	0xbe42fd51	-0.19041945
16	0x3c7cf55a	0.015439356
17	0xbe313e16	-0.1730884
18	0x3de9d66a	0.11417849
19	0xbd8f1a69	-0.06987459
20	0x3beb4be8	0.0071806796
21	0x3d2133d4	0.039356068
22	0x3e0e3bb3	0.13889961
23	0x3db0d497	0.08634298
24	0x3d1ca72d	0.03824537
25	0x3e11a07b	0.14221375
26	0x3db5ad99	0.08871002
27	0x3da5ced2	0.080960885
28	0x3e379d1a	0.17931023
29	0xbd464f30	-0.048415363
30	0x3df1ec45	0.11812643
31	0xbdc72ca8	-0.097253144
32	0xbd99631b	-0.07489606
33	0x3da14a6d	0.07875524
34	0x3d8f524f	0.06998121
35	0x3c5aba37	0.013350061
36	0xbe430a5d	-0.19046922
37	0x3d2b4ace	0.041819386
38	0x3cb29ccd	0.021803284
39	0xbe669d23	-0.2252088
40	0xbd50b11b	-0.05095015
41	0xbd341030	-0.04396075
42	0xbd547f1c	-0.051879033
43	0xbd28b0c9	-0.04118422
44	0xbde50d63	-0.11184194
45	0xbe014251	-0.12622954
46	0x3e14ee0a	0.1454393
47	0xbe020bfd	-0.12699886
48	0x3e0f2bcd	0.13981552
49	0x3e23bbaa	0.15989557
50	0xbde1bc67	-0.11022263
51	0x3e2dacac	0.169604
52	0x3e2abc67	0.16673432
53	0x3d91f4e2	0.07126786
54	0x3e0901ef	0.13379644
55	0x3e4f3053	0.20233278
56	0xbe1e5bb4	-0.1546467
57	0x3bb7d80b	0.005610471
58	0x3dcc444f	0.09973966
59	0x3d6b4398	0.05743751
60	0x3e05af32	0.13055113
61	0x3d282978	0.041055173
62	0x3e061d42	0.13097098
63	0x3c225be9	0.009909608
64	0x3de3827e	0.11108874
65	0x3c16d81d	0.009206799
66	0xbcd439d6	-0.025906485
67	0x3c3e986b	0.011633019
68	0xbc90bcb1	-0.0176681
69	0x3d4cd1c3	0.050004732
70	0x3ca0dcc7	0.019636525
71	0xbe2d18c4	-0.16903979
72	0xbdbd0bdc	-0.092307776
73	0x3e2dece5	0.169849
74	0x3e26d4c1	0.16292097
75	0x3c9e69b0	0.019337505
76	0x3de58f56	0.1120898
77	0x3e42074f	0.189481
78	0x3e4949f5	0.19657119
79	0x3dc85104	0.097810775
80	0x3d928ee2	0.07156159
81	0x3e3b7c03	0.18309025
82	0xbdb8cb4b	-0.0902315
83	0x3d668a0c	0.056283996
84	0x3dee77be	0.11643933
85	0x3d77a0c2	0.060456045
86	0x3e160c11	0.1465304
87	0x3c812911	0.015766652
88	0xbdae690c	-0.0851613
89	0xbd8fee8b	-0.0702792
90	0xbd643c3c	-0.055721506
91	0xbd7318de	-0.059349887
92	0x3da41134	0.08011094
93	0x3e0da635	0.13832934
94	0x3cda5075	0.026649693
95	0x3ddc0a11	0.107441075
96	0x3b336750	0.0027374811
97	0xbe33df97	-0.17565762
98	0x3e0c2e48	0.1368953
99	0x3d3e2eda	0.0464314
100	0xbd919e2c	-0.07110247
101	0xbddedc76	-0.10881893
102	0x3d8bb154	0.06820932
103	0xbda7fdac	-0.08202681
104	0x3d6c78a6	0.057732247
105	0x3e1cbbbc	0.1530599
106	0x3d4d81bb	0.05017255
107	0x3e116021	0.14196827
108	0x3d560802	0.05225373
109	0x3cc51df3	0.024062132
110	0xbde2e37d	-0.11078546
111	0x3e305423	0.17219596
112	0xbc22f787	-0.00994671
113	0xbdd55490	-0.1041652
114	0x3defed40	0.11715174
115	0xbda18e90	-0.0788852
116	0xbd7fb0e5	-0.06242456
117	0xbcd3da56	-0.025860947
118	0xbdb021e4	-0.08600214
119	0x3d8cfdc9	0.06884343
120	0xbdc9dbe2	-0.098563924
121	0xbe2cb646	-0.16866407
122	0x3d961571	0.073283084
123	0x3da69928	0.08134681
124	0xbe328d86	-0.174368
125	0x3db4a96b	0.088213764
126	0xbe5675d7	-0.2094339
127	0xbe5a0a95	-0.21293099
128	0xbd3143f9	-0.043277714
129	0x3d958016	0.07299821
130	0xbdc8af27	-0.09799033
131	0xbc6cb015	-0.014446278
132	0x3d7555da	0.059896328
133	0x3d16a14e	0.036774926
134	0xbe0b8aa3	-0.13627104
135	0x3c702e91	0.01465954
136	0xbba4a88f	-0.0050249766
137	0xbcae27cc	-0.021259211
138	0x3e2b6038	0.16735923
139	0x369482da	4.425977e-06
140	0xbda4c1ec	-0.080448
141	0x3d8dbb95	0.06920544
142	0x3d9a87d4	0.075454384
143	0xbdcf5f18	-0.101255596
144	0x3a263de7	0.00063416216
145	0xbe536aa9	-0.20646156
146	0x3e15e2c8	0.14637291
147	0x3ce8ed90	0.028433591
148	0xbbaf4cfe	-0.0053497544
149	0xbe31d989	-0.1736814
150	0xbe2995fa	-0.16561118
151	0xbd7c4961	-0.061593417
152	0x3e074846	0.13211164
153	0x3cb82e61	0.022483053
154	0x3dc5e9a2	0.096637025
155	0x3e22a12a	0.15881792
156	0xbd0e2010	-0.034698546
157	0x3d9acd89	0.07558734
158	0x3d305079	0.043045495
159	0x3d086b76	0.033305608
160	0xbd279501	-0.040913586
161	0x3dfbe38c	0.122992605
162	0x3deff811	0.11717237
163	0xbd409672	-0.047018476
164	0x3ce4b1b1	0.027916761
165	0x3e6cd441	0.23127843
166	0x3daa72be	0.083226666
167	0xbc231b17	-0.009955189
168	0x3d27aa22	0.040933736
169	0x3cfcacb1	0.030844064
170	0xbde0eba4	-0.10982445
171	0xbe0dd664	-0.13851315
172	0x3de06435	0.10956613
173	0x3e11551a	0.1419262
174	0xbdcaf41d	-0.09909842
175	0xbe4aa0ab	-0.19787852
176	0x3e033cbd	0.12816139
177	0xbd037617	-0.03209504
178	0x3e0ee038	0.1395272
179	0xbe1d4b68	-0.15360796
180	0xbe33c112	-0.17554119
181	0xbd428135	-0.047486503
182	0x3d934235	0.07190362
183	0xbdb1b56d	-0.08677182
184	0xbd364178	-0.04449603
185	0x3ceeca7e	0.02914929
186	0x3cdfba62	0.027310554
187	0x3e05259a	0.13002625
188	0x3cff1027	0.031135632
189	0x3a99b3f0	0.0011726599
190	0xbe42047a	-0.1894702
191	0x3e0ea550	0.13930249
192	0x3d7e6520	0.06210816
193	0x3d845fcc	0.06463584
194	0x3d74f142	0.059800394
195	0xbc8dcb3f	-0.01730883
196	0xbdba040f	-0.09082805
197	0x3dc5a82f	0.09651219
198	0xbddfc230	-0.1092571
199	0xbb208bb0	-0.0024497323
200	0x3cfd8842	0.030948762
201	0x3d08210d	0.033234645
202	0x3e0eaad3	0.13932352
203	0xbdb0db97	-0.086356334
204	0x3be6c01b	0.0070419437
205	0x3e374cd5	0.17900403
206	0x3e101023	0.14068656
207	0xbe36ed84	-0.17864043
208	0x3ca10017	0.019653363
209	0x3e3cff5c	0.18456787
210	0x3d845360	0.06461215
211	0xbdc33e4b	-0.09533366
212	0xbe1ca0c3	-0.152957
213	0xbe1b3df8	-0.15160358
214	0xbd28d081	-0.04121447
215	0x3e474183	0.19458584
216	0xbc05d5bb	-0.008168633
217	0x3e07f25f	0.13276051
218	0xbe3fa0cc	-0.18713683
219	0xbdc70336	-0.09717409
220	0x3de804b2	0.113290206
221	0x3b956893	0.0045595854
222	0xbe27a671	-0.16372086
223	0x3d327606	0.043569587
224	0x3dd34342	0.10315563
225	0x3dd6ed5d	0.10494492
226	0xbe0e9cac	-0.13926953
227	0x3e319f85	0.17346008
228	0xbd887c2f	-0.06664311
229	0xbe09e4ff	-0.13466261
230	0x3d440d5c	0.047864303
231	0x3dd51eff	0.10406303
232	0xbd9f5076	-0.077790186
233	0xbe123df0	-0.1428144
234	0x3e0efbee	0.13963291
235	0xbdc8163c	-0.09769866
236	0xbcf15766	-0.02946062
237	0xbe575bbc	-0.21031088
238	0xbd432e12	-0.047651358
239	0xbde8135b	-0.11331817
240	0x3db4d110	0.08828938
241	0xbe363170	-0.17792296
242	0xbdba8095	-0.09106556
243	0xbc6e17ff	-0.014532088
244	0x3e1283b8	0.14308059
245	0xbda66ae8	-0.081258595
246	0xbdbf7d0e	-0.09350024
247	0x3d7bf461	0.061512355
248	0xbd12cd97	-0.035840597
249	0x3dbac8b0	0.09120309
250	0x3d90dd59	0.07073469
251	0xbdb7a106	-0.0896626
252	0xbde6df8d	-0.11273108
253	0xbc036737	-0.008020214
254	0xbd3bd1c0	-0.04585433
255	0x3d190191	0.03735501

conv1.bias f4 [64]
0	0x3d75edf5	0.060041387
1	0xbd3a34e1	-0.045460586
2	0xbde6fe11	-0.11278928
3	0xbe31f0da	-0.17377034
4	0xbe30b670	-0.17257094
5	0xbd6ed782	-0.058310993
6	0x3e2d692e	0.16934654
7	0x3e01d5f1	0.12679268
8	0x3da11e92	0.07867159
9	0xbc82834b	-0.015931746
10	0xbb9c9ae8	-0.0047792085
11	0xbde2a3f7	-0.1106643
12	0x3cd6cb78	0.026220068
13	0x3dc4e114	0.09613243
14	0xbdc8b4d5	-0.09800116
15	0x3e205333	0.15656738
16	0x3df01e1c	0.11724493
17	0x3dc3c5fc	0.09559247
18	0xbd60e24d	-0.054903317
19	0x3dab25f4	0.08356848
20	0xbe1aa778	-0.15102947
21	0x3d354dc1	0.044263605
22	0xbdfc398a	-0.12315662
23	0xbc3315a8	-0.010930456
24	0x3df0f118	0.11764735
25	0x3cb50e48	0.022101536
26	0x3dc5b095	0.09652821
27	0x3c898779	0.016788231
28	0xbd97be8f	-0.07409393
29	0x3dac26dc	0.08405849
30	0x3e596976	0.21231636
31	0x3cfc6d76	0.030813914
32	0xbd93cd32	-0.07216872
33	0xbe2acd26	-0.1667982
34	0xbdd70da8	-0.105006516
35	0x3e0ae39c	0.13563389
36	0xbdc62ab6	-0.09676115
37	0x3d27492e	0.040841274
38	0x3e1979f2	0.14987925
39	0xbe9cb55a	-0.3060711
40	0x3da3d787	0.08000093
41	0x3db57779	0.08860678
42	0x3dc4237b	0.0957708
43	0x3da694ac	0.08133826
44	0xbd0774a2	-0.033070214
45	0xbac60a2e	-0.0015109235
46	0xbdda878e	-0.10670386
47	0xbe5f02b1	-0.2177837
48	0xbd906701	-0.070508964
49	0xbd99b979	-0.07506079
50	0xbc28ebb3	-0.010310101
51	0xbd95bfc0	-0.07311964
52	0xbd894a74	-0.06703654
53	0xbd5f133c	-0.054461703
54	0x3e04ba22	0.12961629
55	0x3d72d4bc	0.05928491
56	0xbd8cf0b1	-0.06881846
57	0x3b2caf54	0.002634962
58	0xbe653b5c	-0.22385925
59	0x3d27e08e	0.040985636
60	0x3ddcc0ac	0.10778937
61	0x3de3bf4c	0.11120471
62	0xbe052b22	-0.13004735
63	0xbe0a4631	-0.13503338

conv2.weight f4 [128, 64, 3, 3]
0	0x3b83bd26	0.004020351
1	0xbcb09ee7	-0.021560146
2	0xbd3d2186	-0.04617455
3	0xbd297b2d	-0.041377235
4	0xbc7309e2	-0.014833899
5	0xbd0adde5	-0.03390302
6	0xbd5f917f	-0.054582115
7	0xbd44e2f7	-0.048068013
8	0xbd4b8d42	-0.04969526
9	0xbd806a41	-0.06270266
10	0xbcf3eec5	-0.02977694
11	0xbc510a49	-0.0127588
12	0xbd7f8d97	-0.06239089
13	0xbcd33354	-0.025781311
14	0xbd3f7525	-0.046742577
15	0xbd29f420	-0.04149258
16	0xbd8bf910	-0.06834614
17	0xbceb0ad7	-0.028691692
18	0xbd29f5f5	-0.04149433
19	0xbcb66bfd	-0.02226829
20	0x3b21bda4	0.0024679685
21	0xbd14a23d	-0.036287535
22	0xbd83d1c2	-0.064364925
23	0xbd1af527	-0.03783145
24	0xbd6991ba	-0.05702374
25	0xbcf4500a	-0.029823322
26	0xbda1b7eb	-0.07896408
27	0xbccd622b	-0.025071224
28	0xbcbc5dcb	-0.022993943
29	0xbd3a1fd8	-0.045440525
30	0xbdaebe82	-0.0853243
31	0xbd9e2e05	-0.07723621
32	0xbc92beae	-0.017913189
33	0xbda71a3f	-0.08159303
34	0xbd0ab0c7	-0.033859994
35	0xbd2e2ed2	-0.04252512
36	0x3d83b72f	0.06431424
37	0x3ce8a4fc	0.028398983
38	0x3d5890bd	0.05287241
39	0x3d0aafe0	0.033859134
40	0x3cb0642f	0.021532146
41	0x3d501429	0.050800476
42	0xbb84a8c1	-0.0040484373
43	0x3ccae651	0.024768027
44	0x3d151158	0.036393493
45	0xbd29aa66	-0.04142227
46	0x3c724468	0.014786817
47	0xbcbb303b	-0.022850147
48	0x3b6a7193	0.0035773262
49	0xbd125535	-0.03572579
50	0x3b8d9d4e	0.0043217307
51	0x3ca775bb	0.02044188
52	0x3cbd41cc	0.023102663
53	0xbd4d122e	-0.050066166
54	0xbcf12a82	-0.029439215
55	0x3cda8d52	0.026678715
56	0xbd0ef4ec	-0.034901544
57	0x3bf99fc1	0.007617921
58	0x3cfb5cd8	0.03068392
59	0xbc11cf16	-0.008899471
60	0x3c5261ea	0.012840727
61	0x3bf4ca2f	0.007470391
62	0x3ce82cdd	0.028341705
63	0xbcdd6445	-0.027025351
64	0x3cbafe47	0.022826327
65	0x3b7153ad	0.0036823556
66	0x3cc7452f	0.024324981
67	0x3ceea726	0.029132437
68	0x3cb5ea61	0.022206487
69	0xbd0c4eb3	-0.03425474
70	0x3c93d651	0.01804653
71	0x3d066c65	0.032818217
72	0xbca520e9	-0.020157294
73	0x3c73c857	0.014879308
74	0x3cc18573	0.023623204
75	0xbc6ba20a	-0.014381895
76	0x3cb3da20	0.021954596
77	0x3d1adff3	0.03781123
78	0xbb00bc1d	-0.0019643374
79	0x3d3264b0	0.043553054
80	0x3c56d790	0.013112918
81	0xbce86a40	-0.028370976
82	0xbcb5dc78	-0.022199854
83	0xbc88f52d	-0.016718471
84	0x3d21f91e	0.039544217
85	0xbc82ddcf	-0.015974907
86	0x3a501d87	0.000793897
87	0x3cada6e8	0.021197751
88	0x3b84ecec	0.0040565636
89	0xbca6bf2d	-0.020354832
90	0xbca8aba5	-0.020589659
91	0xbd2d4360	-0.042300582
92	0xbd8d1764	-0.06889227
93	0xba9fde4e	-0.0012196989
94	0xbd53b2bb	-0.051684123
95	0xbb91287d	-0.0044298754
96	0xbd5e9632	-0.054342456
97	0xbbcf8975	-0.006333525
98	0xbd85e6d8	-0.065381706
99	0xbcc5a09f	-0.024124442
100	0x3b85725e	0.0040724715
101	0xbcedbe14	-0.0290213
102	0x3c5f9298	0.0136457905
103	0xbcafe979	-0.021473633
104	0x3d50f451	0.05101425
105	0xbd00ae91	-0.03141648
106	0xbbd596e9	-0.006518234
107	0x3cf393b4	0.029733516
108	0x3c8583fc	0.016298287
109	0x3c9bcac1	0.019017579
110	0xbc656acd	-0.014002514
111	0xbab6d155	-0.0013947884
112	0x3c88d19b	0.01670151
113	0x3c785705	0.015157466
114	0x3bf19d02	0.007373453
115	0xbb549788	-0.0032438952
116	0xbb038364	-0.0020067329
117	0xbad51684	-0.001625732
118	0xbcef9a45	-0.029248366
119	0xbccb36d9	-0.024806427
120	0x3c9a5ab8	0.018842086
121	0x3c371852	0.011175232
122	0xbd00e25a	-0.031465866
123	0xbc830b09	-0.015996473
124	0xbcc3d4fa	-0.023905266
125	0x3b47c26f	0.0030480882
126	0xbd55552b	-0.052083176
127	0x3c80ed71	0.01573822
128	0x3c8bacfa	0.017050255
129	0x3c1fa446	0.009743756
130	0xbd757e41	-0.05993486
131	0xbd4db947	-0.050225522
132	0xbd64ee88	-0.055891544
133	0xbcbca760	-0.02302903
134	0x3b70ca95	0.0036741842
135	0x3cbbe422	0.02293593
136	0xbd2b0cb1	-0.04176015
137	0xbcd72ee7	-0.026267482
138	0x3c94af4a	0.01814999
139	0xbcec4b0c	-0.028844379
140	0xbd221e75	-0.039579827
141	0xbc51f22e	-0.012814088
142	0xbb97c231	-0.0046313037
143	0x3b29b38d	0.0025894374
144	0xbce14795	-0.027499953
145	0xbca2aeb1	-0.01985869
146	0x3ce0ddba	0.027449477
147	0x3c3b9ba4	0.011450682
148	0xbd3f7813	-0.04674537
149	0xbba986de	-0.005173548
150	0xbb964067	-0.004585314
151	0xbc0bea6b	-0.008539776
152	0x3bb3a52b	0.005482336
153	0x3d09d569	0.03365079
154	0xbcaf198a	-0.021374483
155	0x3d055dce	0.032560162
156	0xbbfafb69	-0.007659365
157	0xbcd31f37	-0.02577172
158	0xbce527ce	-0.027973082
159	0x3cfb5373	0.03067944
160	0xbcda0e7a	-0.026618231
161	0xbcbdad22	-0.023153845
162	0x3d3c6b87	0.046000984
163	0xbc705ca0	-0.014670521
164	0x3ca2c80e	0.019870784
165	0x3d3faebe	0.046797507
166	0x3ca12d7f	0.019675015
167	0x3d6b2f05	0.05741789
168	0x3ce81fbc	0.028335445
169	0xbbc94132	-0.006141805
170	0x3d7033be	0.058643095
171	0x3c71ce9c	0.014758732
172	0xbd1fe2a3	-0.039034497
173	0x3c8aea86	0.016957533
174	0x3c994cd9	0.018713402
175	0x3d186f32	0.03721542
176	0xbcad24eb	-0.021135768
177	0xbd2d99de	-0.042383067
178	0xbc3a4f20	-0.011371404
179	0xbc45fb0b	-0.012083779
180	0x3c796b4c	0.0152233355
181	0xbc02fe1e	-0.007995157
182	0x3cd30ea8	0.025763825
183	0x3d1abea5	0.03777947
184	0x3abc20a6	0.0014352992
185	0x3d08b4f4	0.033375695
186	0x3d06367e	0.03276681
187	0x3c3aaf0d	0.011394274
188	0xbd2b4f22	-0.041823514
189	0x3cb83d01	0.022490026
190	0x3c83e3b6	0.016099792
191	0xbd36dab7	-0.044642176
192	0x3c36abdf	0.011149376
193	0x3c0387da	0.008027995
194	0xbd4fbc9f	-0.050716992
195	0xbcbedc59	-0.02329843
196	0xbd4c0cba	-0.049816824
197	0xbc135e9a	-0.008994723
198	0x3d04642f	0.032322105
199	0x3ca71927	0.020397736
200	0x3cb9bd6f	0.022673337
201	0x3c895e39	0.016768562
202	0x3d4f71ec	0.050645754
203	0xbc8796f5	-0.016551474
204	0x3bd81c23	0.006595151
205	0x3d2323fe	0.039829247
206	0x3c86dd74	0.016463019
207	0xbc6beb59	-0.014399373
208	0x3d14bb2f	0.036311325
209	0x3d0fb424	0.035083905
210	0x3a82205f	0.000992786
211	0x3ce38c5d	0.027776891
212	0x3c933a6f	0.0179722
213	0x3cf155fb	0.029459944
214	0x3c8a73eb	0.016900977
215	0x3d59770c	0.053092048
216	0xbd0b9887	-0.03408101
217	0x3c6d8375	0.014496674
218	0xba9edfae	-0.0012121105
219	0xbd64b3c6	-0.055835508
220	0xbbfad7e0	-0.007655129
221	0xbc39f42e	-0.011349721
222	0xbc692ba4	-0.014231596
223	0xbcd01a03	-0.025403028
224	0xbce19107	-0.027534975
225	0x3cd2e04a	0.025741715
226	0x3c5f2285	0.01361907
227	0xb9ac1c67	-0.00032827558
228	0xbd0401ee	-0.032228403
229	0x3c8aa0f1	0.016922446
230	0xbd36901e	-0.044571035
231	0xbc996498	-0.018724725
232	0xbc8f427e	-0.01748776
233	0x3a4dd1bd	0.0007851383
234	0xbc9e5e47	-0.019332064
235	0x3bcea187	0.0063058767
236	0x3c5473e0	0.01296708
237	0xbcd3fc37	-0.025877101
238	0x3c661441	0.014042915
239	0x3d14ef23	0.03636087
240	0xbc846dc2	-0.016165618
241	0xbd07e3ed	-0.03317635
242	0xbc180006	-0.009277349
243	0x3d38e4be	0.04514002
244	0x3d0c5acd	0.034266282
245	0x3ce65743	0.028117782
246	0xbc79f2bb	-0.015255625
247	0x3d60793f	0.05480313
248	0x3b53d5d3	0.0032323494
249	0x3d47d8c5	0.048790712
250	0x3cf5ba16	0.02999596
251	0x3ca78ac3	0.020451909
252	0x3c96f3c2	0.01842678
253	0xbb40c130	-0.0029412024
254	0xbb45338d	-0.003009054
255	0x3cd6d69e	0.026225384

conv2.bias f4 [128]
0	0x3ca51934	0.02015362
1	0xbd7981da	-0.06091485
2	0xbc272822	-0.0102024395
3	0xbba0b9e3	-0.004904972
4	0x3b47f56f	0.003051128
5	0xbb520c93	-0.0032050952
6	0xbad92e60	-0.0016569607
7	0x3c48de21	0.012259991
8	0x3bbbff73	0.005737239
9	0xbcf0728b	-0.029351493
10	0x3c29e31e	0.01036909
11	0xbc9150a9	-0.017738657
12	0x3c5a0ab0	0.013308212
13	0x3b2d8872	0.0026479033
14	0x3ce1eaea	0.027577836
15	0xbd876a34	-0.066120535
16	0x3ca3e5d0	0.020007044
17	0xbc86e7cf	-0.016467957
18	0x3cc04a08	0.0234728
19	0xbbbe504d	-0.0058079124
20	0x3c170570	0.009217605
21	0x3c5bd324	0.013417039
22	0x3c516ddd	0.012782541
23	0x3c56b35b	0.013104285
24	0x3ba6d2ab	0.0050910315
25	0x3cc81a08	0.024426475
26	0xbd1107f0	-0.03540796
27	0xbd382717	-0.044959154
28	0xbc54fb27	-0.0129993325
29	0x3d1edf22	0.038787015
30	0xbc8cb8b9	-0.017177926
31	0xbd68dd28	-0.056851536
32	0x3b2cc9e4	0.0026365453
33	0xbd3056d6	-0.043051563
34	0xbc15a4e3	-0.00913355
35	0x3b8eed8d	0.0043618144
36	0x3c1fe1b1	0.009758399
37	0x3c0e4f70	0.008685932
38	0xbd131aa1	-0.035914067
39	0xbbae53a3	-0.005320029
40	0xbd44be96	-0.04803332
41	0xbd6fdd88	-0.058560878
42	0xbb1ac0ce	-0.0023613456
43	0x3c92933b	0.01789247
44	0x3d57802c	0.05261247
45	0x3bf48b3c	0.007462887
46	0xbd44491a	-0.047921278
47	0xbcd35b35	-0.025800327
48	0xba95e71a	-0.0011436671
49	0x3bf32036	0.0074196113
50	0x3a93b0d8	0.0011267914
51	0x3c09b563	0.008405062
52	0xbd2c707d	-0.042099465
53	0x3b04090a	0.002014699
54	0x3d317538	0.04332468
55	0xbd805da3	-0.0626786
56	0xbc9302a0	-0.017945588
57	0xbc69333f	-0.014233409
58	0x3c804820	0.015659392
59	0x39e8734e	0.00044336397
60	0xbb24fca2	-0.0025174995
61	0xbca9c331	-0.020722957
62	0xbd3d2be5	-0.04618444
63	0x3c09a34a	0.008400748
64	0xbd170ae6	-0.036875628
65	0x3c44c31a	0.012009406
66	0xbd18142d	-0.037128616
67	0xbcdf5cbd	-0.0272659
68	0xbcde7f80	-0.027160406
69	0xbd0bbe69	-0.034117136
70	0xbcf789fe	-0.030217167
71	0x3cb3ed6b	0.021963796
72	0xbd0d2894	-0.034462526
73	0x3b613941	0.0034366401
74	0x3d0e7f60	0.034789443
75	0xbcd8d8da	-0.02647059
76	0x3c115eca	0.008872697
77	0x3ce9e9c3	0.02855385
78	0xbbe9b5e7	-0.00713228
79	0xbc8cdf73	-0.017196393
80	0xbcb1deb6	-0.021712642
81	0x3c4a0fbb	0.012332852
82	0x3ca91cdf	0.02064365
83	0xbbd21bd8	-0.0064120106
84	0xbd3026e9	-0.043005858
85	0xbd048c1f	-0.032360192
86	0xbca22969	-0.019795137
87	0x3cc72ef5	0.024314383
88	0xbce133f7	-0.0274906
89	0x3c2f9643	0.0107169775
90	0xbcec16b0	-0.028819412
91	0xbcf5ed84	-0.030020483
92	0x3c74886d	0.014925105
93	0x3cfbae43	0.030722743
94	0xbc1b4487	-0.009476787
95	0xbbfff0bc	-0.00781068
96	0xbd2ac53c	-0.041692004
97	0xbc0d7523	-0.008633885
98	0xbcccc976	-0.024998408
99	0x3c03ab16	0.008036396
100	0x3ca297d6	0.019847792
101	0xbc2ef6af	-0.010678931
102	0xbb84012b	-0.0040284595
103	0xbd1038b4	-0.035210326
104	0xbd31bb94	-0.04339178
105	0x3d05b134	0.032639697
106	0x3c4a00f1	0.012329326
107	0xbd2b7faf	-0.041869815
108	0xbcc3e949	-0.02391495
109	0xbce87082	-0.02837396
110	0xbd0978da	-0.03356252
111	0xbd1de9eb	-0.03855316
112	0xbd769d66	-0.0602087
113	0xbbbe5c20	-0.005809322
114	0xbcacfc95	-0.021116534
115	0x3ccab73c	0.024745576
116	0xbc573607	-0.01313544
117	0xbdbb9c04	-0.09160617
118	0x3be68309	0.0070346636
119	0x3cbbe191	0.022934707
120	0x3c1565a7	0.009118474
121	0xbd637215	-0.05552872
122	0x3d21337a	0.039355733
123	0xbc5fb2d3	-0.013653475
124	0xbc0a96ac	-0.008458775
125	0xbc32e0fd	-0.010917899
126	0x3c9d46b0	0.019198745
127	0xbca2e170	-0.019882888

conv3.weight f4 [1, 128, 3, 3]
0	0x3d38947d	0.045063484
1	0x3cf86fa2	0.030326668
2	0x3d1643b0	0.036685646
3	0x3c73c43e	0.014878331
4	0x3d4b0de8	0.04957381
5	0x3c280097	0.010254047
6	0x3caba3ab	0.020952066
7	0x3c697259	0.014248454
8	0x3d1190ef	0.03553861
9	0x3c91cf99	0.017799186
10	0xbbd61b4e	-0.0065340167
11	0x38d5a7ef	0.000101879115
12	0x3c70b529	0.014691629
13	0x3c0f5171	0.0087474445
14	0x3d175f82	0.036956318
15	0xbbe4e196	-0.0069848998
16	0xbb563436	-0.0032684929
17	0x3ca6c6fc	0.020358555
18	0x3bed1936	0.0072356714
19	0x3c85d76f	0.016338078
20	0xbcfdef7d	-0.030997986
21	0x3c20c93c	0.009813603
22	0x3b5b210a	0.003343644
23	0x3b059698	0.002038395
24	0xbc3fc239	-0.011704021
25	0x3c9f5115	0.019447843
26	0xbc0af8ee	-0.008482201
27	0x3c5dc611	0.013535992
28	0x3b49af9a	0.0030774833
29	0x3d2909c6	0.041269086
30	0xbc49440b	-0.012284289
31	0xbbae25d3	-0.0053145676
32	0x3c41b8d0	0.011823848
33	0x3d133e0c	0.035947844
34	0x3c03a39e	0.008034615
35	0x3cdd7a13	0.027035749
36	0x3cff08d1	0.031132134
37	0x3cb7b991	0.022427352
38	0xbbf9473f	-0.00760737
39	0x3c805d53	0.0156695
40	0xbbb316b4	-0.005465353
41	0x3d137d01	0.036007885
42	0x3c782189	0.015144714
43	0xbc8650cf	-0.016395954
44	0xbc2c2e02	-0.010509016
45	0xbb3c401a	-0.002872473
46	0x3c9dfb79	0.01928495
47	0x3cf92210	0.03041175
48	0x3bf7e926	0.0075656353
49	0xbba426b8	-0.0050094984
50	0x3d069429	0.03285614
51	0xbc7f2df0	-0.015574917
52	0x3b6f1c6b	0.0036485444
53	0xbb0ea209	-0.002176406
54	0x3ac36bc6	0.0014909438
55	0xbc2bea30	-0.010492846
56	0xbc3c5c5f	-0.011496632
57	0x3b61c5e6	0.0034450232
58	0x3cf149b4	0.02945409
59	0xbcb40df0	-0.021979302
60	0xbc4dbb19	-0.012556815
61	0x3c8521a2	0.016251389
62	0x3c841914	0.01612524
63	0x3bf5e3ed	0.0075039775
64	0xbb3e8cd7	-0.0029075646
65	0x3cb52afa	0.02211522
66	0xbbe89f36	-0.0070990575
67	0x3bbf1850	0.0058317557
68	0xbb93603a	-0.004497555
69	0x3aa1fda5	0.0012358917
70	0xba2de428	-0.0006633424
71	0x3be8e2cf	0.007107116
72	0xbc9f312e	-0.01943263
73	0xbd80d338	-0.06290287
74	0xbd6d8ce7	-0.057995703
75	0xbcbc9bea	-0.023023564
76	0xbcaa6eaf	-0.020804731
77	0xbce6f75f	-0.028194128
78	0xbbfdb667	-0.0077426913
79	0xbd7a2f21	-0.061080102
80	0xbc20dd35	-0.009818365
81	0x3bbaaa54	0.005696574
82	0xbb38777c	-0.002814739
83	0x3c396549	0.011315652
84	0xbc6b5655	-0.014363845
85	0x3b01d214	0.0019809054
86	0xbc6aad1e	-0.014323501
87	0x3c468838	0.012117438
88	0xbb9b673b	-0.0047425306
89	0xbbeba8ef	-0.0071917693
90	0xbcbd1df4	-0.023085572
91	0xbd11a571	-0.035558168
92	0xbd548dbd	-0.051892985
93	0xbd879ffe	-0.06622313
94	0xbd97da59	-0.074146934
95	0xbcfbbdb9	-0.030730115
96	0xbd26aba2	-0.040691026
97	0xbd82cfe3	-0.063873075
98	0xbce2b2e1	-0.027673187
99	0x3cc25910	0.023724109
100	0x3c964063	0.018341249
101	0xbc93937a	-0.018014658
102	0xbce68bb2	-0.028142784
103	0x3cbac1bc	0.022797458
104	0x3bdfdc4b	0.006831681
105	0xbbcda135	-0.006275321
106	0xbbbccf52	-0.005762019
107	0xbc84e713	-0.016223466
108	0x3bfb4a8a	0.007668798
109	0x3d36634e	0.044528298
110	0x3cc286b0	0.023745865
111	0x3d433f51	0.047667805
112	0x3d3e814a	0.04651002
113	0x3bdec888	0.0067988075
114	0x3d33f352	0.04393322
115	0x3d32531b	0.043536287
116	0x393e58d7	0.00018152907
117	0x3b86c1ec	0.0041124728
118	0xbcc0d3e1	-0.023538532
119	0xbb6ccba7	-0.0036132128
120	0x3b15cfa3	0.0022859357
121	0x3c0d4cec	0.008624297
122	0xbbbd6c03	-0.0057806983
123	0x3c37b172	0.01121174
124	0x3cc04e1d	0.023474747
125	0xbc5e8f6c	-0.013583999
126	0x3c091e11	0.008368985
127	0x3c0a0bbd	0.00842565
128	0x3c825b4a	0.01591267
129	0xbc63209e	-0.013862757
130	0xbc79e61f	-0.015252619
131	0xbcb42b51	-0.021993311
132	0x3cf600c0	0.030029655
133	0xbccd7871	-0.025081845
134	0xbcbb783f	-0.022884486
135	0x3d32edfe	0.043684
136	0x3c9e3048	0.019310132
137	0x3d2e2531	0.042515937
138	0x3d3a6bf9	0.045513127
139	0xbba9f5ee	-0.005186788
140	0x3cd37ec2	0.025817279
141	0xbb16a2fb	-0.0022985328
142	0x3d0d0b95	0.034434874
143	0x3cf0f334	0.029412843
144	0x3c6a58c5	0.014303391
145	0x3c0ad7c7	0.008474297
146	0x3c35cb0c	0.011095773
147	0x3c94fc04	0.018186577
148	0x3c87724d	0.016533995
149	0x3cd86588	0.026415601
150	0x3ccbe221	0.0248881
151	0x3cba4569	0.022738175
152	0x3c87dd5d	0.016585046
153	0xbce18d6c	-0.027533256
154	0xbd33b95d	-0.043877948
155	0xbcacb8db	-0.02108424
156	0xbd90e169	-0.070742436
157	0xbcb6f7f1	-0.022335025
158	0xbd2cea95	-0.042215902
159	0xbd030dbb	-0.031995516
160	0xbd142bfa	-0.03617475
161	0xbd226116	-0.03964337
162	0xbc935657	-0.017985506
163	0xbc996244	-0.018723615
164	0xbcdf6567	-0.027270032
165	0x3c10fcfc	0.008849379
166	0xbc9fcb36	-0.019506078
167	0xbccd9ac3	-0.02509821
168	0xba1ea55e	-0.00060518633
169	0xbcc3f693	-0.023921287
170	0xbd3927a4	-0.04520382
171	0xbc188444	-0.009308878
172	0xbd0d9e26	-0.03457465
173	0xbd3a54c0	-0.04549098
174	0xbcced83d	-0.025249595
175	0xbc1e07bf	-0.0096454015
176	0xbd19ee1b	-0.03758059
177	0x3b5fffc8	0.0034179557
178	0x3bda15f3	0.0066554486
179	0xbb727031	-0.003699314
180	0xbb8b8c0e	-0.004258639
181	0x3bbe4ce2	0.005807505
182	0xbc9badb7	-0.019003732
183	0x3c1bd321	0.009510786
184	0x3bf0d39e	0.0073494455
185	0x3ab911a9	0.0014119643
186	0x3ccf9a91	0.025342258
187	0x3c8bdd6b	0.017073354
188	0xbc659f94	-0.014015097
189	0x3bf654e4	0.007517444
190	0xbccdaecf	-0.02510777
191	0x3cb5d575	0.02219651
192	0xbcc98935	-0.024601558
193	0xbc52ceeb	-0.012866716
194	0x3cea37ed	0.02859112
195	0xbc824d34	-0.015905954
196	0xb9fd5f9e	-0.0004832716
197	0x3acce4da	0.0015632168
198	0xbc3e3b56	-0.0116108265
199	0xbc95a3fa	-0.018266667
200	0x3af54254	0.0018711784
201	0xbb3bf551	-0.0028680156
202	0xbc59cc3d	-0.013293323
203	0xbca2010d	-0.019775892
204	0xbc91b22e	-0.017785158
205	0x3c2d1b0c	0.0105655305
206	0x3bcbf07b	0.006223736
207	0x3d0cf66b	0.03441469
208	0x3c9702cc	0.01843395
209	0x3c432fa9	0.011913219
210	0x3d055366	0.032550238
211	0xbc2c8ce1	-0.010531635
212	0x3d2b5ce6	0.04183664
213	0x3c29242c	0.010323565
214	0x3d1ff585	0.039052505
215	0xbc2212ec	-0.009892207
216	0xbbb7e41d	-0.00561191
217	0x3d113ba5	0.035457272
218	0xbc865c5b	-0.01640146
219	0xbc938107	-0.018005861
220	0xbbdfc072	-0.006828361
221	0x3bc7c8e6	0.006096947
222	0x3ce704df	0.028200565
223	0x3d1d5389	0.038409743
224	0xbc510ee3	-0.012759897
225	0x3c1f4b94	0.009722609
226	0xbb134acb	-0.0022475
227	0x3cc87f5f	0.024474798
228	0xbc284c96	-0.010272166
229	0x3c1a5ac2	0.009421052
230	0xbc904312	-0.017610107
231	0x3b98ed59	0.004666966
232	0xbb987864	-0.0046530236
233	0x3adf0287	0.0017014303
234	0xbc240bcd	-0.010012579
235	0xbbb7de92	-0.0056112492
236	0xbcaa0757	-0.020755453
237	0x3a3ecc58	0.00072783744
238	0xbc9bfb80	-0.019040823
239	0xbd0f442d	-0.034977127
240	0xbd4aef9d	-0.04954492
241	0xbc9675e3	-0.01836676
242	0xbcc7809f	-0.024353324
243	0x3c4fa3cc	0.01267333
244	0x3d0ebc29	0.034847412
245	0x3b4372cd	0.0029823065
246	0x3cb3eed2	0.021964464
247	0x3d106316	0.035250746
248	0x3c4d6402	0.012536051
249	0x3cd26102	0.025681023
250	0x3c8cd6fb	0.017192354
251	0xbb6cb71e	-0.0036119889
252	0x3d3b70d8	0.045761913
253	0x3b9546d6	0.0045555634
254	0x3d2710ce	0.04078751
255	0x3d0a9c93	0.033840727
