weights/lol_dataset/generator_weights.pth (torch, 16352 bytes, 4 tensors)

conv1.weight f4 [64, 3, 3, 3]
000000 fd 3e 93 be 18 b3 e0 bc 74 fc c7 bd 17 07 9b bc
       -0.28758994 -0.027429149 -0.097649485 -0.01892428
000010 72 a6 4c be 84 20 7c be c4 d7 84 bd 54 cc 30 be
       -0.19985369 -0.24621779 -0.064864665 -0.17265445
000020 cf b4 a8 bd 6e 01 53 be 12 6b 77 bd 13 14 fb 3c
       -0.082376115 -0.20606014 -0.060404845 0.03064922
000030 0a 2f b2 3d 5e 64 6f be 70 69 34 be ab 88 8b be
       0.08700378 -0.23378131 -0.17618346 -0.27252707
000040 1d ce 82 3d e9 03 1b be a4 b6 4f bd cf 86 86 be
       0.06386969 -0.1513821 -0.05071129 -0.26274726
000050 4d 79 85 bd d5 de bd bd 87 cb 78 be 11 1f 11 be
       -0.06517277 -0.092710175 -0.2429639 -0.14172007
000060 0b 98 07 3c fd 54 16 be 22 55 7e be 27 0a 37 bd
       0.008275996 -0.14680858 -0.24837163 -0.044687416
000070 4b a3 83 be 92 2b b9 3c 2d 7b 80 be 15 1c 3e be
       -0.2571052 0.022603784 -0.25093976 -0.185654
000080 5f 0a 70 3d 92 e3 87 3d 20 9e d8 bc 04 65 72 bd
       0.05860364 0.066352025 -0.026442587 -0.059178367
000090 0b 6b 66 be 1b 8e 65 be 9c 25 bd bd 99 71 9c bd
       -0.22501771 -0.2241749 -0.09235689 -0.076388545
0000a0 d1 86 1b be 3b cf 01 bd 30 8b ab 3d 2a 7d 40 be
       -0.15188147 -0.03169177 0.08376157 -0.18797746
0000b0 e3 87 77 3c e5 de 6b be 15 0f dd bd ea c1 dd bb
       0.0151080815 -0.23034246 -0.10793892 -0.006767501
0000c0 00 02 53 3c 75 13 08 3c d2 ed 66 be fb e8 d9 bd
       0.012878895 0.00830542 -0.22551659 -0.106401406
0000d0 dc 6b 31 bd 5e 0f 44 3d ad 02 5e 3d fa 90 49 bc
       -0.043315753 0.047866218 0.05420177 -0.0123026315
0000e0 83 04 4d be c8 ad 07 be 17 54 50 be be 28 c8 3d
       -0.20021252 -0.13249886 -0.20344578 0.09773396
0000f0 92 7c 3b 3d 1f a3 d8 bd 9a 71 12 be de ad c1 bd
       0.045773096 -0.10577988 -0.14301148 -0.09456991
000100 12 18 1d bd 19 de fe bd 3a 9e ec 3d 79 1c 3e bd
       -0.038353033 -0.124447055 0.11553617 -0.046413872
000110 b1 97 be bd 56 bc e6 3d 1f 63 12 be 8e 92 be 3d
       -0.093062766 0.11266391 -0.14295624 0.09305297
000120 06 a5 14 be 3a ca 93 3d 72 e9 f0 3d 8b fd 8d bd
       -0.14516076 0.07216306 0.11763276 -0.06933125
000130 7f 8f da bd 62 c7 9c 3d 7d 3a 6e be 58 a2 ff bd
       -0.10671901 0.07655217 -0.23264499 -0.124821365
000140 12 3d 96 3c a0 ec 53 3d c8 47 e0 bb 8c e0 6e bb
       0.018339667 0.051739335 -0.0068444945 -0.0036449758
000150 54 0f 77 bd 02 28 3f 3e 44 77 30 be ce a1 92 bd
       -0.060317352 0.18667606 -0.17232996 -0.07159768
000160 b7 4c 0a be d7 f2 fc bd 73 f3 7b 3d 00 83 f2 bd
       -0.13505827 -0.123510055 0.06151147 -0.118413925
000170 d8 21 0c 3e 78 0b d1 3d ac 18 49 3d 48 76 4a 3e
       0.13684785 0.102072656 0.049095795 0.19771683
000180 4c 87 1a 3e fb d1 42 3e f5 64 1f 3d 11 50 3d 3e
       0.15090674 0.19025414 0.03891464 0.18487574
000190 37 ff b7 3d 97 dc 0e 3d 86 4d b8 3d c7 5b ae bd
       0.08984225 0.03487834 0.089991614 -0.08513599
0001a0 0b 10 69 3b 22 71 00 3d 87 91 d0 bc bd 33 b8 bb
       0.003556254 0.03135789 -0.025460018 -0.005621402
0001b0 e6 dd 62 3e f7 2b b9 bc a1 79 c7 3d 28 b8 74 bd
       0.2215496 -0.022603972 0.09739996 -0.059745938
0001c0 4f 38 6e bd 79 4f a2 3e 41 8c 5f 3d 5c 4c 82 3d
       -0.05815917 0.31701258 0.054577116 0.06362221
0001d0 51 e3 e5 bc 50 f6 2c 3d ea 8d 3c 3e dd d2 cb 3d
       -0.028062494 0.04222709 0.18413511 0.09952328
0001e0 70 b7 a7 3d 16 50 74 bd 4a 34 76 3e 73 ce 1d 3e
       0.08189285 -0.05964669 0.24043384 0.15410785
0001f0 0e 60 14 bc 31 ac 65 bd 72 dd ab 3c 34 91 46 3d
       -0.009056104 -0.056072418 0.020979617 0.04847832
000200 93 9d c6 3d e3 1e 9c bc 91 7b 75 3e 15 db 48 3d
       0.09698024 -0.019057697 0.23972918 0.049037058
000210 f0 19 9a 3d 35 dd 9d 3c 31 a1 42 3e df 88 3b be
       0.075244784 0.019270519 0.19006802 -0.18313931
000220 c7 e5 eb bc 07 cc 13 be 7e dd 72 bd e6 dd 36 be
       -0.02879609 -0.14433299 -0.059293263 -0.17858085
000230 28 39 51 be 37 ae 86 bd 78 0f d2 bd 6e 2b c8 3d
       -0.2043196 -0.065761976 -0.10256857 0.097739086
000240 61 9e 88 3d 68 ca 7a 3b 2b 61 c3 bd 96 b3 83 bd
       0.066708334 0.0038267616 -0.09540018 -0.06430738
000250 68 ad 1f be 13 e1 37 bc 33 c0 e9 bd 3c 2a a7 bd
       -0.15593493 -0.0112230955 -0.11413612 -0.081623524
000260 fc c5 22 3d 5d c9 aa bd 95 b0 33 be b1 f3 12 3d
       0.039739594 -0.08339188 -0.1754783 0.035876933
000270 58 5c 5c be 32 d7 ea 3c 89 01 92 3c 8b 09 bd bd
       -0.21519601 0.028667066 0.017822998 -0.09230336
000280 1f b9 80 be 3d 57 5a 3d e2 70 0d 3e c4 0c 07 be
       -0.25141236 0.053305853 0.13812593 -0.13188463
000290 a5 ea 05 bd 0b 0d 95 3d ec cd 61 3d 93 ac 09 3d
       -0.032694478 0.072778784 0.055128023 0.033611845
0002a0 9c 4f bf bc 80 4b a8 3d c2 91 24 be 40 fb 55 3c
       -0.02335339 0.082175255 -0.16071227 0.013060391
0002b0 b7 6b bc 3c 43 4f 72 bd f6 76 37 be 70 6a 31 be
       0.023000581 -0.05915762 -0.17916474 -0.17325759
0002c0 82 aa 0f be 08 af 1b 3d 82 63 e6 3d 01 32 d3 bc
       -0.14029887 0.03800872 0.11249448 -0.02578068
0002d0 4a 3e bf 3d ae 4d 2d be 3a 45 1d 3e 73 d8 d7 bd
       0.093380526 -0.16924164 0.15358439 -0.10539331
0002e0 5c 6f d4 3b 99 2d cd 3d 3f 48 9c 3c f3 e9 c6 3c
       0.0064830016 0.10018463 0.019077418 0.024281478
0002f0 17 56 3b be 0d e2 9a bc f3 41 4b be 47 67 6b be
       -0.1829456 -0.018906618 -0.19849376 -0.22988616
000300 24 b9 c0 bd 47 d1 cd 3d d0 0c d4 3d f9 8d 2f bb
       -0.09410313 0.10049682 0.10354006 -0.0026787503
000310 a9 83 60 be a6 05 e5 bd c8 ad bf bb d9 77 43 bd
       -0.21925224 -0.11182718 -0.0058495738 -0.047721718
000320 54 fc 8d bd 62 79 49 bd d9 05 13 3d 50 39 c4 bd
       -0.069328934 -0.049188025 0.03589425 -0.09581244
000330 f4 14 99 bd 85 7a e6 bc 6c ea 27 be 7a 5b c1 3d
       -0.074746996 -0.028134594 -0.16398019 0.09441276
000340 4d 26 b1 bc 2c 33 87 39 6b 32 d1 bd d9 8f 94 bc
       -0.021624709 0.00025787333 -0.102146946 -0.018134998
000350 c0 79 e8 3d a4 39 70 be f4 27 1c 3d 85 75 01 bd
       0.11351347 -0.23459488 0.03812404 -0.031606216
000360 55 77 4b bc f0 51 e3 3c 37 e2 84 3d b4 ba 9c 3d
       -0.012418588 0.027749032 0.064884596 0.07652798
000370 0d 37 ed 3c 36 86 7a 3e 00 ba e4 3b 11 8d e4 bb
       0.028956914 0.2446526 0.0069801807 -0.0069748242
000380 5f a3 9c 3e 17 11 3c 3d 32 14 a1 bd 56 a2 c4 3d
       0.30593392 0.045914736 -0.0786518 0.096012756
000390 95 46 d6 3d 8a dc 10 3e e5 b3 98 3e 02 f9 10 bd
       0.10462681 0.14146629 0.2982475 -0.035393722
0003a0 cb 84 8e 3d 7d 1a 99 3e e5 71 7d bd 3e 6e 88 bd
       0.06958922 0.2990302 -0.061876196 -0.06661652
0003b0 2c 6e b3 bc d6 75 8f 3d c8 14 97 bc 12 b7 bd bc
       -0.02190312 0.07004897 -0.018442526 -0.023158584
0003c0 df 7c be 3c 83 f0 11 bc 8a 5f e5 bc e1 e4 0f bc
       0.023252903 -0.00890744 -0.027999658 -0.008782596
0003d0 0b 38 23 3e fb bd c0 3d 9a df 98 3e 85 bb 7b 3e
       0.15939347 0.09411236 0.29858094 0.24583252
0003e0 2b 2b 83 3e 47 5c 28 3e 5f 61 95 3d 92 49 76 3d
       0.25618872 0.16441451 0.07293963 0.060128756
0003f0 50 a8 89 3e 8f 2a ba 3c 8f cb 2b 3c 1c e2 c2 3c
       0.26886225 0.022725372 0.010485544 0.023789458

conv1.bias f4 [64]
000000 1d 1a 37 3e fb ad d3 3d 6d 55 1d 3e 3f 2b 91 bd
       0.17881055 0.103359185 0.15364619 -0.07088327
000010 0c ab a6 bd 9e 57 d5 3d 90 1f 96 3d dc 28 8d 3d
       -0.08138093 0.10417102 0.07330239 0.06892559
000020 8f 7c 3c bd c2 88 2b bd 04 25 97 bc 81 9f 00 3e
       -0.046017226 -0.04187847 -0.018450268 0.12560846
000030 82 e5 13 3e c7 d2 0c bd fa f5 c0 3d 52 99 b9 3d
       0.14443019 -0.0343807 0.09421916 0.09062447
000040 0c 31 cc bc 1e 7f 6b bc f2 ce 42 3e 84 ff 26 be
       -0.024925731 -0.014373569 0.19024256 -0.16308409
000050 4b 28 21 3e a3 df 13 be 55 f3 03 bd 8c d9 9e bd
       0.15738027 -0.1444078 -0.03221448 -0.077563375
000060 94 1d 39 bd 6a 4a 1e 3e 69 b2 b3 bc 80 fc a9 3d
       -0.045194224 0.15458074 -0.021935659 0.08300114
000070 0b b6 c9 bd 98 c0 f1 3d 90 13 3b bd a9 e9 5b bc
       -0.09849175 0.118043125 -0.045672953 -0.013422408
000080 8a 8d 41 3e 1c 7a 63 3c 33 76 f7 3d 4f 1a db 3d
       0.18901649 0.013884094 0.120830916 0.10698377
000090 89 c6 3e 3d a6 1a 92 3d df 4c 08 3e e6 52 8e 3d
       0.046576057 0.07133989 0.13310574 0.06949405
0000a0 e0 30 37 bd 26 10 6a bd ff 2c ab 3d 89 b6 97 3d
       -0.044724345 -0.057144307 0.08358192 0.07407863
0000b0 66 18 d1 bc 4c 46 f2 bb 0f 4c 20 bd 4b ca e2 3d
       -0.02552433 -0.007393634 -0.039135035 0.110737406
0000c0 b2 94 34 3e b9 cb 2b 3e 46 2e a7 3c 8d f7 c6 3d
       0.17634848 0.16776933 0.020407807 0.09715185
0000d0 ae f8 7b bd e0 8a dd 3d 45 2c 07 bd ba 2a 77 bd
       -0.061516456 0.10817504 -0.033001203 -0.06034348
0000e0 8b 01 82 bd a3 c7 ba 3d 7b 57 2d 3d ba e5 59 bc
       -0.063479505 0.09120109 0.042319756 -0.0132994
0000f0 84 f5 5a bc 2a bd 4e bd 8b f2 28 3d b1 4a 69 bd
       -0.0133642 -0.05047337 0.041246932 -0.056955997

conv2.weight f4 [3, 64, 3, 3]
000000 f9 0a 9d 3c 46 a4 a4 3d 78 5e ab 3d 5f c9 f5 3c
       0.019170271 0.08039145 0.08367628 0.030003248
000010 97 00 8f 3d 85 de 4c 3d 12 e6 a5 3c c4 5f 3a 3d
       0.069825344 0.0500169 0.020251308 0.045501485
000020 e0 20 8a 3d 7b 5a 57 3d d6 c5 19 3d 6a 47 66 3d
       0.06744552 0.052576523 0.037542187 0.05622045
000030 3f cf 9b 3d 58 0a 8a 3d 68 45 5d 3d 9f 75 01 3d
       0.076078884 0.06740254 0.05402127 0.031606313
000040 3e aa 8e 3b 04 f2 0e 3d 8f 18 29 3c 36 9c 62 3d
       0.0043537905 0.034898773 0.010320797 0.055324756
000050 02 04 bb bb 22 88 d0 3c 76 a3 f7 3c 4a 47 09 3d
       -0.005707265 0.025455538 0.030229311 0.033515252
000060 c9 4e 2c 3d e3 29 a3 3c 89 4a f4 3b d1 5a 1c 3c
       0.042067323 0.019917434 0.0074551743 0.009543137
000070 84 a3 ed bb 98 f9 62 bc 6c 79 9e bb 17 8f a7 bb
       -0.0072521586 -0.013853453 -0.004836252 -0.005113493
000080 fe 95 fa bc ef 1d 1b bd 89 e9 7f 3b f7 2a 56 bd
       -0.0305891 -0.037870344 0.003904911 -0.05228707
000090 cd 8f 71 bd 40 a0 60 bd 12 4c 91 bd 11 95 4b bd
       -0.05897503 -0.054840326 -0.070945874 -0.049702708
0000a0 72 1a 1a bc 9c a9 60 bd 79 d7 bf bd e5 56 b8 bc
       -0.009405719 -0.054849252 -0.0936727 -0.022502372
0000b0 f1 89 34 bd 5b c5 28 3d 20 14 15 3d bb 18 51 3d
       -0.044076864 0.041203838 0.036396146 0.051048975
0000c0 6f b8 f4 3c 35 c3 89 3d 2e 5c 3e 3d a7 b1 bb b9
       0.029873101 0.06726686 0.04647463 -0.0003579978
0000d0 c0 e5 fa 3c 0d 34 89 3d 17 b9 0d 3d f0 a2 bc 3c
       0.030627131 0.06699381 0.034600344 0.023026913
0000e0 e8 e8 0e bd b2 91 fd 3c b4 20 2c bb f2 2f a8 3c
       -0.034890085 0.030953262 -0.002626461 0.020530675
0000f0 df 8e 20 bc e4 b0 77 3c ba dd c8 3c 7e f9 b7 3c
       -0.009799688 0.015117858 0.02451979 0.022457834
000100 c8 57 66 3d 72 37 80 3d 50 5e b4 3d 16 9d 61 3d
       0.05623606 0.06260575 0.08807051 0.05508145
000110 03 b3 3e 3d ed 35 4b 3d 81 b6 3c 3c c1 53 15 3d
       0.046557438 0.049611975 0.011518122 0.036456827
000120 c6 c2 cc bd 6e fd e7 bd 6c 5a 6f bd 95 e8 df bd
       -0.099980876 -0.11327635 -0.058435842 -0.109330334
000130 45 c7 e5 bd f2 ef db bd b3 0d fb bd 82 43 ee bd
       -0.11219648 -0.10739125 -0.12258472 -0.1163397
000140 73 48 df bd 4a 58 30 bd 17 2b b6 bd e2 5c c1 bd
       -0.109024905 -0.04305295 -0.088949375 -0.09441544
000150 f0 4c 1c bd f6 c5 96 bd c3 9f c8 bd 4c 14 aa bd
       -0.03815931 -0.07361977 -0.09796097 -0.083046526
000160 2f 0c b9 bd 14 84 95 bd 08 d4 26 3c 5c 1b 17 bd
       -0.09035527 -0.073005825 0.010182388 -0.036891326
000170 7f 9e 83 bd 53 03 69 bc e2 4c ee 3b f8 06 45 bd
       -0.06426715 -0.014221984 0.0072723487 -0.04810235
000180 7b f1 78 bd d7 68 05 bd 13 51 a9 3b 69 99 a0 3d
       -0.06077717 -0.032570686 0.0051671355 0.07841761
000190 16 aa 90 3d 18 a4 89 3d 53 9e 56 3d 7f 1e 4c 3c
       0.07063691 0.067207515 0.052397083 0.012458443
0001a0 e3 e6 e4 3b 15 22 78 3c 04 d4 5e 3d b0 e3 11 3d
       0.0069855317 0.015144845 0.054401413 0.03561753
0001b0 85 19 32 3d e9 9a e2 3c be 37 a7 3b ae 7e 61 3d
       0.04348137 0.027661758 0.0051030805 0.05505245
0001c0 c5 08 b5 3c 36 d5 75 bc b7 09 a8 3c 4e 65 54 3d
       0.022098908 -0.015004447 0.020512445 0.051854424
0001d0 79 47 e4 3c 59 14 b6 bd 38 e6 2e bd 28 be c4 bd
       0.027866112 -0.088906 -0.042700022 -0.09606582
0001e0 f7 ec ed bc c7 3e 8c bd 4b dd 61 bd 43 cf 8c bd
       -0.029043658 -0.06847911 -0.055142682 -0.068754695
0001f0 c4 05 da bd 0b 3f 9c bd 02 72 45 3c 90 20 44 3d
       -0.10645631 -0.07629212 0.012051107 0.047882617
000200 28 88 8a 3b 86 c6 8b 3c 5c 93 c9 3c 14 0c 12 3d
       0.004227657 0.017062437 0.0246064 0.03565605
000210 25 71 35 3d 7d 94 5f 3c 43 4e 83 3c 36 01 d3 3c
       0.044297356 0.013646242 0.016028529 0.025757413
000220 fa f9 fd bc d4 bd 71 bb c7 7d 52 bc 18 75 ee 3c
       -0.031002987 -0.0036886828 -0.0128473705 0.029108569
000230 74 34 e3 3c 53 4c 83 3c 32 7c eb 3c 36 e4 f2 3c
       0.027734973 0.016027605 0.028745744 0.029649835
000240 8f f0 99 bd d8 d5 95 bc d8 7e a5 bd b6 8d 17 bd
       -0.07516586 -0.018290445 -0.08080834 -0.03700038
000250 25 1b ba bd 33 1b dd bc 56 e4 9d bd 9b 71 bb bd
       -0.09087209 -0.026990509 -0.07709567 -0.09152528
000260 f0 ce bc bd 72 32 f8 bc a4 92 4d bd c0 a8 fa bc
       -0.09219158 -0.030297492 -0.050188676 -0.030598044
000270 51 f4 76 bd 24 b6 b9 bc ad cb 43 bd 25 57 90 bc
       -0.060291592 -0.02266986 -0.047801662 -0.017619679
000280 5e 90 9e bd a3 2e 6b bd ad 8e 24 3d 33 e1 e8 3c
       -0.077423796 -0.057417523 0.04017513 0.028427696
000290 9e 52 15 3d 22 74 55 bb 56 18 60 3d 6b 9c 9a 3c
       0.036455743 -0.0032570441 0.05471071 0.018873414
0002a0 b5 b5 19 3d 56 ee 93 3d 6e 32 4e 3d 3f 10 17 bd
       0.037526805 0.07223193 0.050341062 -0.036880728
0002b0 5a 85 b5 bb 09 da 44 bc e8 3d d6 bc 18 06 3f bc
       -0.0055395784 -0.012014874 -0.026152566 -0.011659168
0002c0 e7 27 66 3c 2e 40 4c bc 9e d7 09 bd 1d 28 1c 3d
       0.014047599 -0.0124664735 -0.033652894 0.038124193
0002d0 a0 4f 16 3d 35 13 14 3c a3 0d 7b bc 06 2a 5c 3d
       0.03669703 0.009037782 -0.0153230755 0.053751014
0002e0 8a 68 13 3c 16 7c 81 3d 40 f0 14 ba 34 84 4a 3d
       0.008997092 0.06322496 -0.0005681552 0.049442485
0002f0 26 85 86 3d c1 27 16 bd a2 39 90 bc 24 ea 08 bc
       0.06568365 -0.036659006 -0.017605606 -0.008356605
000300 ea 7d dd 3c 39 68 ec bc ee d9 9e bc 2e ac 24 3d
       0.02703758 -0.028858291 -0.019391026 0.040203266
000310 04 f7 86 3b 5a e2 7e bc 83 20 68 bd 13 38 84 bd
       0.004118802 -0.015556896 -0.05667163 -0.06456008
000320 b5 bd 23 bc b4 e4 ac bc 67 0c e6 bc ef 0b 84 3b
       -0.00999396 -0.021105148 -0.028082086 0.004029743
000330 53 d8 4e bc 19 63 c9 bc 88 62 cb bc f1 80 a9 bd
       -0.012624818 -0.024583386 -0.024827257 -0.08276547
000340 c4 c4 86 bd 66 50 c9 bd c7 3d 62 bd d4 8c 46 bd
       -0.06580499 -0.09829788 -0.055234697 -0.048474148
000350 65 53 02 bd 18 d9 e0 bc 12 a2 b3 bd e2 b0 9a bd
       -0.031817812 -0.027447268 -0.08771147 -0.07553269
000360 8c 78 84 bd 0b a4 f4 bc 1b 13 ad bd 03 cf 8a bc
       -0.06468305 -0.029863378 -0.0845091 -0.016944414
000370 a7 f0 e3 bb 74 b3 ed bb 2a d2 63 bc a1 a0 97 bc
       -0.006956178 -0.0072540585 -0.0139050875 -0.018509211
000380 6a 30 8b bd a9 9a 90 3d bc bd 41 3d f7 d6 13 3d
       -0.067963436 0.07060749 0.047300085 0.03609368
000390 4f ca 30 3d 63 f3 85 3c 81 7d 14 3d 52 08 9c 3d
       0.043161687 0.016351407 0.036252502 0.076187745
0003a0 0a fd a4 3c ff 6d 97 3d 6f 87 64 bc 31 75 b6 ba
       0.02014019 0.07394027 -0.0139483055 -0.0013920424
0003b0 d7 d0 26 bb 93 1f e3 bc d7 d2 28 bd 9a 70 ae bc
       -0.0025454068 -0.027725017 -0.041216698 -0.021293927
0003c0 3e 94 98 bb 11 05 15 bd a2 ce b8 bc 00 a1 23 3d
       -0.0046563437 -0.036381785 -0.022559468 0.039948463
0003d0 1f da d2 3c 41 7b 2a 3d 2c e0 61 3c a5 eb 8a 3c
       0.025738774 0.04162145 0.013786357 0.016958067
0003e0 3a 51 80 3d 27 19 27 3d 99 15 95 3d 3b 6b 82 3d
       0.06265493 0.04079547 0.0727951 0.06368109
0003f0 e1 7b 93 bb 7e 58 a8 bc 44 f6 ba bc c8 08 94 bd
       -0.0045008515 -0.020550009 -0.022822507 -0.072282374

conv2.bias f4 [3]
000000 78 48 8c bb d7 b3 28 3d 8a dd 9f 3c
       -0.0042811 0.041187134 0.019514818
