weights/lol_dataset/generator_weights.pth (torch, 608184 bytes, 8 tensors)

model.0.weight f4 [64, 3, 3, 3]
000000 1f 69 22 be 55 73 29 3e 68 17 e6 3c af e4 7e 3d
       -0.15860413 0.16547902 0.028087333 0.06222981
000010 fe 76 00 be 76 cb d3 3c d2 37 b0 bc e6 35 20 be
       -0.12545392 0.025853854 -0.021510992 -0.1564556
000020 3e 58 48 be ad 93 3d bd d2 ad 5c 3c 0b 01 23 bd
       -0.19564912 -0.046283413 0.013469176 -0.039795917
000030 3d 59 65 3c c9 22 04 3e f8 6c dd 3d 77 db 10 be
       0.013998327 0.12903894 0.108118 -0.14146219
000040 f0 bd 46 be fa f9 d4 3c 39 47 41 be 45 11 1c 3e
       -0.19408393 0.025998104 -0.18874826 0.15240963
000050 20 bd b5 bd d2 3e 2e be 5d 60 2d 3e 8c 1e 15 3e
       -0.08873963 -0.17016152 0.16931291 0.14562434
000060 11 9a 1c be 2e 05 6f 3d 6b 51 a9 bd 83 cf 26 bd
       -0.15293147 0.05835455 -0.08267482 -0.040725242
000070 0d 85 86 3c 5d 7f fe bc 80 75 20 be 8b fd 21 be
       0.016420865 -0.03106659 -0.15669823 -0.15819375
000080 83 ab 00 3d 1d 9c 83 3b 03 ea 0c 3e 69 a5 db 3d
       0.031413566 0.004016413 0.13761143 0.10724909
000090 0d 9d b4 bd b3 e7 d3 3d f8 fd 29 3e 57 9e 36 be
       -0.088190176 0.103469275 0.16600788 -0.1783384
0000a0 ef 22 7f 3d 88 20 1b 3e bb df dc bc 20 b0 c1 3d
       0.062289175 0.15149128 -0.026962152 0.09457421
0000b0 6a de c4 3d a1 2f 32 be 40 fd ec bd 19 4f 2e be
       0.096127346 -0.17400981 -0.11571741 -0.17022361
0000c0 d8 90 cb 3d fe e4 c4 bc 2f 92 b6 3d a9 04 eb 3d
       0.09939736 -0.024034973 0.08914601 0.11475498
0000d0 77 8a 93 3d 2a 30 5f bc 06 78 8e 3c 11 00 18 be
       0.072041444 -0.013622323 0.017391216 -0.14843775
0000e0 62 fe 09 3d d1 19 18 3e e7 00 88 3d ab 91 c9 3d
       0.033689864 0.14853598 0.06640797 0.09842237
0000f0 94 48 b5 3d 13 f1 ec 3c 10 2f 61 3d 16 62 b0 bd
       0.08851734 0.028923547 0.054976523 -0.086124584
000100 fd 75 24 3e fd 2f 44 3d d2 55 89 bd 8e d7 64 bb
       0.16060634 0.047897328 -0.06705822 -0.003491852
000110 39 01 c8 bd 8b dd 3a be 67 aa 14 be f4 69 84 3d
       -0.09765858 -0.18248574 -0.14518128 0.064655215
000120 ca 19 d0 3d 70 92 0b be 3a 4c 94 bc b1 38 33 be
       0.10161169 -0.1363008 -0.018102754 -0.17502095
000130 19 b8 29 3e 53 29 01 be 02 46 8b bd d1 3a 9a 3c
       0.16574134 -0.1261342 -0.06800462 0.018826874
000140 c8 bc b3 bd 13 72 0b be 35 3b 4c 3d 9e 0f 83 bd
       -0.087762415 -0.13617735 0.04986115 -0.06399463
000150 31 63 a6 bd ac 3e 85 3d 21 d1 a2 3d 20 28 3b bd
       -0.08124388 0.06506094 0.079500444 -0.045692563
000160 68 77 a5 bd 63 01 09 3e 83 a9 f5 3d 5c 83 c1 bd
       -0.080794156 0.13379435 0.119952224 -0.09448883
000170 a6 41 60 be fd 8a 38 be 00 fe 26 3e ab b5 4b be
       -0.21900043 -0.1802177 0.16307831 -0.1989352
000180 76 5a 2b be bb ea 21 3e a3 5a d0 3c b1 42 a6 3d
       -0.16733727 0.15812199 0.025433844 0.08118189
000190 bb ea 28 be ad 0b 83 bc b8 94 2d be d4 c5 d3 bd
       -0.16495793 -0.015996778 -0.16951263 -0.10340467
0001a0 62 e5 9a bd d7 e4 40 be c4 08 89 3c 9c 27 5e be
       -0.075632825 -0.18837295 0.016727813 -0.21694797
0001b0 56 86 23 3e f6 4e 27 bd 0c 75 8f bd 21 fe 47 be
       0.15969214 -0.040846787 -0.07004747 -0.19530536
0001c0 cb 82 9c 3a d8 c7 01 3e 0c de 03 be 9a c1 70 3d
       0.0011940835 0.1267389 -0.12877673 0.058778383
0001d0 21 55 f4 3d 07 4c dd 3d e8 00 b8 bd a1 d3 52 be
       0.119302996 0.10805517 -0.08984548 -0.20588543
0001e0 04 1c ca 3c 8c d7 ed bd 88 5b cb 3d 92 df 66 3d
       0.024671562 -0.11613378 0.099295676 0.056365557
0001f0 c1 5c 2b b9 97 32 c6 3a 10 70 6b 3b 85 aa a3 bd
       -0.00016342384 0.0015121278 0.0035924949 -0.079915084
000200 14 ce e7 3d 5a 33 a8 bd cd fa a1 bd 2f 37 fa 3d
       0.11318603 -0.082129195 -0.079091646 0.12217557
000210 78 10 d6 3d 3e d3 99 3d fb 7c ba bc 7e 84 24 be
       0.1045236 0.075109944 -0.022764673 -0.16066167
000220 66 10 c6 bc e2 e3 1f 3e 3f b4 ba bd 2b 0c 01 3e
       -0.024177741 0.15614274 -0.091164105 0.12602298
000230 5a 4a 47 be 5d 84 07 3d d9 f3 8f bc da 75 d9 bd
       -0.19461957 0.033085216 -0.01757233 -0.106181815
000240 1b 1b b9 bd fc 00 f5 3d fc c6 19 3d 67 70 85 3d
       -0.09038373 0.119630784 0.037543282 0.0651558
000250 2b 8a 82 3d b3 64 2d be 74 31 d7 ba 8e 7b c1 3d
       0.0637401 -0.16932945 -0.0016417936 0.09447394
000260 21 35 d2 3d 22 d9 83 3c 62 a8 fc bd 55 c8 05 bd
       0.1026404 0.016094748 -0.12336804 -0.032661755
000270 29 07 42 be c6 95 97 3d 5e 16 5f 3d 21 58 5d bd
       -0.18948044 0.07401614 0.05446469 -0.054039124
000280 c8 1c 92 39 7c ef 0f 3e 43 de ea 3c 6e f0 bd bd
       0.00027868734 0.140562 0.028670436 -0.09274374
000290 80 c3 c5 3c 20 63 d4 bd 44 22 70 3c fd f5 70 bb
       0.024141073 -0.10370469 0.014656607 -0.0036767714
0002a0 4e 4a fe 3d a0 a4 41 be 95 10 b9 bd ef b1 41 be
       0.12416516 -0.18910456 -0.09036366 -0.18915533
0002b0 f0 13 1d 3e 61 5a 4d 3d 08 34 11 be bf d5 43 bd
       0.15339637 0.05013502 -0.14180005 -0.047811266
0002c0 bf 51 29 be 0b 1d 1b 3e 96 70 d3 3d 7c 73 21 bd
       -0.1653509 0.15147798 0.103242084 -0.039416775
0002d0 84 33 8c 3d 01 a0 53 bb be 13 0d be 27 e3 e0 3a
       0.06845763 -0.0032291415 -0.13777062 0.001715754
0002e0 60 4d 30 be fd 68 52 be 78 f4 4f be 17 ba 25 bd
       -0.17217016 -0.20547862 -0.20308101 -0.040460672
0002f0 80 56 fc bd 66 88 3c be 98 b4 96 3c bc d2 71 3d
       -0.12321186 -0.18411407 0.01839666 0.059038863
000300 5a 6c a0 3c cc 79 8c 3b e5 57 55 be e5 3c 39 bd
       0.019582916 0.0042869803 -0.2083431 -0.04522409
000310 96 de 10 be 78 5b 36 3d 04 6d c5 3b 97 46 86 be
       -0.1414741 0.044520825 0.0060249586 -0.2622573
000320 7a 20 1e be 43 6d 88 3d cc 44 4a 3d d8 d9 8a bb
       -0.15442076 0.06661465 0.049382016 -0.004237395
000330 d1 88 89 3d 29 8d 0e be e8 e0 2a 3d 30 10 d1 bc
       0.06715549 -0.13921036 0.041718394 -0.025520414
000340 80 8a bf bc f5 2c 7c be b8 f6 c2 bc d0 fd df 3d
       -0.023381472 -0.24626525 -0.023799285 0.10937083
000350 88 2c b7 3d 98 77 f0 3d c7 fb 8d bd 18 f2 46 be
       0.089440405 0.11741561 -0.06932788 -0.19428289
000360 37 e0 16 3e 7e 23 56 3d fd ab ee bd 48 5d 02 be
       0.14733969 0.05227994 -0.11653898 -0.12730896
000370 b0 dd 9e bd 84 08 9c 3d e0 7a ae 3d 36 26 f4 bd
       -0.07757127 0.07618812 0.0851953 -0.11921351
000380 0d e0 4c 3d 90 47 38 be 10 34 06 bb f2 a8 bf bb
       0.05001836 -0.17996049 -0.002047781 -0.0058489973
000390 b2 c2 71 3d 37 04 c0 3a 42 07 33 bd 78 a5 43 be
       0.059023567 0.0014649694 -0.043708093 -0.1910609
0003a0 1d f0 84 bd 5e 4d 2b 3b e3 69 c7 3d 1f d8 45 be
       -0.064911105 0.0026138644 0.09736993 -0.19320725
0003b0 29 b9 d7 3d 6e 69 00 3d 39 5d 4c be 91 2e 1c 3d
       0.10533363 0.031350546 -0.19957437 0.038130347
0003c0 3f 22 6f bc ca 18 d9 3c 11 fd a3 bd 03 92 7c 3d
       -0.014595567 0.026501078 -0.08007253 0.061662685
0003d0 bc b1 94 bd 0d 96 34 3e d7 4c 13 be ef 32 b8 3d
       -0.07260463 0.17635365 -0.14384781 0.0899409
0003e0 1b 3c 45 3d 38 51 08 be 4a 62 b4 3d 8e 71 8d 3d
       0.048153024 -0.13312232 0.0880781 0.069064245
0003f0 7b be 08 be a1 f1 1a 3d 39 1b 6d bd ab 09 52 3e
       -0.13353913 0.03782809 -0.05788729 0.205115

model.0.bias f4 [64]
000000 c6 4e ea bd 56 87 41 be 7a e5 6b bd 98 5d 81 3b
       -0.11440806 -0.18899283 -0.057591893 0.003947925
000010 bb da ab bd 5c ba 5e bc e2 6f c7 3b cc 07 20 3d
       -0.08391329 -0.013594236 0.0060863355 0.039069936
000020 02 d9 2e bd f1 51 ca bd e6 26 81 ba de 60 21 3d
       -0.042687424 -0.0987891 -0.0009853512 0.03939902
000030 fa af d5 bc f6 50 84 bd 67 fa d6 3d 6d 24 59 be
       -0.026084889 -0.064607546 0.10496979 -0.21205302
000040 19 42 18 be 28 e0 eb bd 78 ea 18 be 18 09 35 bb
       -0.14868964 -0.11517364 -0.14933193 -0.0027623829
000050 5f 79 f0 3c 12 f8 e2 39 14 5c 50 bd 28 1b d5 3d
       0.02935475 0.00043290906 -0.050869063 0.1040557
000060 ec 4b 1f be 0c 08 ed 3c 05 e7 80 3d d8 63 83 ba
       -0.15556306 0.028934501 0.062940635 -0.0010024263
000070 bb 64 3c 3d 46 7e dc 3d 45 53 00 3e 5c 1f 29 bd
       0.0459945 0.10766272 0.12531765 -0.041289672
000080 d7 e0 1d be 6d 2c a4 b9 42 a6 1f be 52 00 91 3d
       -0.15417801 -0.00031313617 -0.15590766 0.07080139
000090 7c 38 cb bd bc 12 1d bd 72 e0 60 bd 1a 00 a9 bd
       -0.09922883 -0.038347945 -0.054901548 -0.082519725
0000a0 c2 e3 19 3d 83 4b d8 3d 08 56 d1 bd d4 9b 2b bd
       0.037570722 0.10561278 -0.10221487 -0.041896656
0000b0 91 55 ae 3d 18 fb c1 3d 60 93 a3 3d 95 45 57 3a
       0.08512414 0.094717205 0.07987094 0.00082119677
0000c0 ff 1f 1c be 61 ef 52 be da 07 86 bd 94 b5 af 3c
       -0.1524658 -0.20599128 -0.06544466 0.021448888
0000d0 5e 9e be 3b 87 7f b9 3a ab 31 0d 3d de 60 db bd
       0.0058172187 0.0014152386 0.034471195 -0.10711835
0000e0 29 d5 47 be 10 e0 e5 b9 94 1d 55 be 9e 71 fb bb
       -0.19514908 -0.00043845223 -0.20812064 -0.0076734563
0000f0 a3 f1 36 bd 1a bd 87 bd 30 0c f2 3d 6f ae ff bd
       -0.044664036 -0.06627865 0.11818731 -0.124844424

model.2.weight f4 [128, 64, 3, 3]
000000 75 5b 7a 3c 00 e3 76 bc c8 cf 38 bd ae 6e a4 bc
       0.015280594 -0.015068769 -0.04512003 -0.020072307
000010 a6 8c c5 bc 61 ed d1 bc fb 76 46 bc 0f 4c 07 bd
       -0.024114918 -0.025625886 -0.012113328 -0.03303152
000020 c0 44 c6 3b 73 63 2a bd b1 1a 49 3c 25 45 ae 3c
       0.006050676 -0.04159875 0.01227443 0.021273205
000030 1e 7a b3 3b 8d de 23 3c 8e 00 2c 3c b6 78 6a 3c
       0.005477204 0.010001791 0.010498179 0.014311006
000040 3a 61 ef 3c da 8b bd 3c 14 41 86 3c ce 31 17 3d
       0.029221166 0.023137975 0.016388454 0.03691273
000050 25 77 15 bd 18 ae ca 3c 6f ea b8 3c 4e 2b b2 bb
       -0.03649058 0.024741217 0.022572724 -0.005437291
000060 ef 57 a4 bc 05 25 c6 bb b1 f7 e6 3b fd 9e a8 bc
       -0.020061461 -0.0060468935 0.00704857 -0.020583624
000070 f1 eb 04 bd d7 c1 03 bc 73 db c0 ba 65 b8 0d bd
       -0.032451574 -0.0080418205 -0.0014713838 -0.03459968
000080 0d 69 07 3c 4c d3 c8 3c f7 9a 73 3c b4 a4 91 bc
       0.008264792 0.024514817 0.0148684895 -0.017778732
000090 ed 55 d2 bc 15 a8 34 bb 24 ba 59 bd 05 d5 5a bb
       -0.025675738 -0.0027566005 -0.053156033 -0.003339113
0000a0 5e 48 50 bd 98 ba 70 bd 69 48 a2 3c 2e c5 3b 39
       -0.050850265 -0.0587717 0.019809918 0.00017907165
0000b0 f5 64 b6 3c 5e 63 1f 3d b1 46 29 3d 38 89 ee bc
       0.022264937 0.038913123 0.041327182 -0.029118165
0000c0 52 e8 27 3d b2 fc d2 bc 1e bf 05 bc 8b 5c a2 3b
       0.040993042 -0.02575526 -0.008163242 0.0049548796
0000d0 72 63 2a bc 2e 11 7b 3c e5 ae 22 3d b5 8e 40 3c
       -0.010399686 0.01532392 0.039717574 0.011752774
0000e0 7c 97 4b 3d cf 78 1f 3d a0 7e 75 bc 29 06 b1 bc
       0.049705014 0.03893357 -0.014983803 -0.021609383
0000f0 96 66 c5 3c aa 65 4e bc 95 48 00 3d 53 6d 5c 3b
       0.024096768 -0.012597481 0.03131922 0.0033634498
000100 dc 63 bd bc 5d 02 e1 bc ff 73 e4 3c a0 6f d0 bb
       -0.023118906 -0.027466947 0.027887342 -0.006360963
000110 37 98 b9 3c 4d 01 6a 3c b2 49 04 bd e9 b5 08 3c
       0.02265559 0.014282537 -0.032296844 0.008344152
000120 9d e2 dc bc c2 0e 8f 3b 42 ea 3f bc a4 9a a3 3c
       -0.026963526 0.004365773 -0.011713566 0.0199712
000130 51 34 df 3c 27 74 6f bc b0 fc d9 3c 52 79 5f bc
       0.027246626 -0.014615095 0.026609749 -0.013639765
000140 74 dd 8c ba 0c 76 89 3c 79 51 61 bd fa 66 f7 bc
       -0.001074715 0.016779922 -0.05500934 -0.03020047
000150 fe 38 a2 ba 4c 7f 63 bd 7e 87 a4 bc 2f 89 32 bd
       -0.0012376604 -0.05554132 -0.020084139 -0.04358786
000160 d0 65 cb bc 64 5c 10 bd 6a 2f d7 bc 98 ab 8c bd
       -0.024828821 -0.03524436 -0.026267726 -0.068686664
000170 a2 ec ca bc 82 4d 61 bd a2 9a ff bc 49 c8 16 bd
       -0.024771038 -0.055005558 -0.031201664 -0.0368121
000180 d7 fe 49 bd 59 ad 68 bc 81 3c ff bc 2c 93 37 bc
       -0.0493153 -0.014201486 -0.03115678 -0.011204522
000190 b5 97 99 bc 4f e0 ad bc ee cf 1b bb f4 fb 50 bd
       -0.018749097 -0.021225123 -0.0023775059 -0.05102153
0001a0 1c 90 59 bd 58 63 c8 bc ad c4 fa bc 3c b5 06 bd
       -0.05311595 -0.024461433 -0.03061136 -0.032887682
0001b0 72 ec 8e 3b a7 21 4a 3c f8 90 95 bb 38 a5 82 3c
       0.0043616826 0.012337125 -0.0045644008 0.015947923
0001c0 73 18 8e bc af b2 85 bb ee 8f 02 bc 7a 34 96 bc
       -0.017345643 -0.0040801386 -0.007968886 -0.01833557
0001d0 42 19 42 3c 88 2b 47 3c 9b 03 1e 3c cf 91 36 bd
       0.011846842 0.012156375 0.009644414 -0.044572648
0001e0 d7 dc 85 3c bc 65 31 3b ca f0 01 bd 3c 68 95 3b
       0.016340656 0.0027068695 -0.031723775 0.004559545
0001f0 eb 37 a7 bc e7 ea 5f bd ee 19 37 3d 76 c6 08 bd
       -0.020412406 -0.05466738 0.044702463 -0.033392392
000200 80 25 89 bc e2 cf a8 3c 10 f8 a3 39 43 e4 42 3b
       -0.016741514 0.020606939 0.00031274604 0.0029738105
000210 e1 1b eb bc 25 97 0f bd 40 91 a2 3b 0c 88 63 bc
       -0.028699817 -0.035056252 0.004961163 -0.013887417
000220 41 bb 6c 3c 20 32 d1 3c 36 5d 4a bc b2 4a 24 3c
       0.014448942 0.025536597 -0.012351325 0.010027574
000230 c0 a5 04 bd c0 6e a9 3c 80 7e d5 3c 80 3a 24 3c
       -0.032384634 0.020682693 0.026061296 0.010023713
000240 26 2c 2f bc 63 f7 14 bd 77 55 33 bc 6f 3b 3b 3c
       -0.010691678 -0.03636874 -0.010945669 0.011427744
000250 b0 bf d3 3c 5a b0 8a 3b 94 6d bf bc fa f6 49 bd
       0.02584824 0.0042324485 -0.02336768 -0.0493078
000260 de 1e 99 3b 4b ba 3c bb b9 90 b5 bc fc e7 a7 bc
       0.004672869 -0.0028797563 -0.022163736 -0.020496361
000270 96 34 f8 bc 96 a1 9e bc e0 62 78 3c 56 66 b1 3a
       -0.030298512 -0.01936416 0.015160292 0.0013534527
000280 00 de 5a 3b 1a f4 05 3d 6f 3f 15 bb 96 8c e6 bc
       0.0033396482 0.032703497 -0.0022773405 -0.028143208
000290 53 23 0b ba 43 41 74 3c 17 a3 25 bd db f2 11 3c
       -0.0005307693 0.014908138 -0.040438738 0.008907999
0002a0 47 8d 20 3c 6a 0e 70 3c 68 9f 0f bd b1 d1 f9 3c
       0.009799308 0.014651874 -0.03506413 0.030495496
0002b0 a2 91 08 3d 0d 11 d7 3c 9e 2b 12 bd 82 88 8c 3c
       0.03334201 0.026253248 -0.035686128 0.017154936
0002c0 22 8e 39 3d 19 a4 13 3c 17 54 cb bc 43 5c fc bb
       0.045301564 0.009011292 -0.02482037 -0.007701428
0002d0 b7 cb 04 bd 8e cf 35 bd 2a 39 f1 3c dc 70 bf 3c
       -0.03242084 -0.044387393 0.029446203 0.023369245
0002e0 80 4b 0c 3d 4f 07 c9 bc 04 cc 0d bd 9b 72 e5 3a
       0.03425169 -0.024539618 -0.034618393 0.0017505469
0002f0 ba c8 00 3d 5d 9e 1d 3d 35 3f dc bb b4 22 54 3b
       0.031441428 0.038481105 -0.006721402 0.0032369317
000300 43 e9 02 3d 44 5d d6 ba c6 16 53 3d 0e 61 10 3d
       0.031960737 -0.00163547 0.05153539 0.03524881
000310 ec e4 f5 bb 4b 1c 20 3d 2c 48 17 bd f5 74 be bb
       -0.0075040963 0.039089482 -0.036934063 -0.005812282
000320 2e 01 30 bc e7 74 b0 3c 37 2a 28 3c 14 8a 11 3d
       -0.010742469 0.021540118 0.010263971 0.035532072
000330 b7 8e 0d bd 8b 96 00 bc 24 77 c1 3a b3 aa 84 bc
       -0.03455993 -0.007848392 0.0014760238 -0.016194677
000340 69 73 77 bc b7 dc ed 39 19 2c da 3b b8 58 d8 bb
       -0.0151031995 0.00045368608 0.006658089 -0.006602373
000350 a0 cc bb 3b 34 2a 11 bc a1 ec 9c bb 25 9a 41 bd
       0.0057311803 -0.00886016 -0.0047889506 -0.047266144
000360 6b 58 3b bd e2 a3 57 bb 88 48 08 bc a6 29 9b bc
       -0.04573862 -0.0032904078 -0.008318074 -0.018940758
000370 52 9f 1b bd e2 14 c6 bc 66 64 08 bc 7f 69 68 3b
       -0.037993737 -0.02417988 -0.008324718 0.0035463271
000380 52 08 18 bc 99 d7 0a 3d 49 3e 2a 3c 5e b6 1e bd
       -0.0092793275 0.033897016 0.0103908265 -0.038748138
000390 59 7b f5 3b 9b 97 64 3c 8c ed f8 bc a5 3e 94 3c
       0.007491511 0.013952161 -0.030386709 0.018096277
0003a0 10 f6 cd 3c 00 c9 29 3d 33 79 e9 bc 36 ea 75 bc
       0.025141746 0.041451454 -0.028500175 -0.0150094535
0003b0 43 98 e4 3c 7b 61 1d bb fb fa c8 3c 4a 2a 6e bc
       0.027904635 -0.0024014402 0.02453374 -0.01453645
0003c0 e8 69 21 bd 12 56 02 bd a9 b9 cc 3c ad e2 4c 3d
       -0.03940764 -0.031820364 0.024990873 0.050020862
0003d0 d5 33 9c 3c bb 60 89 3c 41 f3 53 3c 8a 95 02 3d
       0.019067684 0.016769757 0.012936414 0.031880893
0003e0 25 4f e2 3b 93 70 9f 3d 8c 71 97 3c 1f 75 72 3c
       0.0069064074 0.07785144 0.01848676 0.014798432
0003f0 6d a0 27 bc a9 fa d4 3c 65 24 14 bc ff d3 a5 3c
       -0.01023112 0.02599843 -0.00904188 0.02024269

model.2.bias f4 [128]
000000 93 de 77 bc 56 29 a4 ba a4 7a 8d bb 0d 67 81 bb
       -0.015128749 -0.0012524526 -0.0043175984 -0.003949052
000010 b2 f2 de bc ae 74 e9 bc 08 4b 0c bb 1d 00 24 bd
       -0.027215336 -0.02849802 -0.0021407027 -0.04003917
000020 a0 07 a0 bb 0e 85 3a bc a1 e3 ed 3c ea fd ea bb
       -0.0048837215 -0.011384262 0.029039206 -0.007171382
000030 a6 a5 f6 ba d8 95 99 bb b5 d0 2d 3c 2c e4 71 bb
       -0.0018817678 -0.004687052 0.010608842 -0.0036909683
000040 8a bf a3 bc 4a b3 9b bc 5f 2f 58 bc 66 63 ad bc
       -0.019988794 -0.01900639 -0.013194888 -0.02116556
000050 0e d4 db bc 76 75 0d bc 9c e3 0c 3c 9b c0 9f ba
       -0.026834514 -0.008633962 0.008599188 -0.0012188138
000060 58 7f 62 3d 1a 11 1d bb 88 86 c3 3c 58 2c eb ba
       0.055297226 -0.0023966492 0.02386786 -0.0017942293
000070 cc b7 7d bb 67 28 c6 3c 07 f0 39 bd b6 ac 27 bb
       -0.0038714288 0.024189187 -0.045394924 -0.0025585121
000080 79 a9 26 bc 83 5d 19 bc c3 7f 25 bd e4 12 39 ba
       -0.010172241 -0.009360674 -0.040405046 -0.0007060005
000090 35 5d 06 bb f7 21 44 bc d9 4c 6a ba 12 66 c0 bc
       -0.0020502333 -0.0119709885 -0.0008937843 -0.02348617
0000a0 15 b7 12 3d 17 60 6c bb f5 bb cf ba 9e f4 e2 b9
       0.035819132 -0.0036068016 -0.0015848862 -0.00043288333
0000b0 4e 69 01 bd e4 82 35 bb f9 65 08 bd 9e 49 0f bd
       -0.031594567 -0.0027696425 -0.033300374 -0.034982316
0000c0 7d 88 ae bb 8f fd f9 b9 11 52 09 bd 07 d6 89 bb
       -0.0053263293 -0.00047681897 -0.03352553 -0.0042064223
0000d0 c8 1e 0c bd c2 01 90 bc c2 79 a5 bc 9a 3e 3b 3c
       -0.034209043 -0.017578963 -0.02019966 0.0114285
0000e0 4e fe 12 bb fa 82 b4 3c c9 8e 1a bd 44 e8 a5 bb
       -0.002242941 0.02203511 -0.037733827 -0.0050630886
0000f0 5a 0e 01 bd e6 57 0d 3d ca 6d 0a 3c c0 eb e7 bc
       -0.031507827 0.034507655 0.008449027 -0.028310657
000100 76 ce ae 3c 4f b6 41 3d d7 36 36 bd f2 9d 32 ba
       0.021338683 0.047293004 -0.044485893 -0.0006813697
000110 79 d3 80 3c d9 83 81 ba 4b 7d b1 3b 97 b6 27 bc
       0.015725838 -0.0009881213 0.0054165474 -0.010236404
000120 e3 63 30 bd 67 1d 40 bb c8 69 bd 3c b5 29 e1 bb
       -0.04306401 -0.00293144 0.02312173 -0.006871427
000130 62 44 41 ba 51 69 fd bb 1c 9e 2a bd ac a0 5a bc
       -0.00073725556 -0.007733502 -0.04165469 -0.013343971
000140 f9 61 9d bc d9 ad ef ba a2 10 d0 bc 57 1f 83 3c
       -0.019211756 -0.0018286064 -0.025398556 0.016006155
000150 7a a7 0c bb d5 8e bc bc d5 3d 69 bb 35 7b 0b 3d
       -0.0021462128 -0.023017326 -0.0035589833 0.034053046
000160 c5 0c c1 3b ae f9 bf ba 84 4e 90 3c 41 f2 28 bd
       0.005891415 -0.0014646554 0.017615564 -0.041246656
000170 8b da 14 bc 45 3f 8e bc bf ef 5b ba 26 48 a0 bc
       -0.009085308 -0.017364154 -0.0008389912 -0.019565653
000180 19 13 82 bb b9 06 8f bc 34 c3 66 3c 03 39 8a bc
       -0.003969562 -0.01745926 0.014084626 -0.016872888
000190 6d c6 22 bc 94 16 b4 ba 81 14 49 bb ea e5 9b ba
       -0.009935004 -0.0013739639 -0.0030682387 -0.0011894081
0001a0 57 b6 97 bc 20 96 09 bd a5 e4 45 bb d9 6f 55 bc
       -0.018519564 -0.033590436 -0.0030196097 -0.013027155
0001b0 4e c9 5f 3c bf b3 9f bc c7 45 e1 bc 3d 24 30 bb
       0.013658835 -0.01949489 -0.027499093 -0.0026877068
0001c0 bc 5b 03 bd 61 92 57 bc 32 1c fc bc db bc c3 bc
       -0.032069907 -0.013157458 -0.030775163 -0.023893764
0001d0 6d 79 9a ba 71 cc 2c 3d 97 9f 32 3d f4 81 0e bc
       -0.0011785455 0.042187158 0.043609228 -0.008697975
0001e0 72 a2 99 bc 9b 0a 7d bc cf 7c 03 bd 4d ab 73 bb
       -0.018754218 -0.015444423 -0.03210145 -0.003718096
0001f0 d5 fb 84 bb 35 66 73 3d 55 74 28 3d 0c 82 ed ba
       -0.004058341 0.059423644 0.041126568 -0.0018120422

model.4.weight f4 [64, 128, 3, 3]
000000 a7 70 00 bd e3 e6 71 bc 8a 0a 0d bb aa 0c 1c 3c
       -0.031357434 -0.01476452 -0.0021521174 0.009524504
000010 f7 ec 01 bd 24 ca e0 3b 9a 9c d6 bc e4 9f 85 bc
       -0.031720128 0.0068600345 -0.02619772 -0.016311593
000020 36 59 88 3a 94 12 1d 3d e5 b8 5a 3c fa 04 97 bb
       0.0010402563 0.038347796 0.013349746 -0.0046087475
000030 3d 12 21 3c 5a 30 fb 3c b8 8e 88 3b 27 21 0a 3d
       0.0098310085 0.030662704 0.004167404 0.033723023
000040 80 ff 92 bb 37 d3 e6 3b 65 8f 12 bc bc b3 f0 bc
       -0.0044860244 0.0070442217 -0.008945321 -0.029382579
000050 5c ab ce 3c 8a 8b f5 bc 3a a9 38 3c e4 97 47 3c
       0.025228195 -0.029973764 0.0112708155 0.01218221
000060 dc f7 7c 3c 23 c1 ba 3c 0b ea c9 bc f6 59 61 3c
       0.015439954 0.022797173 -0.024647733 0.0137543585
000070 83 2e 90 3c 0e 92 bb bb 8d d1 03 3d bd 4a bc 3c
       0.017600304 -0.005724198 0.032182265 0.022984857
000080 f0 3c b0 3c 14 d3 ac ba 8d 1a 09 3d 15 5c 98 3c
       0.021513432 -0.0013185465 0.033472586 0.018598596
000090 83 e0 01 3d 1e 24 ba 3c b0 15 42 3c 10 9a 5d bb
       0.03170825 0.0227223 0.011845991 -0.0033813752
0000a0 6c c0 bf 3c 49 e1 b0 3c 04 cc 0e 3d 50 12 01 3d
       0.023407184 0.0215918 0.034862533 0.031511605
0000b0 0f 7a c7 3b c9 f4 0d 3c 52 2b b3 3b 1c a9 fd bc
       0.0060875486 0.008664318 0.0054678107 -0.030964427
0000c0 62 61 9e 3c e5 6f 1f 3c 36 d6 90 3b c0 96 bf 3c
       0.019333545 0.009731268 0.004420067 0.023387313
0000d0 39 84 f7 bc 2e 58 a8 bc 21 6e 54 3b 9a fd 91 3c
       -0.030214416 -0.02054986 0.0032414275 0.017821122
0000e0 c9 24 58 bc ef 2b eb 3b 91 80 85 bc b3 e1 84 3a
       -0.013192364 0.007176868 -0.016296657 0.0010138064
0000f0 58 f7 7e 3c a5 90 a7 bc 7f 55 bf 3c 16 e0 da bc
       0.015561901 -0.020454714 0.023356197 -0.02671818
000100 32 06 e2 ba 70 b2 ff bc 81 07 5d bc ea 6b 2b bc
       -0.0017244278 -0.031213015 -0.013490559 -0.01046274
000110 c9 ea a5 bb f6 0b 17 bb 53 3d ae bc 97 f6 ed bc
       -0.005063389 -0.00230479 -0.021269476 -0.029048247
000120 81 79 30 bb 74 58 e0 3c 89 19 12 3d 38 b5 86 bc
       -0.002692789 0.027385928 0.035668883 -0.016443834
000130 54 13 7c 3c 20 26 99 3c 93 a4 82 bc b2 a8 14 3d
       0.015385468 0.018694937 -0.015947616 0.036293693
000140 a6 99 f8 3c 74 54 59 3c 0f ca 23 3c 02 a0 ba 3c
       0.030346703 0.013264764 0.009996905 0.022781376
000150 89 22 56 bc 77 70 68 bc ba e4 03 3d 01 fe 15 3d
       -0.013069757 -0.01418697 0.032200553 0.03661919
000160 7c eb 10 3c 1f 3d 15 3c c8 9d ad bb aa ba 1e bd
       0.008845206 0.009108811 -0.00529835 -0.038752235
000170 e6 61 93 bc d8 96 aa bc 0f 02 c8 bb 22 35 e7 3a
       -0.017991018 -0.020823881 -0.006103761 0.0017639736
000180 a7 26 f0 bc 03 18 98 bc 0e fa 1e bd ac c3 1e bd
       -0.029315306 -0.018566137 -0.03881269 -0.038760826
000190 d5 a6 b5 bb 3b 92 0d bd 04 c1 39 3c 61 ce ba bb
       -0.0055435696 -0.034563284 0.011337522 -0.005700872
0001a0 78 71 85 3a 81 fa 0f bc da 34 ba 3b 7f 0b b8 bc
       0.0010180911 -0.008787752 0.00568257 -0.02246642
0001b0 f9 d3 91 bc 24 b2 94 bb 8c d2 30 bc 47 50 b1 3c
       -0.017801272 -0.0045378376 -0.010792386 0.021644725
0001c0 0f ed bd 3c f5 64 55 bc fc 40 18 3d 42 6d bf 3c
       0.023184327 -0.013024558 0.03717135 0.023367528
0001d0 25 f9 0a 3d 65 20 19 3d 67 c1 63 3b 6c e1 03 3d
       0.03392901 0.03738441 0.0034752728 0.0321974
0001e0 1b 6b d5 3c e4 bf cd 3b 13 17 05 bc fe 38 69 bc
       0.026052048 0.0062789787 -0.008123177 -0.014234779
0001f0 87 0d 12 3d 17 15 05 bc e7 df 79 3c 7a 48 ab bc
       0.035657432 -0.008122704 0.015251136 -0.020908583
000200 48 61 9f bc aa e2 a7 bc 00 49 15 3c b9 3f 38 bc
       -0.019455567 -0.020493824 0.009111643 -0.011245661
000210 71 14 96 bc 6b 42 2e bc a4 aa c7 3c 23 c5 18 bb
       -0.018320294 -0.010635952 0.02437336 -0.0023310862
000220 c6 e4 1d 3d d7 9c af 3c d2 1c 7a 3c 27 94 5b 3c
       0.038548253 0.021437092 0.01526566 0.0134020215
000230 94 4e b1 3c 63 17 b3 bb 69 41 0a bc 8b dd 24 3d
       0.021643914 -0.0054654344 -0.008438447 0.040250342
000240 af 11 88 3c be fb 07 bd 43 34 0d bd c9 fc 51 3c
       0.016609995 -0.033199064 -0.03447367 0.012816616
000250 c6 73 3b bc 13 2e 11 bd 22 13 ed bc e5 fd f9 bc
       -0.011441177 -0.03544433 -0.028939787 -0.030516574
000260 c1 ac d5 3a 0a 6f 1b bc 36 c4 38 3c bf 1e 18 bb
       0.0016302095 -0.009486923 0.011277249 -0.0023211685
000270 57 80 e7 3c b2 ed b0 bc 7c 26 8d bc 68 1b cc bb
       0.02825944 -0.021597717 -0.017230265 -0.006228853
000280 b3 96 1d 3c 4f f3 9a 3c 6c 24 6f bc e8 ed ba 3c
       0.009618449 0.018914847 -0.014596086 0.02281852
000290 c5 4e 08 3d 83 4a 4c 3c 37 30 9f 3c 7c 40 da 3c
       0.033278245 0.012468937 0.01943217 0.026642077
0002a0 a0 83 27 3c c3 96 0d 3d 09 30 cc bb c4 42 d4 3b
       0.010224253 0.034567606 -0.006231312 0.0064776856
0002b0 11 c8 61 3c d5 6c 1c 3d 6f 96 a5 3b 0e e9 c8 bb
       0.01378061 0.038189728 0.0050533335 -0.006131298
0002c0 f5 31 f4 3c 26 6f bf 3c e7 cb 52 3b 03 30 de 3c
       0.029808978 0.02336843 0.0032164992 0.027122503
0002d0 31 17 cf bc 7b b5 04 bc 2f 4d 19 3b 0c 20 4b 3c
       -0.025279613 -0.008099909 0.0023391952 0.012397777
0002e0 54 08 4b bc 20 e5 9c bc 8c 43 34 bc a0 23 f9 3a
       -0.012392122 -0.019152224 -0.011002433 0.001900781
0002f0 26 90 15 bd 19 d2 b4 3b d8 2c 1b bb b8 53 72 3c
       -0.036514424 0.0055182097 -0.0023677852 0.014790468
000300 e2 8d 75 bc ea 32 f7 3c 8b 0f 23 bc 63 6e 27 bb
       -0.014987441 0.030175645 -0.009952436 -0.0025547973
000310 f0 64 75 bb c5 a9 c3 bc a8 b7 0a 3d b6 c0 0a 3d
       -0.0037444197 -0.023884663 0.033866554 0.03387519
000320 d3 7e 43 bc fb 71 b9 bb 96 01 4f 3c e4 7e 69 3c
       -0.011932093 -0.0056593395 0.012634655 0.0142514445
000330 6e 93 93 3a c2 d1 28 bc 8e 0f ef 3c 7e 13 1e 3d
       0.0011259147 -0.010303916 0.029182222 0.038592808
000340 d3 4e a9 3c 5d 60 be 3c 28 af 17 3d 8e 73 63 bb
       0.02066747 0.023239309 0.037032276 -0.0034706327
000350 f5 ff 6f 3c 43 d5 0e bc 5c 82 99 3b 54 57 1d 3c
       0.014648427 -0.008717838 0.0046847295 0.00960334
000360 42 34 90 3d 66 b9 2e 3d 7c 7d 56 3d 4e 40 7f 3d
       0.070412174 0.04265728 0.052365765 0.062317185
000370 c1 46 2e 3d b9 80 52 3d 9e d5 a2 3c 4a 3d 8e 3d
       0.042547945 0.05139229 0.019877251 0.06945284
000380 e6 8c 54 3d bf 64 10 bd 16 dc 17 bd 6c 51 6d bd
       0.051892184 -0.03525233 -0.037075125 -0.057938978
000390 2c fb 3f bd 2a ae ac bc 84 70 4f bd c3 56 14 bd
       -0.046870396 -0.021079142 -0.050644413 -0.036215555
0003a0 bd eb 1d bc e0 52 0a bc 43 be 83 bd 22 4d 16 bd
       -0.009638724 -0.0084426105 -0.06432774 -0.036694653
0003b0 d8 31 c9 bc 78 5e b9 bc 08 82 81 bd 20 68 59 bc
       -0.0245599 -0.022628054 -0.063236296 -0.013269454
0003c0 71 f8 89 bc aa 92 0f bc 14 79 28 bd 32 77 70 bd
       -0.016842099 -0.008762995 -0.041131094 -0.058707424
0003d0 43 d8 60 bd 19 86 50 bd 59 9a 8b bc 66 95 55 bd
       -0.054893743 -0.050909135 -0.017041372 -0.05214443
0003e0 fe 46 49 bd c2 92 90 bd 58 2e 35 bd 97 3d 0c bd
       -0.04913997 -0.07059242 -0.04423365 -0.034238424
0003f0 75 af 6e bb b4 aa b5 3c d9 b7 71 3c 24 e4 fb bb
       -0.0036420499 0.022176124 0.014753305 -0.0076871086

model.4.bias f4 [64]
000000 3d 38 3a bc 1d 04 cb bc a9 ca b6 3b 1d 24 f7 3a
       -0.011365947 -0.024782235 0.005578358 0.0018855367
000010 e1 68 34 3b ce 5f 90 bc 7b 0f db bc f4 9e 1f bc
       0.0027528333 -0.017623808 -0.02674078 -0.009742487
000020 65 a7 4a bd 3b ec 62 bc 24 6f 07 3c 7d e3 b8 bb
       -0.049476046 -0.013850267 0.008266244 -0.005642353
000030 9c 37 38 3c 16 e7 12 bc b1 d6 2c 3d 57 c9 7a bc
       0.011243727 -0.008966228 0.042196933 -0.015306792
000040 42 2d 25 bc b0 34 d1 bc fa c9 1a 3c 1e 6f c4 bc
       -0.010081591 -0.025537819 0.009447569 -0.023978766
000050 1d 7b d1 3b 37 c3 bf bc d3 14 be 3c 2a 36 e7 bc
       0.00639285 -0.023408515 0.02320329 -0.02822407
000060 5f 17 e7 3c 03 4c 3d 3b 16 cb 88 bc 6e c1 91 bc
       0.028209386 0.0028884418 -0.016698401 -0.01779243
000070 ce 96 e7 3c 53 9c c0 3c fa 51 72 bc 0c 84 3e bc
       0.028270151 0.023512041 -0.014790053 -0.011628162
000080 29 d8 85 3c 86 9c a9 3c d6 f7 68 bb ef 4b 08 3d
       0.016338425 0.020704519 -0.0035548112 0.03327554
000090 cd c1 02 3d a2 f1 a9 3c 33 ea 8d bc 8f ee b7 3c
       0.031923104 0.020745102 -0.017323589 0.02245262
0000a0 04 2a 96 3d 13 67 ca bb 7e fc 5b 3c 47 41 ee 3a
       0.073322326 -0.006176838 0.013426898 0.0018177413
0000b0 6b 0d 26 3d bf 83 91 bc 37 6e bc 3b 7d 98 b6 3c
       0.04054014 -0.017763017 0.0057504433 0.022289509
0000c0 3f 10 1c bb d0 0d 0d bd 66 f0 2c 3c 72 75 c8 bc
       -0.0023813394 -0.034437 0.010555362 -0.024470065
0000d0 b0 69 de 3c fe be 2a bd 83 91 79 3c 3c 29 92 bc
       0.027150005 -0.04168605 0.015232447 -0.017841928
0000e0 22 a9 47 bc 35 1e 6c 3c 6c 28 2b bd 37 16 07 3c
       -0.0121863205 0.014411499 -0.041786596 0.0082450425
0000f0 9a 8d 12 bb e0 b3 39 bd e8 e4 e5 3c cf c4 f6 bb
       -0.0022362233 -0.045337558 0.028063253 -0.0075307856

model.6.weight f4 [3, 64, 3, 3]
000000 cc a3 e9 3c fd fe 92 3c 7b 6d a6 3c e3 b0 2a bd
       0.028520487 0.017943854 0.020315876 -0.0416726
000010 76 6f 1b bd 12 25 b5 bc 18 b6 9d bc a9 13 c0 bb
       -0.037948094 -0.022112403 -0.019251868 -0.0058617187
000020 55 62 22 3c ac 25 d4 3c b4 32 05 3d ea 21 b6 bb
       0.0099111395 0.02589687 0.032519057 -0.005558242
000030 20 df b9 3b 35 ae 18 3c 23 c9 97 3c 5e 5a d6 bb
       0.0056723505 0.009318878 0.018528527 -0.0065415343
000040 b6 e3 1f 3d dc 1c fa 3b 6c c0 14 bd 10 59 8b bc
       0.03903552 0.007632835 -0.03631632 -0.017010242
000050 b0 56 1c bd 61 09 77 bc 51 f7 45 3c b8 a4 db ba
       -0.03816861 -0.01507792 0.012082891 -0.0016757464
000060 93 fe 97 3c 1e 69 0b bd a2 db 56 bc 0f 68 a4 bc
       0.018554008 -0.034035794 -0.013113888 -0.02006915
000070 d2 b6 37 bd 0b 6b 9a 3c 47 30 0e 3c a4 e3 23 bd
       -0.044852085 0.01884987 0.008678502 -0.040012017
000080 fa 27 e8 3b 09 80 c3 3a 0d 90 2a bd e8 3e 34 bd
       0.0070848437 0.0014915477 -0.041641284 -0.044005305
000090 c0 30 f0 39 70 d8 b2 bc 04 ea c6 3c 37 f9 f0 bc
       0.0004581269 -0.021831721 0.02428151 -0.02941571
0000a0 7a 47 f4 bc 28 1e 01 bd 0c b8 48 bd a7 f7 38 bd
       -0.029819239 -0.0315229 -0.049003646 -0.045158055
0000b0 50 a2 0f bd 12 71 0f 3d 13 b5 28 3d 2d b9 2d 3b
       -0.035066903 0.03501994 0.04118831 0.0026508078
0000c0 88 58 1b 3d f2 57 0c bb 99 72 24 bc 31 f6 e8 3c
       0.037926227 -0.0021414724 -0.010037088 0.028437706
0000d0 7e 33 e5 3b 90 f8 04 3c cb 55 57 3c 72 b0 17 3d
       0.0069946637 0.008115903 0.013143013 0.037033506
0000e0 40 4a 79 3c 42 d7 00 bc 9b f6 ca bc 88 ae 42 bc
       0.0152154565 -0.007863821 -0.024775794 -0.011882432
0000f0 89 17 53 3c 2f 0c 35 bc ff 27 11 3d af a9 bb bb
       0.012884029 -0.011050268 0.035438534 -0.005727015
000100 6e 87 3b 3d b1 09 63 3c ad d7 31 3d 07 44 16 3d
       0.045783453 0.013857291 0.043418575 0.03668597
000110 ef cd d5 3c b9 88 af bc f9 ed 33 3b 54 ed 27 3d
       0.026099173 -0.0214275 0.0027455075 0.040997818
000120 dc 97 9c 3c 28 38 48 bb 3c 36 dc bc c0 64 fb bc
       0.019115381 -0.003055105 -0.02688133 -0.03068769
000130 6b 09 11 3d ae 74 52 3b b6 8e e4 3c 72 41 8b 3c
       0.035409372 0.0032113004 0.027900081 0.01699898
000140 cf e4 1c 3d 9e 75 14 3d 51 a2 4f 3d e5 9c 1a bc
       0.038304146 0.03624498 0.050691906 -0.009436821
000150 f5 6c 5b 3c 7f 09 b4 3c 35 50 52 3c 56 f9 ce ba
       0.013392677 0.021977184 0.012836506 -0.0015790861
000160 75 06 a0 3c f4 2a 55 39 b9 e6 ea 3c 4c 03 ae bc
       0.019534329 0.00020329264 0.02867447 -0.021241806
000170 9b b2 f8 bc 8b 61 91 3c 3c 27 2d 3c 8f fa 10 3c
       -0.030358603 0.017746707 0.010568436 0.0088488
000180 d5 1a ed 3c db 88 d6 bc e7 d6 63 bc c1 e8 c2 bc
       0.028943459 -0.026188305 -0.013906217 -0.023792626
000190 4d db e0 3c 5d 04 c4 3c c5 29 11 3c 21 0f 46 ba
       0.02744832 0.023927862 0.008860056 -0.0007555355
0001a0 51 e5 06 bd b9 d7 b6 3b b7 35 53 3a 40 1e 21 bc
       -0.032933537 0.0055799154 0.00080570154 -0.009833872
0001b0 6f 27 36 bc db 46 b2 3c ba 23 a2 bc bd bb ba 3c
       -0.0111178 0.021762302 -0.019792426 0.022794599
0001c0 88 bc f8 bb 45 63 58 bc d2 57 3f bd 2b 9a 03 bb
       -0.007590834 -0.013207261 -0.04671461 -0.0020080905
0001d0 68 dd f4 3c dd 17 97 3c ac 87 30 3d 1c f1 20 bc
       0.029890731 0.018443996 0.043098137 -0.00982311
0001e0 2c 7d eb bb a7 c3 11 3d ce ef 2e 3c 3a e4 42 3c
       -0.0071865525 0.03558698 0.010677291 0.011895234
0001f0 7a 16 04 3d 0b 52 6d 3d 1e eb 03 3d 97 de 3d 3d
       0.032247998 0.05793957 0.032206647 0.046354856
000200 3d 66 5d 3d bb 3c 5a 3d 5d 62 c3 3c c0 61 a5 3c
       0.05405258 0.053280573 0.023850614 0.020188212
000210 59 a4 7d 3d 4e d4 90 3c 90 31 88 bb 25 3b d8 3c
       0.061924312 0.01767936 -0.004156299 0.02639539
000220 9b 00 9d bb 06 37 c1 bc 2f 6e 60 bc 4b a0 13 bd
       -0.004791332 -0.023585808 -0.013698145 -0.03604154
000230 6a 3d 6f bc d1 a8 02 bd fd 8f 0f 3d f9 f4 57 3c
       -0.014602045 -0.031899277 0.035049427 0.013180965
000240 be ae 7d bc bc 06 31 bd 2b 37 8e bc f8 2e a7 bb
       -0.015483556 -0.043219313 -0.01736029 -0.0051020347
000250 38 41 be 3c 37 5c 97 3c 60 79 8e bc 8b b6 10 bd
       0.023224458 0.018476589 -0.01739186 -0.035330337
000260 b0 b7 b4 3c 4e 5f 55 3d c2 09 cc 3c 7a 8c 59 3d
       0.022060245 0.052092843 0.024906997 0.053112485
000270 8f 40 8e bb 17 28 34 bc 43 8b 89 3c 38 d7 6a 3c
       -0.004341192 -0.010995886 0.016790038 0.014333539
000280 c5 01 36 3d 04 c9 90 bc c1 0f 82 3c 32 62 15 bc
       0.04443528 -0.017673977 0.015876653 -0.00911765
000290 f1 e5 8c bc 67 fd d9 3c 4b 7d dd bc 22 c9 02 bd
       -0.017199488 0.02661009 -0.027037283 -0.031930096
0002a0 23 44 f2 bc dd e5 e1 bc 29 91 16 bd fc 48 ec 3c
       -0.029573506 -0.027575428 -0.03675953 0.028843395
0002b0 78 5f f7 3c e0 15 39 bd 8c 02 dc 3a 8c 4b 75 bb
       0.03019689 -0.045186877 0.0016785427 -0.0037429063
0002c0 e9 c7 8f bc 4f e8 37 bd a7 6e 40 bd 2e db 29 3c
       -0.01755138 -0.04489928 -0.046980526 0.010367198
0002d0 59 5d 8b 3c 8d 05 8a bb e3 b2 39 3d f1 44 cd bc
       0.017012285 -0.0042120875 0.045336615 -0.025057288
0002e0 33 7c 05 bd 80 26 cf 3c 08 d9 e8 bc 7e 0f 8b 3c
       -0.03258915 0.025286913 -0.028423801 0.01697516
0002f0 fd f3 95 bc c1 ba f5 3c ff 22 17 bd d7 49 df 3c
       -0.01830482 0.029996278 -0.03689861 0.02725689
000300 16 ed 13 bd ea 35 07 3d fd ed 0b 3d 23 9b 92 bc
       -0.036114775 0.0330104 0.03416251 -0.01789624
000310 7d 8a e6 ba e9 19 57 bc 15 a8 96 3a 16 ca e2 3c
       -0.001758888 -0.013128736 0.0011494184 0.027684253
000320 45 dc 91 3c 7c 55 a9 bc 10 b0 4f bc 7b 1f 30 3d
       0.017805228 -0.020670645 -0.012676254 0.042998772
000330 23 4c b1 3c 11 78 0c bd f6 94 08 3c 91 a7 f3 3c
       0.02164275 -0.03429419 0.008336296 0.029742988
000340 ee 11 0a bd a3 86 85 bc 98 70 d3 bc 80 75 2b 3d
       -0.033708505 -0.016299551 -0.025810525 0.041860104
000350 1a 20 21 3d 5b 5f 15 3d b0 e0 d2 bc 4c 1d 35 3d
       0.039337255 0.03646789 -0.025741905 0.044217393
000360 52 f2 18 bd 7e 61 61 bd 49 1b 27 bd 34 d7 14 bd
       -0.03734047 -0.055024616 -0.040797506 -0.036338046
000370 84 f1 2a bb 33 04 a3 bc 22 9d 49 bd 06 e6 ca bc
       -0.0026083896 -0.019899463 -0.04922212 -0.024767887
000380 1f 2c 5d bd b8 d1 c9 bc da 38 d3 bc b9 b0 a1 bc
       -0.053997155 -0.024636135 -0.025783945 -0.019737588
000390 62 20 94 3b 2f 4c 2a bd 4e 0f 76 bc 5d 07 ad bb
       0.004520462 -0.04157656 -0.015018297 -0.005280419
0003a0 79 91 14 bd b1 ce b0 38 90 46 93 bc 1c 2f 05 3b
       -0.036271546 8.430833e-05 -0.017977983 0.0020322269
0003b0 39 ca 34 bc b3 ed 7b 3b 8c 8e 1d bd 32 c0 da bc
       -0.011034542 0.003844124 -0.03846602 -0.026702974
0003c0 64 fd 19 bd ac 56 47 3c 6c d4 06 bc 05 c3 ba bc
       -0.037595168 0.01216666 -0.008229356 -0.02279807
0003d0 c1 28 c6 bc 05 bd 64 3c 8d 23 28 bc 7a 06 d1 3c
       -0.024189355 0.013961081 -0.010262382 0.025515784
0003e0 d8 b6 94 3c 85 5c aa bc 3d f2 03 bd f3 29 1f 3c
       0.018153593 -0.02079607 -0.03221344 0.009714591
0003f0 e6 f4 e6 bc db 58 27 3b 19 b1 66 bd 26 e0 8a 3b
       -0.028192949 0.002553514 -0.056321237 0.0042381464

model.6.bias f4 [3]
000000 e6 20 fa bb f7 68 33 bd c7 bf 80 3b
       -0.0076333163 -0.043801274 0.0039291116
