weights/lol_dataset/generator_weights.pth (torch, 608184 bytes, 8 tensors)

model.0.weight f4 [64, 3, 3, 3]
0.044741917 0.08087526 0.0524332 -0.08523905 -0.24707358 -0.13180222 -0.005897568 0.015998952
-0.18190314 -0.11211338 -0.18898767 -0.25859028 -0.13859865 -0.12924375 0.07244318 -0.21870302
-0.12837537 -0.088385664 -0.022269666 -0.22647874 0.068560734 -0.23334464 0.018870192 0.02751879
-0.20712365 -0.24856415 0.04633136 -0.1541404 0.081780314 -0.19691382 0.020681672 0.028755194
-0.16639474 -0.06764349 -0.03139152 0.15272047 0.098781854 0.16845503 -0.115140915 -0.08382278
0.17271 0.14996062 -0.14874779 -0.15488705 0.14057557 -0.054285187 0.05612585 0.13365768
-0.073547535 -0.09301177 0.16472837 0.08303833 -0.15762924 -0.016967999 -0.011024131 -0.25024107
-0.16242942 -0.2127943 -0.06629128 -0.25048476 -0.03560202 0.052672308 0.040507574 -0.012387698
-0.16128182 -0.14078169 0.037804347 -0.07456441 -0.06831356 -0.06659703 -0.11172015 -0.08429622
-0.19389759 -0.16909117 -0.05312284 -0.06578994 -0.16399294 0.048237033 -0.03721439 0.08933384
0.02245242 -0.044303566 -0.06041587 -0.11548481 -0.083270244 -0.06560316 -0.031532057 -0.17764927
-0.1832745 -0.25486457 -0.020501241 0.036196824 -0.13621096 -0.21222167 -0.085908614 0.08653135
-0.2653161 0.09171977 -0.2589936 -0.105754845 -0.1875353 0.04598588 -0.16156103 -0.1418424
-0.050087586 -0.12424536 -0.12359754 -0.052818622 -0.12928368 -0.031210044 0.03038921 -0.06076121
-0.05497677 -0.25863606 -0.24509469 -0.19368774 -0.2303167 -0.051341716 0.08724309 0.05811563
-0.14423822 -0.11016962 -0.06608698 0.0787933 0.017482495 0.009011274 0.06376329 0.014829589
-0.042299494 -0.07662427 0.036895767 -0.16190101 -0.0024270474 0.018019639 0.092293315 -0.082799934
0.052698467 -0.077752784 -0.15360232 -0.1060218 0.044269733 -0.17094651 0.08907386 0.054975253
-0.21078458 -0.14323972 -0.18906173 -0.045349266 -0.22646838 -0.13330655 -0.15020515 -0.13181622
-0.1866553 -0.09797655 -0.07779444 -0.17586547 0.031667396 -0.14862826 0.11401708 -0.09144164
-0.21899019 -0.20744716 -0.106966875 -0.15426768 0.14492856 0.08353949 0.051821884 -0.09984589
0.05025567 -0.029833168 0.025016822 0.08672336 -0.009048401 -0.029042937 -0.025869314 0.066258535
0.015323451 -0.09183104 0.058913678 0.00962838 0.08958696 0.015652617 0.051172644 0.04725736
-0.07769133 -0.116338335 0.006359318 0.117291786 -0.031896576 -0.12527247 -0.011026517 0.09180362
-0.0058318456 -0.13844264 0.11378194 0.08134282 0.16324769 -0.19156662 0.09296062 0.028278714
-0.0755531 0.1323944 0.13239624 0.09212236 0.09704821 -0.19001706 -0.17708753 -0.024692312
-0.17047845 -0.052935526 -0.020223776 0.048495244 -0.080876574 0.110278584 0.108071275 0.078530125
0.08377998 -0.11423718 -0.108022325 -0.18374386 0.0048565553 -0.203121 0.059492525 -0.22695984
-0.026359148 -0.25216684 0.087079674 0.06411252 -0.25816748 -0.21556512 -0.029831847 0.00915928
-0.076537766 -0.0749625 -0.10740662 -0.071603134 0.0043472177 0.066596635 -0.13486464 -0.14916982
0.046639398 -0.24218161 -0.24782124 -0.17600387 -0.043489587 -0.016506871 -0.14376533 -0.07530555
0.0038303877 -0.018046299 -0.1689755 -0.13171467 -0.14618126 -0.045812983 0.089346744 -0.01764671
00000000: 4d43 373d eea1 a53d 32c4 563d d091 aebd
00000010: db00 7dbe 29f7 06be 6340 c1bb 3c10 833c
00000020: d144 3abe b39b e5bd fc85 41be f265 84be
00000030: ceec 0dbe 7958 04be 175d 943d aff3 5fbe
00000040: d574 03be 8b03 b5bd e06e b6bc 0bea 67be
00000050: 9269 8c3d e6f1 6ebe a995 9a3c 166f e13c
00000060: 3918 54be 9a87 7ebe f4c5 3d3d fbd6 1dbe
00000070: 707c a73d c7a3 49be 9c6c a93c 0390 eb3c
00000080: 6263 2abe ac88 8abd 6594 00bd c162 1c3e
00000090: 244e ca3d 7a7f 2c3e 00cf ebbd 47ab abbd
000000a0: e4da 303e 478f 193e 5751 18be b69a 1ebe
000000b0: 0bf3 0f3e 255a 5ebd 38e4 653d 8fdd 083e
000000c0: 17a0 96bd f47c bebd 8eae 283e 0010 aa3d
000000d0: 8f69 21be 7900 8bbc 8f9e 34bc 991f 80be
000000e0: e653 26be c0e6 59be b9c3 87bd 8a3f 80be
000000f0: 6cd3 11bd ebbe 573d 45eb 253d c5f5 4abc
00000100: 1027 25be 1329 10be bbd8 1a3d 3ab5 98bd
00000110: fbe7 8bbd 0664 88bd 89cd e4bd 7fa3 acbd
00000120: 178d 46be 3c26 2dbe 5697 59bd e0bc 86bd
00000130: c4ed 27be 3294 453d 1e6e 18bd a9f4 b63d
00000140: 23ee b73c a877 35bd a276 77bd 4d83 ecbd
00000150: 9789 aabd f35a 86bd c227 01bd b1e9 35be
00000160: 4fac 3bbe 9c7d 82be 38f2 a7bc 1f43 143d
00000170: e37a 0bbe a350 59be dbf0 afbd 5937 b13d
00000180: 83d7 87be 93d7 bb3d cf9a 84be ff95 d8bd
00000190: 4109 40be b15b 3c3d 4170 25be 223f 11be
000001a0: a428 4dbd 5a74 febd b520 fdbd 5758 58bd
000001b0: f162 04be 35ac ffbc cbf2 f83c bfe0 78bd
000001c0: 522f 61bd f26b 84be 1afa 7abe 1456 46be
000001d0: 24d8 6bbe b14b 52bd 81ac b23d a80a 6e3d
000001e0: 2fb3 13be 9ca0 e1bd 9c58 87bd 625e a13d
000001f0: 7337 8f3c 06a4 133c 5496 823d cef7 723c
00000200: 3c42 2dbd 2fed 9cbd 0420 173d 61c9 25be
00000210: 190f 1fbb ec9d 933c 4704 bd3d 0393 a9bd
00000220: 59da 573d da3c 9fbd ed49 1dbe f521 d9bd
00000230: 2e54 353d 9a0c 2fbe 5b6c b63d bb2d 613d
00000240: ead7 57be 6fad 12be 6699 41be 27c0 39bd
00000250: 54e7 67be 8381 08be 61cf 19be d5fa 06be
00000260: 9122 3fbe eea7 c8bd b152 9fbd 1416 34be
00000270: acb5 013d 0232 18be c981 e93d c145 bbbd
00000280: f73e 60be 076d 54be 7311 dbbd 59f8 1dbe
00000290: 2768 143e c116 ab3d 2f43 543d 017c ccbd
000002a0: e4d8 4d3d b064 f4bc 14f0 cc3c 049c b13d
000002b0: bf3f 14bc 74eb edbc e2eb d3bc 8eb2 873d
000002c0: 360f 7b3c ea11 bcbd 784f 713d 5ac0 1d3c
000002d0: 5e79 b73d eb39 803c 689a 513d ef90 413d
000002e0: a21c 9fbd cb42 eebd d361 d03b ad36 f03d
000002f0: fca5 02bd 6d47 00be 90a8 34bc 8903 bc3d
00000300: 1119 bfbb e8c3 0dbe 8106 e93d 1097 a63d
00000310: 672a 273e 0a2a 44be 2362 be3d c3a8 e73c
00000320: 95bb 9abd 6692 073e e192 073e a6aa bc3d
00000330: 36c1 c63d d593 42be 6f56 35be 8847 cabc
00000340: e791 2ebe ecd2 58bd 55ac a5bc f3a2 463d
00000350: 9ea2 a5bd bdd9 e13d 7954 dd3d 67d4 a03d
00000360: d794 ab3d 2ff5 e9bd cf3a ddbd 5a27 3cbe
00000370: bd23 9f3b f4fe 4fbe 6fae 733d 2968 68be
00000380: 24ef d7bc 031c 81be d456 b23d 6d4d 833d
00000390: 872e 84be 1abd 5cbe eb61 f4bc ce10 163c
000003a0: d5bf 9cbd f085 99bd 01f8 dbbd aaa4 92bd
000003b0: 1b73 8e3b d163 883d f519 0abe f9bf 18be
000003c0: f408 3f3d 75fe 77be dac4 7dbe 5c3a 34be
000003d0: 2322 32bd 6b39 87bc 3837 13be cc39 9abd
000003e0: 3e07 7b3b d5d5 93bc ea07 2dbe 36e0 06be
000003f0: 8ab0 15be 65a6 3bbd 6dfb b63d d58f 90bc

model.0.bias f4 [64]
0.046891723 -0.11102375 0.03460143 0.05152908 0.020919755 0.037806526 -0.08241537 -0.15939923
0.03737042 -0.19189179 -0.15900554 0.055938832 0.028216854 0.03867798 0.030239264 0.039165735
-0.02387784 -0.039164044 0.020730397 -0.14843726 0.050372288 0.04036537 0.0097646 0.050548233
-0.0022480257 -0.107670076 0.019809093 0.058326 0.03731632 -0.08892831 -0.0018862771 0.018423375
0.03158865 -0.13457644 -0.1253983 -0.0026574875 -0.14082238 -0.093136325 -0.060442075 0.04531036
0.044457607 0.037556164 -0.05745452 -0.13937403 -0.05512076 -0.082484595 -0.08528601 0.01723315
0.033035744 -0.09276605 0.020053728 -0.1336338 0.03140014 0.026003815 0.053446878 0.033261813
-0.15146245 -0.06270853 0.016341025 -0.1280777 -0.010232685 -0.010820684 -0.13552223 0.010657882
00000000: 8911 403d 6b60 e3bd 3bba 0d3d 2810 533d
00000010: e85f ab3c 04db 1a3d 64c9 a8bd 8d39 23be
00000020: ba11 193d 487f 44be 59d2 22be 1e20 653d
00000030: 0827 e73c cd6c 1e3d 55b8 f73c 406c 203d
00000040: 769b c3bc 7a6a 20bd cbd2 a93c f0ff 17be
00000050: 2c53 4e3d 2956 253d b3fb 1f3c aa0b 4f3d
00000060: 9d53 13bb 2182 dcbd ae46 a23c 3ee7 6e3d
00000070: ffd8 183d 0c20 b6bd f53c f7ba 9eec 963c
00000080: 1a63 013d 68ce 09be 6968 00be 3e29 2ebb
00000090: be33 10be 42be bebd 1c92 77bd 5b97 393d
000000a0: 2e19 363d 7ed4 193d 6e55 6bbd 11b8 0ebe
000000b0: 4ec6 61bd afed a8bd 6eaa aebd 892c 8d3c
000000c0: 7d50 073d 20fc bdbd b747 a43c 4dd7 08be
000000d0: 6f9d 003d f405 d53c 1deb 5a3d 8a3d 083d
000000e0: f918 1bbe 546d 80bd 9ddd 853c cd26 03be
000000f0: fea6 27bc 3d49 31bc 57c6 0abe 669e 2e3c

model.2.weight f4 [128, 64, 3, 3]
-0.0121514695 -0.037244547 -0.025989732 0.016641026 -0.03963079 0.014848114 -0.022153532 0.0035501888
-0.03326985 0.008952039 0.024540963 -0.03140835 0.041057784 0.0077793947 -0.019082643 -0.037000105
-0.006300841 0.011684795 -0.04251082 -0.034857746 0.008524201 0.016293839 -0.022450907 -0.036706958
-0.030475482 -0.028328948 0.021890022 0.017098147 0.0036547636 0.0131933475 -0.03997832 0.035181895
-0.00085828407 0.0014086552 -0.04471412 -0.006698707 0.008908155 -0.040106233 -0.03709734 -0.033574875
0.00660602 0.0058809393 0.008297115 0.03454554 0.006613555 -0.04412595 0.018211523 -0.020409092
-0.0004524745 0.033025432 -0.04222074 -0.0197966 0.0010162833 -0.046353582 0.038082737 0.011269546
-0.014979881 -0.037423246 0.010733813 0.003949865 -0.02546776 -0.036732864 -0.0083900625 0.041251827
-0.032344885 0.03825877 0.006979559 -0.018211901 -0.008450251 -0.032025322 0.017928343 -0.022078885
0.035122927 0.0033961942 -0.027751021 0.009664975 -0.019953717 -0.02687302 -0.029229667 -0.0031465078
-0.0061491495 -0.021784093 -0.0013850856 -0.013636082 -0.029377533 -0.034726605 -0.014078399 -0.03463053
0.01340119 0.0307495 -0.02568618 0.026876653 -0.0030343775 0.007910242 -0.014785116 0.029313743
-0.031795066 0.01576378 -4.9469963e-05 -0.017104741 -0.0116220955 0.034763694 0.023640383 -0.044060394
0.022380525 0.016042352 -0.015377958 -0.038081177 -0.03645837 0.027063735 -0.013467671 -0.02662131
0.016167205 -0.024642467 -0.024621284 -0.013426044 0.033442345 -0.036686074 0.0023774644 -0.006834561
-0.008779936 0.0046531972 0.000117085125 0.014590235 0.009089793 0.0038211576 0.03580205 -0.03356934
-0.020856071 0.008196069 -0.009846235 -0.002000024 0.013008813 -0.0073724403 0.032046255 -0.022130173
0.030410599 -0.038203686 0.036637776 0.022593563 -0.0009978716 0.0127385985 0.013952923 -0.008065872
-0.013698206 0.021984493 -0.034918316 -0.0012849863 -0.00798924 -0.033503544 0.0053252145 0.020475628
-0.0010544857 0.033831112 0.0057020606 0.0047169314 0.001423917 0.0184637 0.014111148 0.0361235
0.038245205 -0.013303608 -0.01201371 0.02393576 0.029439785 -0.012459369 0.036665518 0.012964609
-0.0025678815 -0.035633728 0.018516814 -0.016377067 0.0035413387 -0.006064892 -0.027360128 0.017179566
0.0208434 -0.021280326 0.012197092 0.029065002 -0.022542212 -0.033108633 0.023301268 -0.0039916174
-4.9980234e-05 0.011473592 0.023774635 0.029359324 -0.028837156 0.00907523 0.00564563 0.0028500203
-0.04214861 -0.03149627 -0.03215661 -0.029707033 -0.0014876983 -0.027931228 0.013301965 -0.012040656
-0.00018938132 -0.011582266 -0.021988688 0.023186995 0.0266521 0.036802344 -0.039076813 -0.046649307
-0.0116165895 -0.026837543 -0.029134203 0.033607632 0.019249186 -0.042024158 -0.02921476 -0.007106372
0.035610233 0.010669377 0.056028333 0.016829617 0.021147413 -0.012697557 -0.026965745 -0.03861325
-0.009055634 0.02045204 -0.015750526 0.025274819 0.023883736 0.03377517 -0.016868286 0.03937099
0.031043919 0.00318747 -0.008534711 -0.019622069 -0.0128067 -0.029541286 -0.034880415 0.02803381
0.029745797 -0.03213732 -0.02859325 -0.0044645607 -0.04324321 0.011423822 -0.0054077487 0.018242452
-0.014775091 -0.029391708 -0.01437985 -0.030693512 0.022513734 -0.008634973 0.016719712 0.014966168
00000000: f516 47bc bd8d 18bd 6be8 d4bc c352 883c
00000010: e553 22bd 8145 733c 537b b5bc 49aa 683b
00000020: f745 08bd 93ab 123c 210a c93c 0ba6 00bd
00000030: 352c 283d 4bea fe3b 3453 9cbc 6c8d 17bd
00000040: 4977 cebb 9571 3f3c d31f 2ebd ffc6 0ebd
00000050: 17a9 0b3c a87a 853c f7ea b7bc 095a 16bd
00000060: b8a7 f9bc 1c12 e8bc b452 b33c 6a11 8c3c
00000070: c284 6f3b e928 583c 4fc0 23bd e41a 103d
00000080: 78fe 60ba a0a2 b83a 2726 37bd d480 dbbb
00000090: 83f3 113c 6f46 24bd 61f3 17bd cf85 09bd
000000a0: 5077 d83b e5b4 c03b 9ff0 073c a07f 0d3d
000000b0: 85b6 d83b 6abd 34bd 5530 953c f830 a7bc
000000c0: 193a edb9 ad45 073d a8ef 2cbd 7b2c a2bc
000000d0: cf34 853a 41dd 3dbd a5fc 1b3d e7a3 383c
000000e0: 2d6e 75bc 1e49 19bd e0dc 2f3c de6d 813b
000000f0: c4a1 d0bc 3375 16bd 7976 09bc adf7 283d
00000100: 127c 04bd 3ab5 1c3d c9b4 e43b 2031 95bc
00000110: ec72 0abc fc2c 03bd 76de 923c c7de b4bc
00000120: 0fdd 0f3d af92 5e3b 1c56 e3bc d859 1e3c
00000130: fa75 a3bc cf24 dcbc 0e73 efbc a435 4ebb
00000140: ce7e c9bb 8e74 b2bc c38b b5ba e069 5fbc
00000150: 27a9 f0bc 7c3d 0ebd 16a9 66bc bed8 0dbd
00000160: aa90 5b3c 60e6 fb3c d36b d2bc 6d2c dc3c
00000170: 68dc 46bb f699 013c 453d 72bc 6023 f03c
00000180: 8b3b 02bd 0b23 813c f87d 4fb8 3e1f 8cbc
00000190: 9a6a 3ebc 6064 0e3d 7aa9 c13c ac78 34bd
000001a0: 5d57 b73c 406b 833c d5f3 7bbc 02fb 1bbd
000001b0: 5f55 15bd c4b4 dd3c 82a7 5cbc ef14 dabc
000001c0: 1671 843c 00df c9bc 93b2 c9bc e9f8 5bbc
000001d0: d7fa 083d 2344 16bd 3ccf 1b3b 74f4 dfbb
000001e0: b8d9 0fbc d979 983b 998b f538 e20b 6f3c
000001f0: 5bed 143c 636c 7a3b 2ca5 123d 0180 09bd
00000200: 5ada aabc ce48 063c 1a52 21bc d612 03bb
00000210: eb22 553c 8394 f1bb ef42 033d 564a b5bc
00000220: a61f f93c 787b 1cbd 7e11 163d 2316 b93c
00000230: 04cb 82ba 8eb5 503c cd9a 643c b826 04bc
00000240: 716e 60bc d318 b43c 8206 0fbd fc6c a8ba
00000250: 4de5 02bc 033b 09bd 237f ae3b 81bc a73c
00000260: ab36 8aba 7e92 0a3d 5ad8 ba3b 7d90 9a3b
00000270: baa2 ba3a 2f41 973c 7232 673c 3cf6 133d
00000280: 01a7 1c3d 60f7 59bc 27d5 44bc ed14 c43c
00000290: b42b f13c 6222 4cbc 952e 163d 8369 543c
000002a0: e749 28bb acf4 11bd 93b0 973c 3329 86bc
000002b0: ce15 683b 00bc c6bb 5922 e0bc 29bc 8c3c
000002c0: c7bf aa3c 1454 aebc 50d6 473c ba19 ee3c
000002d0: 72aa b8bc eb9c 07bd 4de2 be3c 1dcc 82bb
000002e0: dea1 51b8 bcfb 3b3c 06c3 c23c f782 f03c
000002f0: e63b ecbc 46b0 143c fafe b83b 68c7 3a3b
00000300: 05a4 2cbd 3c02 01bd a6b6 03bd 2a5c f3bc
00000310: dffe c2ba 08d0 e4bc 7cf0 593c 2c46 45bc
00000320: a994 46b9 8bc3 3dbc 9f21 b4bc a7f2 bd3c
00000330: 8155 da3c 0ebe 163d 020f 20bd 5813 3fbd
00000340: 8253 3ebc 68da dbbc daaa eebc 28a8 093d
00000350: 78b0 9d3c 8621 2cbd cb53 efbc 92dc e8bb
00000360: 09dc 113d 9cce 2e3c f77d 653d 44de 893c
00000370: 573d ad3c 6a09 50bc 44e7 dcbc ed28 1ebd
00000380: 155e 14bc 098b a73c 3f07 81bc 230d cf3c
00000390: d3a7 c33c d557 0a3d 5c2f 8abc 7a43 213d
000003a0: d14f fe3c dfe4 503b 2cd5 0bbc 76be a0bc
000003b0: 31d3 51bc 9100 f2bc c4de 0ebd 29a7 e53c
000003c0: 75ad f33c 6ca2 03bd 643c eabc 734b 92bb
000003d0: cb1f 31bd fb2a 3b3c 7c33 b1bb 3271 953c
000003e0: 3913 72bc e1c6 f0bc 7699 6bbc f670 fbbc
000003f0: b96e b83c b479 0dbc c7f7 883c a934 753c

model.2.bias f4 [128]
-0.004061413 -0.021694716 -0.016499864 -0.012146308 -0.037727356 -0.0047734817 -0.0045325523 -0.031639554
0.004595137 -0.041143637 -0.0051528946 0.008609496 0.00830546 -0.031611383 0.0040616966 -0.0076611773
-0.017028399 -0.024293229 -0.009081964 -0.0123077445 -0.011303409 0.035240863 -0.002139033 -0.038616564
-0.046247594 -0.0068747466 -0.019843072 -0.041595675 -0.027267894 0.026391411 -0.04964238 -0.009674082
-0.007544794 -0.007423778 -0.03185083 0.067303255 -0.026663957 0.014909145 -0.028833607 0.065318644
0.06763447 0.020145427 -0.021123882 -0.047201164 -0.027546024 -0.0032286562 -0.0062382654 -0.03229179
-0.010741202 -0.030497849 0.039506473 -0.028626507 0.09010274 -0.03468599 0.050678715 -0.011728066
-0.001388493 -0.017042177 -0.004790311 -0.0074909106 0.024873883 -0.012582143 -0.012214548 0.008210087
-0.0021802955 -0.051851004 0.019395903 -0.028795043 -0.00662209 -0.008599337 -0.039095204 -0.010113126
-0.048536815 -0.009506539 -0.0095760105 -0.008265143 -0.017676722 -0.008103801 -0.01224321 -0.012862801
-0.0029642198 -0.01921501 -0.033209763 -0.038086843 -0.040766586 0.02225959 -0.0066899466 -0.0049899607
-0.034571126 -0.006977684 -0.02338368 -0.0011073122 0.04168491 0.06539334 -0.02793549 0.06306399
-0.014235055 -0.04258564 0.044138145 -0.010077528 -0.027031675 -0.006476067 0.024256412 -0.017456047
-0.023456743 -0.023255963 0.07729208 -0.0047673914 -0.010442094 -0.0071074287 -0.02745918 -0.0038858352
-0.030259501 -0.015778925 -0.040446483 -0.047574293 -0.021731494 -0.00070678815 -0.021130864 -0.026736753
-0.00029553776 -0.001328381 -0.02365531 0.0001266823 -0.036434423 -0.011934465 -0.038620315 -0.0390025
00000000: 9a15 85bb 1eb9 b1bc b92a 87bc 4f01 47bc
00000010: 0088 1abd de6a 9cbb ce85 94bb 7a98 01bd
00000020: ce92 963b 3b86 28bd 9dd9 a8bb d80e 0d3c
00000030: a013 083c f07a 01bd fb17 853b 9d0a fbbb
00000040: 247f 8bbc 9802 c7bc 85cc 14bc 6ca6 49bc
00000050: ef31 39bc b958 103d 052f 0cbb 672c 1ebd
00000060: 1e6e 3dbd 8e45 e1bb f08d a2bc 3a60 2abd
00000070: eb60 dfbc cd32 d83c cf55 4bbd 0a80 1ebc
00000080: 523a f7bb 2a43 f3bb 0476 02bd 4ad6 893d
00000090: 5f6e dabc 7d45 743c 7534 ecbc c8c5 853d
000000a0: f183 8a3d 0608 a53c fe0b adbc 0256 41bd
000000b0: 33a8 e1bc dd97 53bb 5d6a ccbb 6544 04bd
000000c0: defb 2fbc a0d6 f9bc 8ad1 213d 2382 eabc
000000d0: c987 b83d e612 0ebd 7c94 4f3d 1327 40bc
000000e0: 18fe b5ba 099c 8bbc 0bf8 9cbb 5076 f5bb
000000f0: 50c4 cb3c 5525 4ebc 871f 48bc 9a83 063c
00000100: 4ae3 0ebb b861 54bd 28e4 9e3c 95e3 ebbc
00000110: 1efe d8bb 3ce4 0cbc 4b22 20bd 86b1 25bc
00000120: 8ace 46bd 51c1 1bbc b3e4 1cbc 866a 07bc
00000130: c6ce 90bc cec5 04bc bf97 48bc 7fbe 52bc
00000140: 5b43 42bb cc68 9dbc f606 08bd f300 1cbd
00000150: ddfa 26bd be59 b63c 5737 dbbb d382 a3bb
00000160: 749a 0dbd 0ea5 e4bb 228f bfbc 3b23 91ba
00000170: ccbd 2a3d f2ec 853d f8d8 e4bc b127 813d
00000180: 263a 69bc 486e 2ebd 33ca 343d 371c 25bc
00000190: 8871 ddbc 3035 d4bb 62b5 c63c fcff 8ebc
000001a0: 5b28 c0bc 4a83 bebc 4f4b 9e3d c737 9cbb
000001b0: 5115 2bbc 6fe5 e8bb 13f2 e0bc 7fa9 7ebb
000001c0: c6e2 f7bc ce42 81bc 36ab 25bd 43dd 42bd
000001d0: 3f06 b2bc c047 39ba a21a adbc 0907 dbbc
000001e0: 68f2 9ab9 121d aeba c8c8 c1bc 05d6 0439
000001f0: 433c 15bd c688 43bc 5630 1ebd 16c1 1fbd

model.4.weight f4 [64, 128, 3, 3]
-0.009259584 0.0043362104 -0.012161206 -0.0035422214 0.0035066158 0.00081833336 0.04785858 -0.0009383372
0.002303285 0.004449739 -0.031076137 0.023195677 -0.015133725 -0.026810147 -0.011031664 0.016028596
-0.024107514 -0.0069350717 -0.02667862 -0.012036257 0.00961011 -0.027478563 -0.026543261 -0.029922526
0.01700822 0.019317597 -0.0055423165 -0.015417283 -0.014858796 -0.02210368 -0.031869736 -0.016451268
0.0086123785 0.0045007523 -0.010391871 0.0063544256 -0.014439345 -0.011485786 -0.009519097 -0.013668622
0.009363956 0.016753754 -0.00039129332 -0.02912439 0.0018172065 0.03422607 0.041415222 0.043882295
0.06622054 0.007989792 0.038024824 0.045312997 0.03409607 0.03470753 0.086270206 0.07809038
0.0689639 0.06867895 0.053795446 0.05866455 0.051725272 0.09741649 0.060802843 0.047687512
0.076408744 0.08030252 0.045376774 0.031029046 0.070371576 0.029223045 0.061353028 0.028380161
-0.0023502985 -0.014946106 0.021505518 -0.0040544625 0.014494035 -0.006743772 0.009875137 -0.0027612797
-0.018072303 0.027455496 0.029433025 -0.006460456 0.013542907 0.019253172 -0.012931741 -0.009924118
-0.010933391 -0.015733033 -0.016466653 -0.063027725 -0.039447885 0.007060053 0.01744286 0.023762086
0.031272948 0.03579214 0.021225365 -0.0018262814 0.00027787083 -0.013320019 -0.013067199 0.001578044
-0.0069013396 0.019887056 -0.026146756 -0.01941066 -0.016287666 -0.035489727 -0.009666362 0.00089973345
-0.020947888 -0.034976553 -0.023557099 -0.00381133 -0.012186239 -0.053565294 -0.01905069 -0.031706367
-0.06608168 -0.064507656 -0.055283178 -0.02398206 -0.04041234 -0.022032684 0.021130327 0.05133079
0.058389295 -0.0015290462 0.042285915 -0.0014785815 0.016827155 0.0075311563 0.009715129 0.06823636
0.014735224 0.057710305 0.02834388 0.043730725 0.05424854 0.037709333 0.06815776 0.07233375
0.010182145 0.004016453 -0.0073638675 -0.018306836 0.0037643295 -0.03278004 -0.026079379 -0.01620699
-0.0075761317 0.03175921 0.015808025 0.016667489 0.034451228 0.058328103 0.059656195 0.042952288
0.05075107 0.03439507 0.068246946 0.09231202 0.10953694 0.06559987 0.08422921 0.10309396
0.06199428 0.0770726 0.06311385 -0.014971516 0.01083026 -0.02712317 -0.008456081 -0.038124297
-0.021941854 -0.02007778 -0.020851517 0.02040358 0.009112258 0.015669921 0.04164063 -0.006636268
0.036286373 0.010438661 0.0005842841 0.0050461167 -0.006768248 -0.016923683 -0.010015119 -0.009777832
-0.025885025 -0.031352617 -0.0059499275 -0.0039299144 -0.0006876444 -0.03496254 0.040014822 0.050643537
0.029507052 0.042363565 0.04629025 0.02555279 0.052371196 0.06752982 0.070842 -0.027254127
0.025227526 0.01280056 0.025987409 -0.0144740725 0.00035126435 0.023802616 -0.0134332 -0.025290398
0.0008934478 -0.014460044 0.0036613632 -0.038105242 -0.04074381 -0.031527724 -0.042763576 -0.029516753
-0.02809195 0.017763982 -0.036180124 0.00012906786 0.0030322429 -0.020022118 0.002089155 -0.02668576
-0.03888125 0.017498463 -0.060654372 -0.07403066 -0.07798766 -0.007618827 -0.03479339 -0.025210014
-0.053201936 -0.028851181 -0.060829792 -0.0011731009 0.026270498 -0.005027748 -0.0008417262 -0.014144643
-0.008738064 -0.0162545 0.0058163265 -0.018598188 0.03091759 0.036759444 0.024145287 0.053777166
00000000: 83b5 17bc c516 8e3b cc3f 47bc 9d24 68bb
00000010: 40cf 653b 6c85 563a 5c07 443d befa 75ba
00000020: b6f2 163b 1ecf 913b 6293 febc dc04 be3c
00000030: 71f3 77bc f4a0 dbbc 27be 34bc 674e 833c
00000040: 1f7d c5bc 993f e3bb 1f8d dabc b933 45bc
00000050: b973 1d3c b91a e1bc 4171 d9bc 1620 f5bc
00000060: d354 8b3c f03f 9e3c 529c b5bb c698 7cbc
00000070: 4f72 73bc c712 b5bc d789 02bd cfc4 86bc
00000080: ef1a 0d3c 0c7b 933b ab42 2abc c938 d03b
00000090: 0193 6cbc e12e 3cbc fdf5 1bbc 5bf2 5fbc
000000a0: 476b 193c 2b3f 893c 8026 cdb9 4696 eebc
000000b0: 552f ee3a a330 0c3d 02a3 293d ecbd 333d
000000c0: a29e 873d 9ee7 023c ebbf 1b3d 1f9a 393d
000000d0: 52a8 0b3d 7c29 0e3d 6fae b03d d9ed 9f3d
000000e0: f23c 8d3d 8da7 8c3d 9d58 5c3d 3d4a 703d
000000f0: e1dd 533d 4c82 c73d 670c 793d fb53 433d
00000100: 307c 9c3d a675 a43d ffdc 393d a030 fe3c
00000110: f91e 903d 2b65 ef3c 504d 7b3d 837d e83c
00000120: 7707 1abb 83e0 74bc 572c b03c 4cdb 84bb
00000130: 6478 6d3c dcfa dcbb 54cb 213c 96f6 34bb
00000140: 5e0c 94bc 59ea e03c 871d f13c 3cb2 d3bb
00000150: 12e3 5d3c d4b8 9d3c a7df 53bc c598 22bc
00000160: f721 33bc 90e2 80bc 13e5 86bc ae14 81bd
00000170: 1b94 21bd 0458 e73b 54e4 8e3c b5a8 c23c
00000180: 1018 003d c79a 123d d1e0 ad3c d65f efba
00000190: 31af 9139 353c 5abc ce17 56bc 5fd6 ce3a
000001a0: a224 e2bb 2eea a23c b931 d6bc 1b03 9fbc
000001b0: b66d 85bc ad5d 11bd a95f 1ebc 17dc 6b3a
000001c0: e89a abbc 9343 0fbd d1fa c0bc 82c7 79bb
000001d0: caa8 47bc 4867 5bbd 3110 9cbc 89de 01bd
000001e0: d555 87bd 971c 84bd 9d70 62bd 0676 c4bc
000001f0: 6987 25bd e37d b4bc 8219 ad3c 3c40 523d
00000200: 9d29 6f3d 476a c8ba ff33 2d3d f6cc c1ba
00000210: 1ad9 893c ebc7 f63b 342c 1f3c 81bf 8b3d
00000220: 026c 713c a461 6c3d 6d31 e83c fd1e 333d
00000230: b833 5e3d 1a75 1a3d 4c96 8b3d b823 943d
00000240: 03d3 263c 739c 833b 994c f1bb 38f8 95bc
00000250: f8b2 763b 5d44 06bd 6ca4 d5bc 86c4 84bc
00000260: 3341 f8bb f215 023d d57f 813c 428a 883c
00000270: bb1c 0d3d 73e9 6e3d 0e5a 743d bdee 2f3d
00000280: 5be0 4f3d d8e1 0c3d 0ec5 8b3d 160e bd3d
00000290: e754 e03d 3a59 863d 5d80 ac3d ed22 d33d
000002a0: b7ed 7d3d 3dd8 9d3d d641 813d 174b 75bc
000002b0: 6771 313c 6931 debc 608b 0abc 3928 1cbd
000002c0: 67bf b3bc 287a a4bc cdd0 aabc 6925 a73c
000002d0: 954b 153c 355e 803c 5e8f 2a3d 0d75 d9bb
000002e0: 05a1 143d eb06 2b3c a42a 193a e559 a53b
000002f0: 2ec8 ddbb 89a3 8abc 7416 24bc 3333 20bc
00000300: d50c d4bc 9a6b 00bd 9cf7 c2bb 83c6 80bb
00000310: 0943 34ba e134 0fbd 95e6 233d 996f 4f3d
00000320: c6b8 f13c 6b85 2d3d d89a 3d3d 1654 d13c
00000330: 2e83 563d 134d 8a3d 9c15 913d 0c44 dfbc
00000340: f5a9 ce3c 71b9 513c 8ce3 d43c a924 6dbc
00000350: e729 b839 b4fd c23c ed16 5cbc cf2d cfbc
00000360: 4436 6a3a d2e9 6cbc 7bf3 6f3b 3e14 1cbd
00000370: fbe2 26bd 3723 01bd dc28 2fbd 1ecd f1bc
00000380: 1721 e6bc c585 913c 9c31 14bd 6456 0739
00000390: 98b8 463b 6d05 a4bc 34ea 083b 189c dabc
000003a0: f241 1fbd f058 8f3c b870 78bd 639d 97bd
000003b0: ffb7 9fbd 5aa7 f9bb 8483 0ebd 3b85 cebc
000003c0: 46ea 59bd 5059 ecbc a928 79bd bcc2 99ba
000003d0: 3a35 d73c cfbf a4bb 4aa7 5cba efbe 67bc
000003e0: 192a 0fbc 2828 85bc e296 be3b 3a5b 98bc
000003f0: e346 fd3c 1291 163d 56cc c53c 7245 5c3d

model.4.bias f4 [64]
0.08379318 0.053578027 -0.0033076415 0.019849852 0.0050034234 -0.03867153 -0.042543415 0.019665364
-0.015119157 -0.018154964 -0.008623096 -0.017670894 -0.029322222 0.06272829 0.025452208 0.009646051
-0.011613555 -0.014177681 0.07992351 0.017179348 0.015991105 -0.0057400526 -0.004129423 -0.026456201
-0.009752866 -0.0527641 0.06613306 -0.016282897 -0.0029927024 -0.019711766 0.02208831 -0.02260089
-0.014170546 0.009311943 0.04864933 0.045349922 0.029507147 0.055546273 -0.023789076 1.1000619e-05
-0.006623357 -0.027982596 0.04151155 0.033091992 -0.0018521779 -0.012811258 0.0015525018 0.045096952
0.008742457 -0.008856294 0.009612527 0.034140855 0.0030880612 -0.005603447 0.036827516 0.004612634
-0.018594773 -0.02867475 -0.02080369 -0.04425603 -0.021989657 0.013253218 -0.011783642 -0.003968508
00000000: c29b ab3d a274 5b3d 04c5 58bb 289c a23c
00000010: c2f3 a33b 0a66 1ebd 0142 2ebd 4219 a13c
00000020: 57b6 77bc b8b9 94bc e347 0dbc 8dc2 90bc
00000030: 2835 f0bc b177 803d 2681 d03c 780a 1e3c
00000040: c846 3ebc 8149 68bc f0ae a33d b4bb 8c3c
00000050: c7ff 823c 0d17 bcbb 1c50 87bb adba d8bc
00000060: 7cca 1fbc 2b1f 58bd c570 873d b663 85bc
00000070: 3721 44bb 927a a1bc 8bf2 b43c 8025 b9bc
00000080: 942b 68bc 1f91 183c 8544 473d d7c0 393d
00000090: f9b8 f13c 7d84 633d 4fe1 c2bc 4d8f 3837
000000a0: bf08 d9bb c23b e5bc 0408 2a3d 788b 073d
000000b0: c7c4 f2ba 50e6 51bc 517d cb3a 95b7 383d
000000c0: 863c 0f3c fd19 11bc dc7d 1d3c 48d7 0b3d
000000d0: 1261 4a3b 1f9d b7bb 73d8 163d 9425 973b
000000e0: 1154 98bc 4fe7 eabc 806c aabc d045 35bd
000000f0: a723 b4bc 0624 593c 2d10 41bc 420a 82bb

model.6.weight f4 [3, 64, 3, 3]
0.024811078 0.06946251 -0.0028565736 0.026197018 -0.007674039 0.027992908 0.012723603 0.04869954
0.053178478 -0.0077979066 0.017151456 0.028091522 0.005846432 -0.0067893257 0.00904934 0.038919803
0.03701355 0.036109332 0.008416086 0.017869312 -0.0021296402 0.05210598 0.006843549 0.029104609
-0.010242129 0.06330916 -0.013403283 0.029809147 -0.009082173 0.054737795 -0.005063158 0.021516895
0.043906566 0.032971784 0.031082885 0.020882983 -0.0043274364 0.040343635 0.008511441 0.009856649
0.039892513 0.013423292 0.05909598 -0.0036224853 0.012927394 -0.034323387 -0.009214403 0.0067404755
0.024452746 0.018726397 0.010167068 -0.02911387 -0.035101727 0.0071211583 -0.045388978 -0.01636116
-0.026082555 0.017907701 -0.04426591 -0.05971751 0.014907744 0.0031144503 0.00881291 -0.021100912
0.04799295 -0.0044080783 -0.030548869 0.030008437 0.0010322104 -0.008648814 -0.019055214 -0.006501917
-0.088166386 -0.07779666 -0.045674242 -0.05767416 -0.06891901 -0.053691782 -0.08008641 -0.06721132
-0.06843453 0.030896483 0.023207016 0.049548857 0.005234483 0.01391272 0.012346517 0.013962483
-0.014980706 -0.011451904 -0.016600935 -0.0010792443 0.0112029845 -0.011130118 -0.019575033 -0.06569904
-0.017679008 -0.044341546 -0.040165376 0.024498755 0.014663224 -0.0071183187 -0.043329734 -0.039703574
-0.048941426 -0.033146188 -0.02201669 -0.004068523 -0.007924962 0.0040596332 -0.021177858 0.021067178
0.04880046 0.0122680785 -0.017973142 -0.010231516 0.01702422 -0.0427814 0.021673853 -0.024825031
0.012488726 -0.011451872 0.023451673 0.031091541 0.0348431 0.008002778 -0.019066101 0.007948782
-0.00564062 0.02392416 -0.024639888 0.008191215 -0.028529013 -0.004317894 -0.032944627 -0.0378765
-0.02281587 0.014226162 -0.049990587 -0.025785513 -0.037836283 -0.05507197 0.013360862 -0.022195509
0.027997352 -0.016863015 0.03234505 0.03523336 0.005346075 -0.0033856565 0.014214304 0.0516803
0.014517106 -0.0411931 0.009858202 -0.020869566 -0.029436173 0.030877715 0.0049709897 -0.026561243
-0.014405925 0.014465799 -0.009668469 -0.027789911 -0.01769239 -0.029681103 0.016846197 0.02591574
0.02748807 -0.023520866 -0.032891996 -0.033019822 0.004449014 -0.06722346 -0.0074957632 -0.014771354
-0.04816487 -0.053575896 0.0072192852 -0.063691616 0.049134664 0.011885583 -0.0074759126 0.028574685
0.04391683 0.022543645 0.030690452 0.060314696 0.035329245 0.06030033 0.034741007 0.008373256
0.028254425 0.05404693 0.015981633 0.040817726 0.011931521 0.03335729 -0.01830752 -0.028435763
0.020297566 -0.013674009 -0.013564421 -0.05784831 0.011123516 0.014701682 0.018848043 0.002882994
0.012417735 0.010547439 -0.019732313 -0.014452135 -0.033780016 0.002197312 -0.0057433136 -0.007918969
-0.00686955 0.021650944 -0.038897265 -0.045953885 0.010733487 0.000982795 -0.041438814 0.011652172
-0.013373143 0.023456821 0.012527104 -0.047159992 0.0013862835 -0.004633602 -0.056493677 -0.007419473
-0.0213335 -0.021670412 -0.029638233 0.027192222 -0.041768666 0.034213543 -0.005064559 -0.03639885
0.009022522 0.0001938369 -0.034340456 0.029646318 0.016109036 0.032340053 0.039256014 -0.026749834
0.028566891 0.04095207 -0.018735548 0.0045216884 0.027630275 0.006900285 0.008997033 0.010308327
00000000: 9a40 cb3c 5c42 8e3d 5a35 3bbb 219b d63c
00000010: 8176 fbbb 6251 e53c a976 503c 2b79 473d
00000020: add1 593d 9585 ffbb 3681 8c3c 3120 e63c
00000030: 6d93 bf3b fe78 debb af43 143c 5f6a 1f3d
00000040: 859b 173d 61e7 133d a0e3 093c aa62 923c
00000050: 6f91 0bbb 156d 553d da3f e03b ca6c ee3c
00000060: 9ace 27bc 3ca8 813d 7299 5bbc 5032 f43c
00000070: 65cd 14bc bd34 603d d9e8 a5bb 3344 b03c
00000080: 5fd7 333d 6c0d 073d 89a1 fe3c ca12 ab3c
00000090: 2bcd 8dbb 5e3f 253d 9273 0b3c c87d 213c
000000a0: 5566 233d 5eed 5b3c a00e 723d 3867 6dbb
000000b0: 6ccd 533c ae96 0cbd 02f8 16bc 35df dc3b
000000c0: 2051 c83c 1a68 993c c693 263c 3680 eebc
000000d0: d4c6 0fbd 9b58 e93b cbe9 39bd d707 86bc
000000e0: 15ab d5bc 2cb3 923c 2c50 35bd 599a 74bd
000000f0: 9c3f 743c ce1b 4c3b 0664 103c d2db acbc
00000100: 4194 443d a471 90bb 9f41 fabc 41d4 f53c
00000110: 3c4b 873a c1b3 0dbc ae19 9cbc 080e d5bb
00000120: 9490 b4bd db53 9fbd ea14 3bbd bd3b 6cbd
00000130: 6925 8dbd eaeb 5bbd 5804 a4bd 17a6 89bd
00000140: 6727 8cbd 9f1a fd3c a41c be3c bef3 4a3d
00000150: 0786 ab3b 2df2 633c 0c49 4a3c e6c2 643c
00000160: a371 75bc c4a0 3bbc affe 87bc 6e75 8dba
00000170: b98c 373c 195b 36bc d25b a0bc 388d 86bd
00000180: 91d3 90bc 7b9f 35bd 7384 24bd 9db1 c83c
00000190: 053e 703c c940 e9bb 857a 31bd 37a0 22bd
000001a0: ce76 48bd 4cc4 07bd 585c b4bc 3f51 85bb
000001b0: b3d7 01bc ac06 853b 307d adbc 1395 ac3c
000001c0: fee2 473d 0d00 493c 693c 93bc 17a2 27bc
000001d0: 6176 8b3c 8d3b 2fbd 5d8d b13c dd5d cbbc
000001e0: 839d 4c3c a2a0 3bbc b91d c03c b0b3 fe3c
000001f0: a3b7 0e3d 151e 033c 8330 9cbc 9c3b 023c
00000200: f3d4 b8bb 9afc c33c 97d9 c9bc 7234 063c
00000210: adb5 e9bc 1f7d 8dbb f2f0 06bd 6424 1bbd
00000220: 59e8 babc d914 693c eec2 4cbd 243c d3bc
00000230: 38fa 1abd 2593 61bd 84e7 5a3c 5bd3 b5bc
00000240: b45a e53c 4e24 8abc 3e7c 043d db50 103d
00000250: 212e af3b e4e1 5dbb 1de3 683c b9ae 533d
00000260: 28d9 6d3c 19ba 28bd 4c84 213c a7f6 aabc
00000270: 2124 f1bc 43f3 fc3c afe3 a23b f796 d9bc
00000280: d406 6cbc f501 6d3c 8068 1ebc aba7 e3bc
00000290: a2ef 90bc c925 f3bc 0901 8a3c 3f4d d43c
000002a0: a92e e13c d5ae c0bc c2b9 06bd cb3f 07bd
000002b0: 09c9 913b 74ac 89bd 059f f5bb 8d03 72bc
000002c0: 8748 45bd 6672 5bbd c18f ec3b c070 82bd
000002d0: 6e41 493d c0bb 423c 80f8 f4bb 7515 ea3c
000002e0: 22e2 333d 73ad b83c 8b6a fb3c 8b0c 773d
000002f0: 66b5 103d 7bfd 763d 964c 0e3d fb2f 093c
00000300: d375 e73c 5060 5d3d eaeb 823c 7d30 273d
00000310: 6d7c 433c a7a1 083d a7f9 95bc 1ef2 e8bc
00000320: 1547 a63c f308 60bc 4e3d 5ebc 59f2 6cbd
00000330: 683f 363c 53df 703c 3667 9a3c 9df0 3c3b
00000340: c173 4b3c 2acf 2c3c a9a5 a1bc a6c8 6cbc
00000350: ea5c 0abd c700 103b 6832 bcbb 90be 01bc
00000360: f619 e1bb 525d b13c bd52 1fbd 243a 3cbd
00000370: 82db 2f3c 21d1 803a bfbb 29bd c0e8 3e3c
00000380: 071b 5bbc 8528 c03c 7b3e 4d3c d62a 41bd
00000390: f5b3 b53a 79d5 97bb ea65 67bd 0d1f f3bb
000003a0: 98c3 aebc 2686 b1bc e1cb f2bc 39c2 de3c
000003b0: 9f15 2bbd 8023 0c3d 9af4 a5bb f616 15bd
000003c0: 33d3 133c b240 4b39 94a8 0cbd d6dc f23c
000003d0: 19f7 833c 0177 043d eaca 203d 7822 dbbc
000003e0: 1d05 ea3c 5cbd 273d 4b7b 99bc ac2a 943b
000003f0: e358 e23c c91b e23b 4b68 133c 42e4 283c

model.6.bias f4 [3]
-0.022666236 0.026107058 0.033618998
00000000: 8bae b9bc 78de d53c 13b4 093d
