weights/ve_lol_dataset/capture/discriminator_weight.pth (torch, 310090 bytes, 5 tensors)

conv1.weight f4 [64, 3, 3, 3]
0.10279969 0.10427041 -0.10368034 -0.064681284 0.14410841 -0.18351942 0.010724977 0.10859722
-0.06250779 -0.04854755 -0.10479574 0.14155869 -0.044287 0.16345413 0.07867823 0.21178699
0.026530113 -0.13903154 0.033595487 0.039477836 -0.046622247 0.1782093 0.07095752 -0.17599733
0.16937499 0.13217062 0.02893667 -0.054584082 -0.09521521 0.15546672 -0.124325536 -0.060946275
0.22129698 0.015742823 -0.10815722 0.094195716 0.07044073 0.026858732 -0.085483976 -0.18252894
-0.11359245 -0.117125496 0.023179146 0.0019367193 0.1310697 -0.16523834 0.051557563 -0.115155876
0.08716454 0.1420638 0.16989383 -0.07975585 0.046442196 0.055823382 -0.017123321 0.08013673
-0.14080074 0.10745463 0.0960995 0.18088607 0.06349161 -0.08722136 -0.13148174 -0.018570755
-0.07279016 -0.17578235 -0.0068230503 0.019020597 -0.0015054115 0.03183324 -0.030779675 0.04061086
0.1002281 -0.101700634 0.20921667 -0.08481739 -0.13375911 0.14019842 0.17871115 0.10031641
0.09727237 0.15231048 0.08629923 0.052572727 0.1912076 0.18655933 0.16771318 -0.07231096
-0.12631576 0.05674111 -0.026360407 0.14491588 -0.040635213 -0.14290832 -0.07695605 -0.051533278
0.022394797 -0.041667584 -0.08108445 -0.17041838 -0.19105366 -0.011577509 -0.0258373 -0.07012817
-0.18573691 -0.1933369 -0.15350994 -0.20582362 -0.05673792 -0.021326222 -0.018323971 -0.023406474
-0.028478004 0.02465385 -0.13663839 0.055364233 0.018892461 -0.15776719 -0.22083959 0.09197024
0.00317598 -0.033964787 0.048931267 -0.17572443 0.0726019 0.09335673 -0.113182425 0.1697814
-0.037001263 0.040062226 -0.0868622 0.0681553 -0.09671621 -0.10753806 -0.080114596 0.11707077
-0.108324245 0.04369296 -0.017033447 0.023482967 0.13713098 -0.19003136 -0.1285378 -0.1755055
-0.0034704078 0.029618436 -0.15485495 -0.16398896 0.07569219 0.04753633 0.13419858 -0.21578397
-0.075113416 0.061911214 0.043403722 -0.16798273 -0.108192936 0.11544771 -0.08206072 0.16137892
-0.07986747 -0.12433036 0.1401059 -0.13797686 0.06428346 -0.16073683 0.12049915 0.19569153
0.13672285 -0.13837367 -0.06473361 0.18956766 0.13007662 0.008917903 0.10571368 -0.1675812
0.0705445 -0.09966754 -0.17824349 -0.13040093 0.16236502 0.07595178 -0.046260085 -0.076557815
-0.055872217 -0.112103574 0.030976156 -0.15351972 0.0079464745 -0.10585711 0.034986854 0.019170944
0.059664227 -0.11832322 0.15324932 -0.031044826 0.07125699 0.15759255 0.0075700083 -0.14089955
0.012882068 -0.07873883 -0.06813086 0.13141021 -0.04296342 0.11994705 -0.08323605 -0.23326777
-0.23356912 0.033236854 -0.09743716 -0.05349897 -0.15865181 0.058374852 0.09137338 0.087483175
0.0771008 -0.12677923 -0.023032801 -0.07761577 0.045996293 0.14689854 0.06428295 0.1492955
-0.0119672 -0.0704733 0.06871661 0.016359355 -0.029166391 -0.053331204 -0.097894914 0.22285351
0.014547794 0.1272175 0.12550204 0.13760035 -0.15432368 -0.11931759 0.12038599 -0.1854586
0.14361697 0.03419539 -0.057100505 0.06280647 -0.009968197 -0.088217594 -0.14886142 0.009829884
-0.07136193 0.03270411 -0.24923661 -0.10711786 0.053030755 -0.072634615 0.19716735 -0.1297578
00000000: a588 d23d ba8b d53d 5c56 d4bd 9f77 84bd
00000010: 2891 133e 84ec 3bbe d0b7 2f3c 3868 de3d
00000020: 1604 80bd ccd9 46bd 269f d6bd c3f4 103e
00000030: 4966 35bd 8560 273e 0d22 a13d b0de 583e
00000040: ae55 d93c 495e 0ebe 6c9b 093d 83b3 213d
00000050: f8f6 3ebd 807c 363e 2d52 913d a538 34be
00000060: a370 2d3e bc57 073e 980c ed3c 8f93 5fbd
00000070: 3100 c3bd ab32 1f3e 639e febd cda2 79bd
00000080: ad9b 623e 18f7 803c 8881 ddbd afe9 c03d
00000090: 3b43 903d d806 dc3c 3912 afbd dee8 3abe
000000a0: 29a3 e8bd 7edf efbd 31e2 bd3c 84d9 fd3a
000000b0: 2337 063e 3d34 29be 062e 533d d8d6 ebbd
000000c0: 5383 b23d 2c79 113e a6f8 2d3e 0957 a3bd
000000d0: 2c3a 3e3d 0fa7 643d 3546 8cbc ba1e a43d
000000e0: 122e 10be 2c11 dc3d d1cf c43d 333a 393e
000000f0: e407 823d 1da1 b2bd 26a3 06be b221 98bc
00000100: 0213 95bd 4a00 34be e593 dfbb 15d1 9b3c
00000110: 3a51 c5ba 9263 023d a825 fcbc 9357 263d
00000120: 6444 cd3d 6c48 d0bd e53c 563e bdb4 adbd
00000130: 26f8 08be 2d90 0f3e 0e00 373e b172 cd3d
00000140: bc36 c73d 47f7 1b3e a7bd b03d 8056 573d
00000150: edcb 433e 6909 3f3e 01bd 2b3e c517 94bd
00000160: eb58 01be 5e69 683d c8f1 d7bc d464 143e
00000170: 1c71 26bd 8f56 12be 229b 9dbd 8f14 53bd
00000180: 4b75 b73c a1ab 2abd 9b0f a6bd 2882 2ebe
00000190: 92a3 43be 98af 3dbc bfa8 d3bc 5c9f 8fbd
000001a0: d131 3ebe 1cfa 45be b631 1dbe 6dc3 52be
000001b0: 0566 68bd 54b4 aebc 271c 96bc efbe bfbc
000001c0: b44a e9bc dff6 c93c efea 0bbe 9bc5 623d
000001d0: 5dc4 9a3c b98d 21be c623 62be e55a bc3d
000001e0: 1a24 503b a91e 0bbd 276c 483d 1bf1 33be
000001f0: 4eb0 943d d031 bf3d 30cc e7bd 2ddb 2d3e
00000200: a38e 17bd 4a18 243d cfe4 b1bd 0295 8b3d
00000210: 2613 c6bd ea3c dcbd 1f13 a4bd cdc2 ef3d
00000220: 1ad9 ddbd 64f7 323d ba89 8bbc 5a5f c03c
00000230: 106c 0c3e 9597 42be 6a9f 03be b7b7 33be
00000240: c86f 63bb 5da2 f23c 4c92 1ebe b9ec 27be
00000250: 8204 9b3d 74b5 423d 5a6b 093e 79f6 5cbe
00000260: 10d5 99bd 9d96 7d3d 1ac8 313d aa03 2cbe
00000270: 4294 ddbd d96f ec3d 730f a8bd 8440 253e
00000280: 8e91 a3bd eaa0 febd ec77 0f3e ce49 0dbe
00000290: 0ca7 833d 3298 24be 42c8 f63d 5c63 483e
000002a0: 1301 0c3e d4b1 0dbe 0e93 84bd 061e 423e
000002b0: ce32 053e 651c 123c 6a80 d83d 689a 2bbe
000002c0: a379 903d 7f1e ccbd 7685 36be d287 05be
000002d0: 0443 263e 9b8c 9b3d 377b 3dbd 58ca 9cbd
000002e0: 44da 64bd 8f96 e5bd b5c1 fd3c 4634 1dbe
000002f0: ee31 023c 9dcb d8bd 604e 0f3d 620c 9d3c
00000300: 7a62 743d 7253 f2bd 64ed 1c3e b851 febc
00000310: 2fef 913d f15f 213e d50d f83b f947 10be
00000320: 4f0f 533c d341 a1bd 3188 8bbd 6690 063e
00000330: 69fa 2fbd cda6 f53d aa77 aabd bfdd 6ebe
00000340: be2c 6fbe 5e23 083d 228d c7bd bc21 5bbd
00000350: 9f75 22be 781a 6f3d f721 bb3d 612a b33d
00000360: 06e7 9d3d 6ad2 01be 49af bcbc 04f5 9ebd
00000370: 9c66 3c3d 926c 163e c7a6 833d ebe0 183e
00000380: 1312 44bc 4e54 90bd 4bbb 8c3d 0e04 863c
00000390: 5bee eebc d271 5abd 217d c8bd b633 643e
000003a0: df59 6e3c 4e45 023e 9b83 003e 1be7 0c3e
000003b0: 0707 1ebe c85c f4bd ee8c f63d dce8 3dbe
000003c0: 5410 133e 7710 0c3d 38e2 69bd aea0 803d
000003d0: a651 23bc 6dab b4bd 216f 18be 860d 213c
000003e0: 3426 92bd bff4 053d e237 7fbe 9c60 dbbd
000003f0: c736 593d 75c1 94bd 3de6 493e 3bdf 04be

conv1.bias f4 [64]
-0.078865185 0.20202872 0.018896177 0.028181069 0.039739802 0.051578015 -0.16046162 -0.047573484
-0.118468486 0.039832316 0.05373705 -0.028517041 -0.11357013 -0.02353048 0.101024576 0.014367442
0.10915675 -0.09395733 0.06797413 0.0053441823 0.1481654 0.071931064 -0.13661245 -0.13620245
0.029629517 0.120218575 -0.16151337 -0.23967002 -0.034368746 0.09508194 -0.053020634 -0.026681399
-0.08726499 0.037028715 0.16837524 -0.0062611653 -0.0883539 -0.048334196 0.062146313 -0.062260743
0.12793118 0.04565171 -0.069573835 -0.10094865 0.0019591225 0.08723727 -0.09406061 0.041205812
0.087489426 0.08075271 0.105738446 -0.099290274 -0.17832886 -0.16442978 -0.15806879 0.111261316
0.16595991 -0.17214668 0.1481877 0.043353394 -0.09542122 -0.029357094 0.13637811 0.064510606
00000000: 1284 a1bd 9ee0 4e3e 28cc 9a3c fcdb e63c
00000010: 34c6 223d 7843 533d 0d50 24be 6adc 42bd
00000020: 9b9f f2bd 3627 233d 621b 5c3d 929c e9bc
00000030: 7597 e8bd fec2 c0bc f9e5 ce3d 6b65 6b3c
00000040: 938d df3d b36c c0bd 0536 8b3d 401e af3b
00000050: acb8 173e 9850 933d 22e4 0bbe a878 0bbe
00000060: 9ab9 f23c 2835 f63d c363 25be 0f6c 75be
00000070: 3ec6 0cbd 52ba c23d 2a2c 59bd f392 dabc
00000080: fdb7 b2bd 6cab 173d 8f6a 2c3e 762a cdbb
00000090: e4f2 b4bd 14fa 45bd 228d 7e3d 1f05 7fbd
000000a0: 6400 033e 4afd 3a3d ba7c 8ebd 2abe cebd
000000b0: 9f64 003b 74a9 b23d d9a2 c0bd 6dc7 283d
000000c0: a82d b33d ad61 a53d 668d d83d b358 cbbd
000000d0: d79b 36be 4860 28be c9dc 21be f9dc e33d
000000e0: 65f1 293e 3847 30be 84be 173e 5493 313d
000000f0: 336c c3bd 4a7e f0bc b4a6 0b3e 231e 843d

conv2.weight f4 [128, 64, 3, 3]
-0.020184828 -0.06023016 -0.026935967 -0.057713933 -0.07291168 -0.06794727 -0.057388816 -0.06502187
-0.0012454365 0.05442167 0.03514757 0.054760896 0.010874382 0.07126581 0.04627666 0.044880603
0.08113575 0.07376951 -0.0410995 -0.013789827 -0.024445863 -0.016868586 -0.0016165746 -0.04469556
-0.001524279 -0.0173349 -0.038476102 -0.04693727 -0.031034593 0.014992316 -0.057200916 -0.036340952
-0.03827298 -0.037606586 0.017871395 0.011368223 0.0073039513 -0.03526522 -0.017354267 0.0046738065
0.00065953826 0.022921422 0.02551144 0.02479696 -0.008316649 0.07801249 0.072148345 0.034486245
0.05288446 0.04786804 0.07711156 0.09460567 0.07603259 0.09158296 -0.017520197 0.029701922
0.005814876 -0.02073344 0.0476554 -0.023737708 -0.03487039 -0.024532506 0.014647651 -0.028217299
-0.019230949 -0.03981835 0.03015012 -0.04688588 0.011074489 -0.023328176 -0.015821861 -0.010138944
0.012397118 0.013424544 -0.021085072 -0.054505732 -0.052496783 0.0020585842 -0.029129066 -0.026469447
-0.04631769 -0.040210664 -0.0070595844 -0.021259736 -0.018632296 -0.00043577788 -0.012688046 0.004504083
-0.007993564 -0.0076201316 0.051218245 0.03166152 0.026424963 0.034897733 -0.01871857 0.0022361672
0.053694684 -0.009020094 -0.014761156 -0.05158787 -0.048135407 -0.00038220506 -0.016823532 -0.018996885
-0.009510258 -0.062114075 -0.01370841 0.00833265 -0.021573821 0.018808164 0.025034763 0.010424519
-0.021797044 -0.0023160442 0.02608479 -0.017517986 -0.006641011 -0.004016792 -0.020240776 -0.046427492
-0.052345425 0.017691048 -0.0583675 -0.0017682519 -0.018894712 0.016099317 -0.043553542 -0.010607277
-0.034327254 -0.025551 -0.029565884 -0.035127986 -0.0060212603 -0.03015568 -0.0088436585 -0.045589194
-0.037524242 0.018996034 -0.055356413 -0.028209684 -0.027397027 0.015183079 -0.039393835 0.0027176805
0.012313762 0.044473104 -0.015441375 -0.0063257725 0.014179202 0.02178103 0.023320515 -0.022305211
-0.023912312 -0.032244995 -0.061674222 -0.012603812 -0.006577137 -0.006635444 -0.012885406 -0.01446126
-0.0348787 -0.03228219 -0.0073528304 -0.006028925 0.032945704 0.014089543 -0.021587381 0.02343154
-0.0011079791 0.030604199 0.027091064 0.014472608 0.039912153 0.015028902 0.037794042 0.04314532
-0.0066005606 0.004269166 0.011557574 -0.009259425 -0.005097783 0.03471419 0.034167513 0.009045506
0.0530126 0.028152565 -0.012742893 0.051104292 0.03008994 0.039070778 -0.0058185025 0.004515807
0.069491856 0.010078604 0.021348344 0.006352273 0.05272977 0.06599894 -0.017371561 0.0040553818
-0.012510123 -0.045006998 -0.022777768 -0.057226725 -0.056481246 -0.059060056 0.0036068026 0.0011800925
-0.07477281 -0.0137343 -0.034101505 -0.009658597 -0.004765457 -0.05637662 -0.026019126 -0.0646278
-0.034074407 0.034395926 -0.010991002 -0.02606827 -0.01818753 0.038029198 0.03921235 0.03759431
0.013068564 0.008409329 0.024749208 0.037898663 0.04196216 0.043772683 -0.036514353 0.008014198
-0.011681755 0.022909138 -0.007745382 0.011849605 -0.038468856 -0.027602244 -0.028651644 0.0056633092
-0.019606644 -0.020681841 -0.02033154 -0.01841609 -0.0032413935 -0.05897065 0.008783124 -0.034008875
0.015047168 -0.022644635 -0.013617265 -0.02700313 -0.052086797 -0.0123830205 -0.02924664 0.010353618
00000000: a75a a5bc e6b3 76bd d1a8 dcbc 7265 6cbd
00000010: b852 95bd f027 8bbd 8910 6bbd 302a 85bd
00000020: ea3d a3ba 42e9 5e3d e6f6 0f3d f64c 603d
00000030: 772a 323c cff3 913d 988c 3d3d b9d4 373d
00000040: 802a a63d 7814 973d f357 28bd baee 61bc
00000050: b142 c8bc fd2f 8abc 3ee3 d3ba b112 37bd
00000060: 51ca c7ba ec01 8ebc 1e99 1dbd 4b41 40bd
00000070: 423c febc 55a2 753c 824b 6abd 40da 14bd
00000080: 21c4 1cbd 5d09 1abd 0867 923c c841 3a3c
00000090: fc55 ef3b 4372 10bd 892a 8ebc bb26 993b
000000a0: dde4 2c3a b5c5 bb3c 5efd d03c ff22 cb3c
000000b0: 8e42 08bc 03c5 9f3d 83c2 933d 7341 0d3d
000000c0: 609d 583d 4711 443d aaec 9d3d 9ec0 c13d
000000d0: f9b6 9b3d d98f bb3d 8486 8fbc 7251 f33c
000000e0: b78a be3b 2dd9 a9bc 4f32 433d 9575 c2bc
000000f0: 41d4 0ebd 65f8 c8bc b4fc 6f3c f727 e7bc
00000100: 398a 9dbc 9118 23bd 62fd f63c 690b 40bd
00000110: c671 353c bb1a bfbc d99c 81bc d01d 26bc
00000120: 481d 4b3c 9ef2 5b3c 9aba acbc 6741 5fbd
00000130: de06 57bd 50e9 063b 14a0 eebc 74d6 d8bc
00000140: 9eb7 3dbd f0b3 24bd 1654 e7bb e628 aebc
00000150: c2a2 98bc 1e79 e4b9 86e1 4fbc fd96 933b
00000160: 70f7 02bc 4cb2 f9bb 39ca 513d 83af 013d
00000170: 2a79 d83c edf0 0e3d b057 99bc a98c 123b
00000180: f5ee 5b3d 04c9 13bc c7d8 71bc cd4d 53bd
00000190: a229 45bd b262 c8b9 81d1 89bc 5b9f 9bbc
000001a0: ead0 1bbc 546b 7ebd 3d99 60bc ab85 083c
000001b0: 95bb b0bc 9413 9a3c b415 cd3c 9acb 2a3c
000001c0: b78f b2bc c6c8 17bb c5af d53c e181 8fbc
000001d0: d79c d9bb 4b9f 83bb fccf a5bc c12a 3ebd
000001e0: 2868 56bd d1ec 903c c212 6fbd b0c4 e7ba
000001f0: 15c9 9abc b7e2 833c 3365 32bd 25ca 2dbc
00000200: bc9a 0cbd 5550 d1bc 2734 f2bc 5de2 0fbd
00000210: fe4d c5bb 0b09 f7bc fee4 10bc bcbb 3abd
00000220: 05b3 19bd 929d 9b3c 68bd 62bd ff17 e7bc
00000230: bb6f e0bc 73c2 783c 6e5b 21bd 1d1b 323b
00000240: a9bf 493c 6e29 363d d2fd 7cbc 6d48 cfbb
00000250: e24f 683c 216e b23c aa0a bf3c 6bb9 b6bc
00000260: c1e3 c3bc 5413 04bd 1c9e 7cbd 3880 4ebc
00000270: 0685 d7bb 236e d9bb 4f1d 53bc ecee 6cbc
00000280: f8dc 0ebd 543a 04bd 03f0 f0bb 4a8e c5bb
00000290: 13f2 063d d4d7 663c 05d8 b0bc 80f3 bf3c
000002a0: 9c39 91ba a8b5 fa3c 14ee dd3c 851e 6d3c
000002b0: ed7a 233d c93b 763c edcd 1a3d 26b9 303d
000002c0: 8449 d8bb 5ce4 8b3b fb5b 3d3c d8b4 17bc
000002d0: 4e0b a7bb 7730 0e3d 3cf3 0b3d 9a33 143c
000002e0: bd23 593d 35a0 e63c 91c7 50bc bc52 513d
000002f0: 2e7f f63c ae08 203d 23a9 bebb 56f9 933b
00000300: bf51 8e3d bb20 253c b9e2 ae3c ba26 d03b
00000310: 2cfb 573d 742a 873d ce4e 8ebc 02e3 843b
00000320: 42f7 4cbc 4259 38bd 7198 babc 9266 6abd
00000330: e158 67bd f5e8 71bd 1b60 6c3b 55ad 9a3a
00000340: 7d22 99bd d405 61bc 05ae 0bbd 183f 1ebc
00000350: 8d27 9cbb 2ceb 66bd 1026 d5bc 945b 84bd
00000360: 9b91 0bbd bee2 0c3d 9b13 34bc 208d d5bc
00000370: 04fe 94bc 81c4 1b3d 219d 203d 7efc 193d
00000380: 881d 563c 48c7 093c dabe ca3c a13b 1b3d
00000390: 84e0 2b3d fc4a 333d 1390 15bd fc4d 033c
000003a0: d564 3fbc f2ab bb3c f9cc fdbb d824 423c
000003b0: 8591 1dbd 1a1e e2bc dab6 eabc 4893 b93b
000003c0: 1d9e a0bc f76c a9bc 548e a6bc 57dd 96bc
000003d0: 8f6d 54bb 358b 71bd 18e7 0f3c e44c 0bbd
000003e0: 6688 763c 3e81 b9bc f31a 5fbc ab35 ddbc
000003f0: f758 55bd 27e2 4abc a696 efbc 39a2 293c

conv2.bias f4 [128]
0.040412262 0.00862635 -0.022869563 0.041830942 0.006333486 -0.018212426 -0.054023232 0.016536616
-0.028855592 -0.007450576 0.008186138 -0.012079174 0.009246686 0.04797613 -0.014535417 -0.019821096
-0.10170576 -0.010505326 -0.0223347 0.033633407 -0.024202444 -0.0067475876 0.0056462917 0.00056329736
-0.0049807774 -0.040323153 -0.029663756 -0.026095958 -0.029230937 -0.0034543797 -0.037400004 -0.008026176
-0.0013384655 0.011127303 -0.051810004 -0.03639957 0.00071073 -0.03572062 0.033721652 -0.03331087
-0.034399558 -0.021707883 -0.000795457 -0.03697186 -0.0063717025 -0.0312949 -0.023575965 -0.01395799
0.058463477 -0.0228025 0.06750358 0.037694514 0.015484778 -0.016286768 -0.017329339 -0.047098253
0.002801818 -0.0186528 -0.041101463 -0.0478463 0.028883697 0.038542412 -0.024187643 0.024812723
-0.015484159 -0.034848664 -0.045317486 -0.04605129 -0.01494167 -0.036166124 -0.013965286 -0.03194784
-0.04186934 -0.0076372405 -0.05465618 -0.011336521 0.020612674 0.08349213 -0.0037767163 -0.04607225
0.0036857075 -0.050935555 0.019873396 -0.0003560506 0.0068048793 -0.03893865 0.027147066 0.04022968
0.011756461 -0.0067583616 -0.006321481 0.031647522 0.021181142 0.012766482 -0.04025086 0.016557736
-0.0074379765 -0.026034646 -0.004936305 -0.007418365 0.039692722 -0.038339756 0.010211648 0.05513403
-0.039991498 -0.03593476 -0.045277428 -0.011299336 -0.043556314 0.026619617 -0.039143566 0.004939904
-0.028904065 -0.03915608 0.008506482 -0.03680415 0.042026266 -0.026019616 0.02483191 -0.0063884095
0.024188062 -0.03703075 0.019683251 0.035555437 -0.012506499 -0.042083535 0.0016417587 -0.035174794
00000000: 5487 253d 8955 0d3c f358 bbbc ec56 2b3d
00000010: 2289 cf3b 3a32 95bc 7747 5dbd cc77 873c
00000020: 9062 ecbc f623 f4bb 271f 063c bae7 45bc
00000030: 697f 173c 9e82 443d f525 6ebc da5f a2bc
00000040: 1c4b d0bd 881e 2cbc 43f7 b6bc 2fc3 093d
00000050: 3444 c6bc de1a ddbb 8704 b93b 3faa 133a
00000060: ca35 a3bb e429 25bd 6801 f3bc 31c7 d5bc
00000070: b875 efbc e062 62bb bf30 19bd 3980 03bc
00000080: 736f afba 4b4f 363c ba36 54bd b717 15bd
00000090: 4850 3a3a c94f 12bd b71f 0a3d fb70 08bd
000000a0: 8de6 0cbd bbd4 b1bc 3786 50ba ce6f 17bd
000000b0: b7c9 d0bb 152f 00bd 6222 c1bc 0eb0 64bc
000000c0: 6677 6f3d 4fcc babc 513f 8a3d 9065 1a3d
000000d0: deb3 7d3c d46b 85bc 42f6 8dbc 19ea 40bd
000000e0: b59e 373b c2cd 98bc 025a 28bd 7bfa 43bd
000000f0: 819d ec3c a6de 1d3d 2a25 c6bc 0d44 cb3c
00000100: 45b1 7dbc 79bd 0ebd d49e 39bd 47a0 3cbd
00000110: e8cd 74bc ee22 14bd a8ce 64bc bddb 02bd
00000120: 2f7f 2bbd d141 fabb 29df 5fbd d1bc 39bc
00000130: e9db a83c ecfd aa3d c982 77bb 41b6 3cbd
00000140: e98b 713b cda1 50bd 88cd a23c 4dac bab9
00000150: 77fb de3b 227e 1fbd 8663 de3c e0c7 243d
00000160: 2c9e 403c 3f75 ddbb 6d24 cfbb d5a0 013d
00000170: 1384 ad3c 822a 513c 16de 24bd 17a4 873c
00000180: 45ba f3bb 9c46 d5bc bac0 a1bb c215 f3bb
00000190: d694 223d 260a 1dbd c24e 273c 38d4 613d
000001a0: 20ce 23bd 5430 13bd d374 39bd da20 39bc
000001b0: 1b68 32bd 6211 da3c 0155 20bd ebde a13b
000001c0: 38c8 ecbc 2062 20bd c55e 0b3c f3bf 16bd
000001d0: bc23 2c3d 1727 d5bc 4a6c cb3c dd55 d1bb
000001e0: 0b26 c63c 8ead 17bd c53e a13c 94a2 113d
000001f0: 0fe8 4cbc c95f 2cbd 4830 d73a 7213 10bd

conv3.weight f4 [1, 128, 3, 3]
0.006818161 -0.0016682795 0.013037208 0.01131813 -0.0073897243 0.025292173 0.030958286 0.0076270504
0.028969929 -0.011813392 -0.01052035 -0.015841007 -0.03028505 -0.0056580184 -0.029277457 0.013150175
-0.015652528 -0.00090486277 -0.016917067 0.00046820528 0.00015720367 -0.021786332 -0.030823126 -0.015869178
-0.035008352 -0.021198478 0.0015898568 0.0033046892 -0.014777488 -0.032080524 -0.0005716165 0.004013665
0.01478282 0.019935165 -0.0011629461 0.016371336 0.022138316 0.015524783 -0.014377986 0.014187542
0.017075209 -0.002775082 -0.015863715 -0.011346099 0.011682767 0.010615801 0.0052601644 -0.015538577
0.0078572035 -0.004093684 0.02377956 0.010021992 0.020880282 0.009905121 -0.0044396725 0.024505071
-0.0091259545 -0.016153168 -0.010712394 0.005991278 -0.009836407 0.02440116 -0.0030772393 -0.0009880039
-0.0016600731 0.02268601 -0.01621412 0.020602165 -0.0053237258 0.01665776 -0.013356674 0.015009933
0.016522871 0.018521395 0.027390404 -0.027155105 0.017706376 0.020669617 -0.023953643 0.031514317
-0.019714713 -0.026324473 0.018990139 0.020913485 -0.021992764 0.0035147548 0.008425103 0.0060125813
-0.014480968 0.0046650223 0.028702345 -0.017376846 -0.02502559 0.023487236 -0.011579254 -0.029396884
-0.0097464 -0.018600505 0.0034596508 0.0023696532 -0.01637171 0.008811186 0.011586149 0.010666864
-0.01768983 0.013125051 -0.01191124 -0.018448388 -0.023146935 0.0076578795 0.009687397 -0.005358445
-0.015654294 -0.015849324 -0.021761596 -0.047523946 -0.03504153 -0.015702393 -0.017400911 -0.0058698067
-0.008142629 0.030698422 -0.0001622845 0.028604828 0.0005931281 0.0081486665 0.027122391 -0.0135395415
0.031087453 0.027646817 -0.0108058965 0.041308045 -0.0029030077 0.0414434 -0.004537247 0.032115247
-0.015842328 0.026020965 0.014088125 0.016715826 -0.01868808 0.008677052 -0.018570665 -0.016259117
0.008373516 -0.01501809 0.03353425 0.025777591 -0.013995769 0.022490943 0.035660814 0.033046164
0.010678121 -0.008485071 -0.0245177 0.008520322 0.0044502304 0.00783446 -0.0062667467 0.013954079
0.017279798 -0.009466978 -0.03029396 -0.010869483 -0.037473366 -0.0067246696 -0.034120724 -0.018208314
-0.004208619 -0.051061913 -0.04677821 -0.033997655 0.01142426 -0.0038245132 -0.0036423064 0.0006664407
0.0070440955 0.007650222 0.012869098 0.004639932 0.019603895 -0.010046004 -0.014226306 0.028977675
-0.00050942134 -0.0035677766 -0.015203812 0.031613987 0.03594819 0.0066731614 -0.037167262 -0.042387094
-0.002457003 -0.034392186 -0.030526794 -0.009838063 -0.045611154 0.006040525 -0.019544804 -0.054459196
-0.005482786 -0.02427538 -0.045515634 -0.046403628 -0.048457228 -0.030312456 -0.043385323 0.007477467
0.021267598 0.006160509 0.024138711 0.0015599586 0.013873721 -0.008815019 0.02312326 -0.030352315
-0.024786964 -0.00093693257 -0.022780966 -0.018364847 0.02234635 0.0077847433 -0.0059418124 0.019774633
0.007850201 0.022198256 -0.015835118 0.0016598104 0.026254311 0.0011657231 -0.02188653 -0.0019103189
-0.024748629 -0.014315944 0.028041614 0.025596844 -0.01868975 -0.017063832 0.028118568 0.019113764
0.018060924 -0.0044630473 0.025733387 -0.021858962 -0.02250395 -0.0077799084 -0.026139926 0.009548894
-0.03573112 -0.038368654 -0.0011284165 -0.00025465977 -0.012860682 -0.004271447 -0.0152695235 0.011205639
00000000: e16a df3b 2caa daba 039a 553c ae6f 393c
00000010: 8025 f2bb 8831 cf3c 3b9c fd3c 56ec f93b
00000020: 5852 ed3c f58c 41bc 8c5d 2cbc 00c5 81bc
00000030: 5a18 f8bc e666 b9bb 47d7 efbc d573 573c
00000040: bb39 80bc 5034 6dba a995 8abc 7379 f539
00000050: 0ad7 2439 4079 b2bc c880 fcbc 1400 82bc
00000060: eb64 0fbd 6ea8 adbc be62 d03a 7c93 583b
00000070: 471d 72bc de66 03bd 89d8 15ba 1085 833b
00000080: a433 723c 124f a33c ff6d 98ba 2e1d 863c
00000090: 6a5b b53c a95b 7e3c a591 6bbc dd72 683c
000000a0: 4fe1 8b3c 26de 35bb 9ff4 81bc fde4 39bc
000000b0: 1469 3f3c e6ed 2d3c 755d ac3b 8495 7ebc
000000c0: 80bb 003c 4f24 86bb 5acd c23c 4833 243c
000000d0: 200d ab3c 1749 223c ac7a 91bb dcbe c83c
000000e0: 0785 15bc a653 84bc 0983 2fbc 7c52 c43b
000000f0: e228 21bc f1e4 c73c 82ab 49bb e97f 81ba
00000100: cf96 d9ba 03d8 b93c 79d3 84bc dfc5 a83c
00000110: a672 aebb db75 883c f4d5 5abc 39ec 753c
00000120: f95a 873c 2eba 973c d761 e03c 6274 debc
00000130: f60c 913c 5453 a93c 6e3a c4bc 2815 013d
00000140: c080 a1bc 6ca6 d7bc 3591 9b3c c252 ab3c
00000150: 2b2a b4bc cd57 663b 7109 0a3c 3005 c53b
00000160: 9541 6dbc 0bdd 983b 2e21 eb3c e359 8ebc
00000170: 7702 cdbc 4e68 c03c e9b6 3dbc bcd1 f0bc
00000180: 5daf 1fbc 1660 98bc 4fbb 623b 2f4c 1b3b
00000190: f71d 86bc cb5c 103c d5d3 3d3c 12c4 2e3c
000001a0: 43ea 90bc 740a 573c 5d27 43bc 1321 97bc
000001b0: a49e bdbc f3ee fa3b e3b7 1e3c e595 afbb
000001c0: 6f3d 80bc 71d6 81bc 6045 b2bc 78a8 42bd
000001d0: b587 0fbd 4ea2 80bc 5b8c 8ebc 8257 c0bb
000001e0: a968 05bc 427b fb3c ea2a 2ab9 ac54 ea3c
000001f0: 277c 1b3a fc81 053c c72f de3c f4d4 5dbc
00000200: 1dab fe3c 947b e23c 370b 31bc a032 293d
00000210: 6340 3ebb 8ec0 293d 30ad 94bb 478b 033d
00000220: c5c7 81bc eb29 d53c e1d1 663c a1ef 883c
00000230: bf17 99bc 322a 0e3c 8221 98bc d731 85bc
00000240: 1231 093c 6f0e 76bc 365b 093d 872b d33c
00000250: 834e 65bc ed3e b83c 1311 123d 6a5b 073d
00000260: 49f3 2e3c f804 0bbc 58d9 c8bc d298 0b3c
00000270: 3dd3 913b 1b5c 003c 4859 cdbb a69f 643c
00000280: 5d8e 8d3c 621b 1bbc 0a2b f8bc eb15 32bc
00000290: ac7d 19bd 9e5a dcbb 2cc2 0bbd 9a29 95bc
000002a0: 74e8 89bb 4c26 51bd 829a 3fbd 2041 0bbd
000002b0: d22c 3b3c afa4 7abb c3b3 6ebb 14b4 2e3a
000002c0: 28d2 e63b b7ae fa3b e9d8 523c 920a 983b
000002d0: 5998 a03c ff97 24bc 7415 69bc 9762 ed3c
000002e0: b08a 05ba 5cd1 69bb 6919 79bc ab7d 013d
000002f0: 693e 133d 89aa da3b b33c 18bd 179e 2dbd
00000300: ac05 21bb d2de 0cbd 5413 fabc d42f 21bc
00000310: c3d2 3abd 99ef c53b 6d1c a0bc 9b10 5fbd
00000320: f1a8 b3bb 29dd c6bc 9a6e 3abd bb11 3ebd
00000330: 167b 46bd d451 f8bc cfb4 31bd 8a05 f53b
00000340: 6339 ae3c 18de c93b 8cbe c53c 8677 cc3a
00000350: 9a4e 633c df6c 10bc fe6c bd3c 6ba5 f8bc
00000360: 080e cbbc 7b9c 75ba 269f babc e071 96bc
00000370: b10f b73c 2917 ff3b 89b3 c2bb 69fe a13c
00000380: 219e 003c 1ed9 b53c a6b8 81bc ff8d d93a
00000390: 4813 d73c 2dcb 983a 614b b3bc aa63 faba
000003a0: a3bd cabc 6c8d 6abc 87b7 e53c 79b0 d13c
000003b0: 3f1b 99bc 73c9 8bbc e958 e63c 7894 9c3c
000003c0: 81f4 933c c13e 92bb d3ce d23c 9111 b3bc
000003d0: 345a b8bc 9aee febb 6623 d6bc f772 1c3c
000003e0: cb5a 12bd 7328 1dbd 60e7 93ba db83 85b9
000003f0: 9cb5 52bc 7ff7 8bbb 062d 7abc db97 373c
