weights/ve_lol_dataset/capture/discriminator_weight.pth (torch, 310090 bytes, 5 tensors)

conv1.weight f4 [64, 3, 3, 3]
0.017271355 -0.03145674 0.040652428 0.052013375 0.15721603 -0.12691958 -0.069615826 0.09242625
0.04359622 -0.104592845 0.16600618 -0.1269274 -0.17632756 -0.036043894 -0.13208924 0.0317795
-0.15725458 0.051860083 0.08304207 -0.13322046 -0.06950679 -0.19130987 -0.14085779 -0.027070167
-0.08872034 -0.101488136 -0.051922683 -0.097057626 0.08676697 -0.08112174 0.07182326 -0.10621127
0.09639099 0.09667751 -0.1356941 0.06256503 -0.108302645 -0.14985386 0.145717 -0.040960725
0.069996044 0.037380107 -0.1481056 0.10033141 9.2678165e-05 -0.14043577 -0.13864371 -0.16668901
0.009765689 0.16470209 -0.13420044 0.17695801 -0.041152842 -0.07112408 0.022905411 -0.0072335824
0.027283426 0.056589764 -0.16858883 -0.07825323 0.19617403 0.16377577 0.083625555 -0.122023016
0.0010348138 -0.10758933 0.028897407 -0.11484946 -0.085614696 0.16025178 0.0885503 -0.03971554
0.08918565 -0.10061722 0.17147788 -0.0010037512 -0.12918462 0.18275698 0.18239261 -0.05047555
0.038752194 0.082398854 0.0524518 -0.08061981 0.10638831 -0.10423877 0.04905906 -0.17893712
-0.16208015 0.1457646 0.1648649 -0.00079056213 0.02757808 -0.098153725 -0.17777804 -0.021388717
0.044925086 0.11535467 -0.06779739 0.085345946 0.011147284 -0.082788564 -0.054128714 0.20144008
0.0249012 -0.14374235 0.17032851 -0.15310396 -0.09417428 -0.08175129 -0.119403414 -0.035437334
-0.049748726 0.13331258 0.07414678 0.075625435 0.16367076 -0.09638314 0.1558881 -0.039870232
-0.022397153 0.04347971 -0.058511745 0.034973394 0.17073391 0.04462592 0.07513963 0.17327176
0.086761706 -0.019454367 0.18219133 0.069626935 -0.06005739 -0.090943 -0.085106835 0.0070621683
-0.03970786 0.079482615 0.11691945 0.030544221 0.1597604 0.10387354 -0.16862817 -0.18695365
0.16982436 -0.09780453 0.14316832 -0.02347685 0.101314366 -0.15767251 -0.015382939 0.16868259
0.15774126 0.18685046 0.055978134 -0.0530181 -0.0645781 0.07740257 0.19550474 0.09088794
0.06782083 0.015347656 0.04244937 0.015229273 0.20650624 0.17942934 -0.09392105 0.07843305
-0.08777101 -0.16481967 -0.12428412 -0.136466 -0.1365557 0.123412415 -0.20623042 -0.072473906
0.12508488 -0.041748356 0.133781 0.0053043747 -0.10979651 -0.07136989 0.09719854 0.11170768
-0.059790686 -0.12726952 0.09849588 0.16652375 0.06748777 -0.15027983 0.16080801 0.06634575
-0.014102085 0.05704814 -0.06182813 0.10251366 -0.13889624 -0.07222753 -0.035488226 0.112770565
-0.044655968 -0.1675908 0.18921715 -0.030823726 -0.13704665 -0.0466167 -0.06563141 0.023063285
-0.049300265 -0.122184664 -0.16231917 -0.06253587 0.03861832 0.19346814 -0.17267956 0.04103418
0.064243466 -0.008582955 -0.0742512 0.1332213 0.0886236 -0.12803161 0.11832694 -0.098481335
-0.034209605 -0.1016488 -0.08555633 -0.02020833 -0.028028606 0.15723914 0.015668977 -0.0095081115
-0.03713112 -0.18766914 -0.043876674 -0.15186974 0.15621379 0.08908767 0.047012683 0.1096959
0.01996556 0.06778539 0.060224902 -0.08848862 0.14605178 0.03827571 -0.1177466 -0.062271867
-0.17262845 0.124271974 0.031089202 0.15886243 -0.02892035 0.087856255 -0.079193026 -0.015797446
00000000: a87c 8d3c c8d8 00bd 2983 263d fa0b 553d
00000010: 3dfd 203e 35f7 01be be92 8ebd f949 bd3d
00000020: f391 323d c634 d6bd 86fd 293e 42f9 01be
00000030: 368f 34be c3a2 13bd 6742 07be 392b 023d
00000040: 5807 21be 3d6b 543d f611 aa3d f26a 08be
00000050: 9359 8ebd bce6 43be 063d 10be 41c2 ddbc
00000060: 02b3 b5bd 03d9 cfbd e1ac 54bd 26c6 c6bd
00000070: e2b2 b13d 2823 a6bd 1318 933d 4b85 d9bd
00000080: a468 c53d dcfe c53d 65f3 0abe 1822 803d
00000090: c7cd ddbd 4a73 19be d636 153e 6fc6 27bd
000000a0: 165a 8f3d e21b 193d ffa8 17be 8e7a cd3d
000000b0: 365c c238 65ce 0fbe 9ef8 0dbe 86b0 2abe
000000c0: 4500 203c aaa7 283e d76b 09be 7b34 353e
000000d0: e28f 28bd 80a9 91bd 21a4 bb3c b007 edbb
000000e0: 7e81 df3c abca 673d 8da2 2cbe 3b43 a0bd
000000f0: d8e1 483e d6b4 273e e043 ab3d 34e7 f9bd
00000100: 97a2 873a cb57 dcbd 41ba ec3c 3236 ebbd
00000110: c256 afbd 0b19 243e dc59 b53d c3ac 22bd
00000120: f7a6 b63d 6710 cebd e697 2f3e 4d90 83ba
00000130: f948 04be a524 3b3e 21c5 3a3e 73bf 4ebd
00000140: 9fba 1e3d bbc0 a83d b3d7 563d 001c a5bd
00000150: 1de2 d93d 237b d5bd 27f2 483d 4b3b 37be
00000160: 57f8 25be 5143 153e 58d2 283e ba3d 4fba
00000170: 6deb e13c d204 c9bd 720b 36be 6437 afbc
00000180: 5e03 383d 123f ec3d 5cd9 8abd dbc9 ae3d
00000190: 19a3 363c 0d8d a9bd 12b6 5dbd 4f46 4e3e
000001a0: 9afd cb3c 3231 13be 996a 2e3e 49c7 1cbe
000001b0: 72de c0bd 386d a7bd c789 f4bd bd26 11bd
000001c0: 52c5 4bbd 1883 083e 44da 973d 82e1 9a3d
000001d0: 4f99 273e 8664 c5bd 21a1 1f3e f84e 23bd
000001e0: 3c7a b7bc c817 323d 03aa 6fbd 4340 0f3d
000001f0: dfd4 2e3e abc9 363d cee2 993d 276e 313e
00000200: 1fb0 b13d c45e 9fbc 5d90 3a3e 9198 8e3d
00000210: bdfe 75bd 5340 babd 7e4c aebd c369 e73b
00000220: b6a4 22bd c8c7 a23d 7773 ef3d e037 fa3c
00000230: 3b98 233e a7bb d43d ddac 2cbe c770 3fbe
00000240: 70e6 2d3e be4d c8bd b79a 123e 8652 c0bc
00000250: e87d cf3d e774 21be b908 7cbc 21bb 2c3e
00000260: ed86 213e ba55 3f3e 5449 653d 8229 59bd
00000270: 8641 84bd 3d85 9e3d 6532 483e 7523 ba3d
00000280: a6e5 8a3d bc74 7b3c 64df 2d3d 3384 793c
00000290: 5f76 533e 53bc 373e ae59 c0bd 82a1 a03d
000002a0: 4ac1 b3bd 7dc6 28be ac88 febd bebd 0bbe
000002b0: 42d5 0bbe a6bf fc3d 112e 53be 336d 94bd
000002c0: 4016 003e 5300 2bbd e3fd 083e 52d0 ad3b
000002d0: fedc e0bd 602a 92bd 0710 c73d ffc6 e43d
000002e0: 14e7 74bd f152 02be 35b8 c93d 3485 2a3e
000002f0: 0737 8a3d f5e2 19be dbaa 243e 48e0 873d
00000300: 6e0c 67bc 4fab 693d 7e3f 7dbd aff2 d13d
00000310: d13a 0ebe 07ec 93bd 1a5c 11bd 41f4 e63d
00000320: 2de9 36bd ec9c 2bbe 24c2 413e 0a82 fcbc
00000330: f555 0cbe 27f1 3ebd c369 86bd 37ef bc3c
00000340: 13ef 49bd f43b fabd ff36 26be ce12 80bd
00000350: 3e2e 1e3d 831c 463e e9d2 30be 7513 283d
00000360: 1492 833d 869f 0cbc 0311 98bd 2a6b 083e
00000370: 4a80 b53d b81a 03be 6555 f23d 95b0 c9bd
00000380: 5f1f 0cbd 3f2d d0bd 2838 afbd f18b a5bc
00000390: 3f9c e5bc 4c03 213e 3a5c 803c e9c7 1bbc
000003a0: cd16 18bd 572c 40be 07b8 33bd be83 1bbe
000003b0: 82f6 1f3e 9973 b63d 5f90 403d 3ea8 e03d
000003c0: d08e a33c 11d3 8a3d 63ae 763d 8639 b5bd
000003d0: 998e 153e fec6 1c3d 2125 f1bd c910 7fbd
000003e0: 83c5 30be 4e82 fe3d c8ae fe3c d5ac 223e
000003f0: 5fea ecbc fbed b33d f42f a2bd a569 81bc

conv1.bias f4 [64]
0.112205975 -0.028617663 -0.08041128 -0.00737185 -0.10864453 -0.0014831002 -0.091324 -0.013743983
-0.21307234 -0.23303713 0.044395186 0.14976081 0.039004974 0.01986344 -0.11288991 -0.07321202
0.1029409 0.10527962 -0.012905754 0.11938891 0.1165045 -0.017551199 0.053870637 -0.044113692
-0.10061664 0.048056636 -0.026533624 -0.123014405 0.060832135 0.08579622 0.1139144 0.047931205
0.042347953 -0.12662953 -0.08593694 -0.08836436 0.043475356 -0.1327884 0.14153056 -0.08617801
0.0058100414 0.12257642 -0.12484642 0.10631955 -0.1201341 0.14046356 0.077146865 0.15740709
0.06748324 -0.12130937 -0.08424454 0.12068771 0.057919536 -0.029907364 -0.15120137 0.04040793
-0.031527452 -0.05801889 -0.003907221 -0.026059138 0.061093565 -0.1661659 -0.11837423 -0.060137346
00000000: 3fcc e53d 976f eabc abae a4bd 8f8f f1bb
00000010: 0681 debd 9664 c2ba 1408 bbbd 712e 61bc
00000020: a32f 5abe 49a1 6ebe bad7 353d e65a 193e
00000030: aec3 1f3d a7b8 a23c d332 e7bd 2ff0 95bd
00000040: aed2 d23d d79c d73d a872 53bc 2c82 f43d
00000050: e999 ee3d 88c7 8fbc 75a7 5c3d 8fb0 34bd
00000060: 1910 cebd 09d7 443d 0b5d d9bc faee fbbd
00000070: 1e2b 793d eeb5 af3d f44b e93d 8353 443d
00000080: 0c75 2d3d 2cab 01be b5ff afbd 60f8 b4bd
00000090: 3713 323d aff9 07be 63ed 103e 197e b0bd
000000a0: 2962 be3b 5909 fb3d 7baf ffbd 10be d93d
000000b0: de08 f6bd aed5 0f3e 2dff 9d3d 532f 213e
000000c0: a734 8a3d 0c71 f8bd 6788 acbd 1e2b f73d
000000d0: 093d 6d3d 4a00 f5bc 88d4 1abe c982 253d
000000e0: ee22 01bd 37a5 6dbd 2508 80bb f979 d5bc
000000f0: 3f3d 7a3d 6527 2abe 306e f2bd 9452 76bd

conv2.weight f4 [128, 64, 3, 3]
0.024865149 0.006437473 0.029213164 -0.026080972 -0.011444771 0.025273979 -0.03552836 -0.042236112
-0.009742875 0.0142305065 0.032076627 -0.04082863 -0.029454503 -0.012577973 -0.042031653 0.0018407736
0.005921505 0.007041127 -0.0067680506 0.020328688 0.03755639 0.031802177 -0.026949152 0.0029294693
0.0038409103 -0.01238272 -0.0031347293 -0.0068610897 -0.011187097 -0.018305749 0.02377982 -0.029008722
0.0442291 0.002705903 0.043483283 0.0048512556 -0.025801565 0.012039662 0.04428271 0.026839001
0.018303068 0.055527158 -0.005283443 0.014898252 0.03530594 -0.0034577285 0.0074291476 -0.0043033715
-0.0049122693 0.031087259 -0.031528328 -0.034960482 0.017931227 0.023903605 -0.028526826 -0.036317863
0.026723707 -0.0009864038 -0.012634999 -0.030865015 -0.017913343 -0.0304409 -0.012796143 0.00644501
-0.03339779 0.026132703 0.008291415 -0.015409723 -0.03356339 -0.026368648 0.012110559 -0.009346283
-0.025526017 0.022683352 -0.0070866374 0.03358122 0.030867316 0.025011016 -0.011075284 -0.029364116
-0.026498398 -0.019133158 0.033674553 -0.003971235 0.041858 -0.0053762067 0.020345153 -0.000524072
-0.026636668 -0.01037184 0.002532929 0.014763297 0.014305214 -0.012075436 -0.038386486 0.021711119
-0.011737969 0.025233801 -0.012789644 0.025581094 -0.016970592 -0.0028310919 0.024328636 0.012916072
0.034392934 -0.011267578 0.0024559437 0.022830365 -0.007731498 0.018380804 0.012356741 -0.025730941
0.025795333 -0.010886441 0.01669122 0.006332613 0.031411793 0.050394267 0.0069217314 0.025706913
0.0047567533 0.017404782 -0.011435698 -0.014588589 0.037729822 0.028662628 -0.07704428 -0.008384564
-0.07185496 -0.037837226 -0.023511752 -0.060375527 -0.037652276 -0.021702452 -0.046232063 0.019071806
-0.037841376 0.020746185 -0.05817189 -0.010384775 -0.05382309 0.00948713 -0.039938096 -0.022699846
0.00947368 0.0034365016 0.034276836 -0.0058277575 0.014676647 0.021464637 -0.02085682 0.005907293
-0.03508582 -0.028640162 -0.040424064 0.019345736 0.033592965 0.008986874 0.020470982 -0.025578406
-0.025504587 -0.035463702 0.0072208536 0.011694191 -0.017942661 0.056764934 0.027693896 0.030651035
-0.005202529 0.017647449 -0.015683157 0.029118055 -0.038314708 -0.0032807752 0.03381678 0.004416784
0.012521235 0.024940522 -0.039682955 0.03463809 -0.030310083 -0.02683464 -0.009685838 0.029038817
0.0356301 0.04070256 0.03177532 -0.03151813 -0.02526057 0.0012045424 -0.013662807 -0.019038707
0.02743906 -0.029474383 -0.015083849 -0.035021253 0.027740648 0.0028302048 -0.05229569 0.017983517
-0.03912042 -0.058479205 -0.055897575 0.0042215507 -0.036351286 -0.035282418 -0.009974348 -0.029858314
-0.011221886 0.004720263 0.0021432664 0.026620664 -0.043067217 -0.002546401 -0.035886068 8.9777954e-05
-0.03335509 -0.015433699 -0.025201723 0.033792034 0.033829577 0.024232643 0.0020262282 -0.03198365
0.021436583 0.0158818 -0.03573556 -0.024364328 0.015221196 0.0022291385 0.030066993 0.021660274
0.012010702 -0.035973847 -0.010018202 -0.0019562966 0.02695881 -0.04457041 -0.028427105 -0.03304863
-0.025228638 -0.027739653 -0.037443202 0.0073708408 0.0147625115 0.032584596 -0.042257655 0.035614118
-0.005674926 0.02364274 -0.008577574 0.017935954 -0.017257147 0.037377324 -0.009811021 -0.005755623
00000000: ffb1 cb3c 70f1 d23b 7250 ef3c c3a7 d5bc
00000010: d982 3bbc 600b cf3c 3086 11bd c6ff 2cbd
00000020: 94a0 1fbc 1227 693c c862 033d ec3b 27bd
00000030: 924a f1bc d813 4ebc 6229 2cbd 1d46 f13a
00000040: 2f09 c23b 41b9 e63b 86c6 ddbb 5988 a63c
00000050: bbd4 193d 0043 023d 78c4 dcbc 57fc 3f3b
00000060: c8b7 7b3b e4e0 4abc 0870 4dbb fed2 e0bb
00000070: 164a 37bc f0f5 95bc e6cd c23c b3a3 edbc
00000080: 9329 353d 8555 313b 871b 323d 48f7 9e3b
00000090: ce5d d3bc 0142 453c c961 353d 77dd db3c
000000a0: 51f0 953c 7270 633d bb20 adbb cc17 743c
000000b0: f69c 103d 0f9b 62bb 3570 f33b 4c03 8dbb
000000c0: 1af7 a0bb b5aa fe3c d923 01bd b932 0fbd
000000d0: 82e4 923c 7ed1 c33c 17b1 e9bc 0ac2 14bd
000000e0: adeb da3c 384a 81ba 0703 4fbc a1d8 fcbc
000000f0: 01bf 92bc 325f f9bc eaa6 51bc aa30 d33b
00000100: 1fcc 08bd 4014 d63c b7d8 073c 1079 7cbc
00000110: c479 09bd 1003 d8bc 5e6b 463c 2721 19bc
00000120: f01b d1bc 70d2 b93c 0637 e8bb 768c 093d
00000130: 74dd fc3c e7e3 cc3c 1c75 35bc 048d f0bc
00000140: 2b13 d9bc 24bd 9cbc 54ee 093d 2221 82bb
00000150: 4b73 2b3d e42a b0bb e1aa a63c e061 09ba
00000160: 2435 dabc a6ee 29bc 7fff 253b c1e1 713c
00000170: 6b60 6a3c 0dd8 45bc 263b 1dbd 84db b13c
00000180: 9c50 40bc 1eb7 ce3c a88b 51bc 718f d13c
00000190: e905 8bbc d789 39bb d94c c73c ef9d 533c
000001a0: 9bdf 0c3d a69b 38bc e6f3 203b bf06 bb3c
000001b0: 8258 fdbb 5793 963c ee73 4a3c b2c9 d2bc
000001c0: bc50 d33c 0b5d 32bc 07bc 883c cf81 cf3b
000001d0: a7a9 003d 386a 4e3d b1cf e23b 4e97 d23c
000001e0: 8ade 9b3b 7994 8e3c cb5c 3bbc fa04 6fbc
000001f0: 968a 1a3d e3cd ea3c 64c9 9dbd 695f 09bc
00000200: b128 93bd 35fb 1abd b89b c0bc 544c 77bd
00000210: 4639 1abd 57c9 b1bc d55d 3dbd 7a3c 9c3c
00000220: 8fff 1abd e7f3 a93c a645 6ebd e724 2abc
00000230: 9a75 5cbd e86f 1b3c 2196 23bd 07f5 b9bc
00000240: 7e37 1b3c ee36 613b de65 0c3d c6f6 bebb
00000250: 5276 703c 9bd6 af3c ecdb aabc f791 c13b
00000260: 26b6 0fbd c69e eabc b493 25bd f37a 9e3c
00000270: c798 093d ae3d 133c c3b2 a73c ce89 d1bc
00000280: ffee d0bc 6342 11bd e99c ec3b fe98 3f3c
00000290: 7dfc 92bc 5982 683d 4fde e23c e117 fb3c
000002a0: fa79 aabb 6291 903c f779 80bc fd88 ee3c
000002b0: e2ef 1cbd 4602 57bb 7783 0a3d abba 903b
000002c0: de25 4d3c 1150 cc3c 988a 22bd abe0 0d3d
000002d0: da4c f8bc 52d4 dbbc 59b1 1ebc d0e2 ed3c
000002e0: def0 113d bab7 263d d726 023d 2819 01bd
000002f0: 41ef cebc bce1 9d3a f7d9 5fbc 10f7 9bbc
00000300: e1c7 e03c 4374 f1bc 4022 77bc 7272 0fbd
00000310: 5b40 e33c f57a 393b 0134 56bd 2b52 933c
00000320: bc3c 20bd e487 6fbd dbf4 64bd ef54 8a3b
00000330: 16e5 14bd 4c84 10bd 736b 23bc 6c99 f4bc
00000340: 00dc 37bc 70ac 9a3b 0b76 0c3b 9413 da3c
00000350: 4067 30bd 85e1 26bb 45fd 12bd 2c47 bc38
00000360: 599f 08bd a0dd 7cbc d873 cebc 8469 0a3d
00000370: e290 0a3d 8983 c63c 78ca 043b 4a01 03bd
00000380: c69b af3c 8c1a 823c 735f 12bd b397 c7bc
00000390: 5362 793c bd16 123b 0e4f f63c e370 b13c
000003a0: 89c8 443c 5059 13bd 6223 24bc 3635 00bb
000003b0: b9d8 dc3c 768f 36bd f6df e8bc 005e 07bd
000003c0: 4aac cebc 453e e3bc 0b5e 19bd 1887 f13b
000003d0: 76de 713c 6d77 053d 5d16 2dbd 1ce0 113d
000003e0: bbf4 b9bb 6bae c13c f488 0cbc 6cee 923c
000003f0: dc5e 8dbc f718 193d 68be 20bc aa99 bcbb

conv2.bias f4 [128]
0.012090249 0.0141291 -0.014391469 0.048715405 -0.02822602 0.021849148 0.020042975 -0.012316844
0.028655635 -0.034201436 -0.023931947 0.0401036 0.009772875 -0.002249099 -0.010239344 0.0038820324
-0.01190967 0.031491414 0.0008575652 0.017135913 -0.0016702901 -0.008162813 0.037168633 0.018905481
-0.013561586 0.02177482 0.022008441 -0.013976829 0.019345054 0.03980419 0.029973367 0.032335658
-0.04559937 0.029552149 -0.028767545 0.046876557 0.02981732 -0.033273175 -0.008916973 -0.019743036
-0.049155436 -1.480431e-05 -0.021619333 -0.02930154 -0.027990935 -0.023832776 -0.027779795 0.024568956
0.020129185 -0.0038807974 -0.048126776 0.0034349943 0.027939541 -0.004956068 -0.011322242 0.017894015
-0.016318768 -0.028880963 0.016379744 -0.016689252 0.039590295 0.040506363 0.027142094 -0.0075087133
0.00046157348 -0.0036675879 -0.0037737035 0.038580887 -0.04621247 0.002197016 -0.008322651 -0.0222462
0.019132486 0.02005805 0.0153680565 0.019594451 -0.082459845 -0.017941484 -0.04569506 0.002110201
0.0011513453 -0.00059226283 0.017008517 -0.02039339 -0.013282126 -0.014752151 0.02673525 0.018526405
-0.029461961 -0.02458508 -0.038453206 -0.017498653 0.025750738 -0.018411465 0.017655076 0.021768974
-0.008510331 0.01832054 -0.022128154 -0.012746316 -0.041781493 0.035485633 0.05474684 -0.008821264
-0.028423835 -0.036111977 0.0054281875 -0.043060083 0.0138426125 0.026773803 0.04775613 0.06526415
-0.017521957 -0.031599887 0.0033909786 -0.038919393 -0.02470645 -0.010877019 0.013588038 0.002102367
-0.017726665 -0.039104708 0.00075997703 0.024422929 0.0167293 0.017646048 0.00094620296 0.03328431
00000000: 2e16 463c be7d 673c 32ca 6bbc ce89 473d
00000010: 413a e7bc fcfc b23c 2a31 a43c 97cc 49bc
00000020: 39bf ea3c ce16 0cbd ee0c c4bc ac43 243d
00000030: 691e 203c 9f65 13bb ecc2 27bc b269 7e3b
00000040: c720 43bc 24fd 003d 3ace 603a 9d60 8c3c
00000050: a3ed daba 52bd 05bc 233e 183d abdf 9a3c
00000060: 6a31 5ebc 1b61 b23c 0c4b b43c 12ff 64bc
00000070: 8579 9e3c b809 233d b58a f53c 6572 043d
00000080: 68c6 3abd 5917 f23c eaa9 ebbc a201 403d
00000090: 7443 f43c 7449 08bd 7f18 12bc 26bc a1bc
000000a0: 3657 49bd 0760 78b7 071b b1bc c909 f0bc
000000b0: 3f4d e5bc f43c c3bc 7492 e3bc d644 c93c
000000c0: f6e5 a43c fa54 7ebb 9520 45bd a41d 613b
000000d0: 77e1 e43c 8366 a2bb ed80 39bc 7896 923c
000000e0: f0ae 85bc c597 ecbc d02e 863c e6b7 88bc
000000f0: 6f29 223d 00ea 253d 1959 de3c a70b f6bb
00000100: 58ff f139 ea5b 70bb 3d50 77bb fe06 1e3d
00000110: 4949 3dbd d0fb 0f3b ba5b 08bc aa3d b6bc
00000120: bbbb 9c3c c850 a43c 4dca 7b3c 8b84 a03c
00000130: b5e0 a8bd 05fa 92bc be2a 3bbd 4c4b 0a3b
00000140: bde8 963a 1642 1bba 7255 8b3c 0a10 a7bc
00000150: 469d 59bc 02b3 71bc e203 db3c b0c4 973c
00000160: 365a f1bc a666 c9bc 1c81 1dbd 5659 8fbc
00000170: 36f3 d23c a4d3 96bc 61a1 903c d954 b23c
00000180: ea6e 0bbc f514 963c 1a46 b5bc edd5 50bc
00000190: 1223 2bbd 6259 113d 393e 603d 1087 10bc
000001a0: 1ad9 e8bc 27ea 13bd f0de b13b c55f 30bd
000001b0: 20cc 623c bc54 db3c ef9b 433d 36a9 853d
000001c0: 358a 8fbc e26e 01bd 2e3b 5e3b f169 1fbd
000001d0: 2e65 cabc 8635 32bc 5da0 5e3c dec7 093b
000001e0: 8337 91bc 422c 20bd 3239 473a 9812 c83c
000001f0: e30b 893c 728e 903c 9b0a 783a 2155 083d

conv3.weight f4 [1, 128, 3, 3]
-0.0017571073 -0.011318965 0.0035665084 0.0083828885 -0.018471539 0.023664882 -0.0048867096 0.024671528
-0.019765679 -0.037105266 -0.05059765 -0.05400491 -0.014956565 -0.0051013855 -0.0069034277 -0.053717304
-0.045213345 -0.020023435 0.009876207 0.028881323 0.024070352 -0.006338777 0.0012392033 0.018492937
-0.017869797 -0.012147017 0.009104744 -0.0055839755 -0.017316392 0.018889057 0.0018819728 -0.011524928
0.0049431417 7.710825e-05 -0.02901692 -0.0023212908 -0.0050501334 0.033235285 -0.012915277 -0.0036373946
-0.015791427 0.022741342 -0.017258536 0.010409533 -0.009288227 0.010544538 -0.017389365 -0.027889546
0.025057731 0.019438814 0.008713554 -0.024677334 -0.016851498 -0.0056090537 0.044641137 0.065578796
0.06263657 0.035319727 0.051868536 0.029758463 0.034472503 0.025972338 0.07351809 -0.012901797
0.015706588 0.013654899 -0.0108834095 0.016439676 0.004171333 0.004699353 -0.012125298 -0.00092393585
-0.005309934 0.026718153 0.006517012 0.0129683 0.013948027 -9.514542e-05 0.017243018 0.01886099
-0.02204697 0.0008053011 0.016924322 0.019140873 -0.018988907 -0.008517544 0.02554476 -0.019906407
-0.01719664 0.02984139 0.030545907 0.029180015 0.00059329084 0.02648448 -0.00014630209 -0.019915981
0.018108057 0.025130486 0.030406741 0.021834552 0.0068444693 0.011202446 0.024369288 -0.027451003
-0.023783207 -0.019234164 0.016179888 0.015917288 -0.0050179563 0.01586984 -0.0012868994 -0.01799657
-0.0037238328 0.012465023 0.00047504823 0.013233969 -0.0042465767 -0.004246783 -0.0019645572 0.009393277
0.030658184 0.033963565 0.030263672 -0.009863796 0.008564589 0.025688164 -0.010001628 0.006678866
-0.027017117 0.017585553 0.0128397 -0.005883848 0.0061783413 0.007021518 9.669411e-05 0.0014674477
-0.01200526 0.02865108 0.019771833 -0.015094787 -0.021957168 -0.017440949 0.018301899 0.010431369
0.0027016443 0.0064531965 0.024676934 -0.011233859 -0.025855295 0.00076086685 0.021417592 -0.012586209
0.013823326 0.026005695 -0.0068827737 0.010546767 -0.026035152 -0.015013735 -0.02114938 0.0118517475
0.024353663 0.011722843 -0.008257 0.016750924 0.025543911 0.015822599 0.0037626452 -0.018738465
-0.012692562 -0.00968587 -0.01482972 0.031103747 -0.013768902 -0.01701503 0.0050988286 -0.010970689
0.032746788 -0.0057563656 0.012927498 -0.0137634985 0.0032766087 0.0019008127 -0.0031898457 -0.03663773
-0.037283804 0.015629131 0.009877776 -0.00301038 -0.019888889 -0.013697687 -0.01184002 0.0008331327
-0.024004959 0.015392159 0.009682646 0.022303725 -0.01660563 0.0029361057 -0.0036011734 -0.019287195
0.012629418 0.0016310979 -0.005401776 -0.013694943 0.01818595 0.020024959 -0.007988592 -0.013364342
0.008491745 -0.0247022 -0.009792303 0.018089704 0.009720528 -0.0049433177 -0.018629331 -0.010923657
-0.04432657 0.006951246 0.0025280085 -0.023572443 -0.022387473 -0.033808477 -0.02602188 -0.015795413
-0.019544937 -0.020173531 0.007173936 -0.020648869 -0.00077138265 -0.00729951 0.0168506 0.016759222
-0.013929094 0.028301917 -0.039081816 -0.02396965 -0.000852632 -0.016864786 -0.005030042 -0.013571667
0.0047773053 -0.009358256 -0.029746354 0.031020125 0.006644998 0.035711087 0.032070592 0.009521133
-0.014023119 -0.0089168055 0.007541796 0.011533211 -0.009451396 0.010724716 0.0031635386 0.036882713
00000000: bd4e e6ba 2e73 39bc 15bc 693b 6258 093c
00000010: a051 97bc dbdc c13c b120 a0bb f21b ca3c
00000020: a2eb a1bc b1fb 17bd 7b3f 4fbd 4134 5dbd
00000030: 610c 75bc 8629 a7bb 2636 e2bb ad06 5cbd
00000040: a131 39bd 3008 a4bc d1cf 213c 8698 ec3c
00000050: 302f c53c 84b5 cfbb c36c a23a 807e 973c
00000060: ae63 92bc 4804 47bc 102c 153c c8f9 b6bb
00000070: 1bdb 8dbc 39bd 9a3c 87ac f63a 0dd3 3cbc
00000080: 14fa a13b 2db5 a138 e4b4 edbc cc20 18bb
00000090: 977b a5bb b921 083d 999a 53bc 5b61 6ebb
000000a0: 065d 81bc 0d4c ba3c c661 8dbc bf8c 2a3c
000000b0: a62d 18bc ffc2 2c3c 2474 8ebc 9e78 e4bc
000000c0: df45 cd3c 263e 9f3c 4bc3 0e3c 1f28 cabc
000000d0: 270c 8abc 27cc b7bb a0d9 363d 2d4e 863d
000000e0: 9a47 803d 6bab 103d 1a74 543d 05c8 f33c
000000f0: 0a33 0d3d f1c3 d43c a790 963d 0f62 53bc
00000100: 1aab 803c ccb8 5f3c 5450 32bc 80ac 863c
00000110: adaf 883b 08fd 993b 30a9 46bc 4934 72ba
00000120: f4fe adbb 07e0 da3c a98c d53b fe78 543c
00000130: 4486 643c cf88 c7b8 3b41 8d3c 5d82 9a3c
00000140: d99b b4bc d81a 533a e0a4 8a3c 52cd 9c3c
00000150: a08e 9bbc 2b8d 0bbc 3f43 d13c c312 a3bc
00000160: f8df 8cbc ee75 f43c 693b fa3c ed0a ef3c
00000170: 1387 1b3a fbf5 d83c ab68 19b9 d726 a3bc
00000180: 5957 943c 73de cd3c 8f17 f93c 60de b23c
00000190: 9247 e03b 778a 373c 1aa2 c73c ede0 e0bc
000001a0: 00d5 c2bc f790 9dbc af8b 843c f964 823c
000001b0: ab6d a4bb 7701 823c 2ead a8ba 8b6d 93bc
000001c0: 8c0b 74bb 193a 4c3c e50f f939 4ad3 583c
000001d0: de26 8bbb 9928 8bbb cdbf 00bb 42e6 193c
000001e0: df26 fb3c 611d 0b3d 85eb f73c c29b 21bc
000001f0: 7d52 0c3c fc6f d23c dedd 23bc 64da da3b
00000200: 0053 ddbc 940f 903c 9b5d 523c 4bcd c0bb
00000210: af73 ca3b c314 e63b 41c8 ca38 6057 c03a
00000220: b6b1 44bc abb5 ea3c 8af8 a13c 2050 77bc
00000230: 85df b3bc 52e0 8ebc dded 953c 55e8 2a3c
00000240: 120e 313b 5675 d33b 4827 ca3c 380e 38bc
00000250: 7cce d3bc e974 473a f273 af3c 6336 4ebc
00000260: 3b7b 623c e509 d53c e488 e1bb 59cc 2c3c
00000270: ac47 d5bc 2bfc 75bc 7741 adbc d52d 423c
00000280: 5581 c73c 2b11 403c 5e48 07bc 3c39 893c
00000290: 7741 d13c 659e 813c b696 763b 6981 99bc
000002a0: 77f4 4fbc 7cb1 1ebc 5bf8 72bc 49cd fe3c
000002b0: f696 61bc 1b63 8bbc 1314 a73b 68be 33bc
000002c0: 7f21 063d e59f bcbb dbcd 533c 4c80 61bc
000002d0: 5fbc 563b b124 f93a bb0c 51bb 7211 16bd
000002e0: e7b6 18bd aa08 803c 65d6 213c cc49 45bb
000002f0: 06ee a2bc 436c 60bc a5fc 41bc 9766 5a3a
00000300: 0ca6 c4bc 652f 7c3c f6a3 1e3c 4db6 b63c
00000310: 8808 88bc ae6b 403b aa01 6cbb 2e00 9ebc
00000320: 9eeb 4e3c 90ca d53a 6201 b1bb c160 60bc
00000330: b4fa 943c 620b a43c 95e2 02bc 1df6 5abc
00000340: f620 0b3c 455c cabc e56f 20bc dc30 943c
00000350: d942 1f3c 8efb a1bb 8a9c 98bc 23f9 32bc
00000360: c78f 35bd 47c7 e33b f2ac 253b ff1a c1bc
00000370: ef65 b7bc c27a 0abd d62b d5bc 6265 81bc
00000380: b41c a0bc f642 a5bc 5613 eb3b d127 a9bc
00000390: 9d36 4aba ba30 efbb 450a 8a3c a34a 893c
000003a0: db36 64bc 6cd9 e73c 4114 20bd 005c c4bc
000003b0: 2a83 5fba 0528 8abc 0dd3 a4bb b25b 5ebc
000003c0: f18a 9c3b 5f53 19bc a0ae f3bc eb1d fe3c
000003d0: 49be d93b ca45 123d 745c 033d 87fe 1b3c
000003e0: 39c1 65bc cb17 12bc 2c21 f73b cbf5 3c3c
000003f0: 07da 1abc b8b6 2f3c 5f53 4f3b 5412 173d
