weights/ve_lol_dataset/capture/generator_weights.pth (torch, 608184 bytes, 8 tensors)

model.0.weight f4 [64, 3, 3, 3]
-0.057113364 0.06376593 0.16201426 -0.015028189 0.16215694 -0.1878588 0.03627409 -0.12330423
0.12654698 0.014744506 -0.055243313 -0.050351117 0.067484595 0.061144993 0.15295613 -0.11064244
-0.02369099 -0.07076955 0.06596894 0.151306 0.10829212 -0.08256835 -0.19808835 -0.089368835
0.1122012 -0.032171812 -0.1866123 -0.092457436 -0.08021151 -0.015290746 0.06018103 -0.005625458
0.13822511 0.01246852 0.097117774 0.15554202 0.16793957 -0.12834126 -0.13251832 0.15776347
0.017460618 -0.09077174 -0.13691993 -0.006079025 -0.19388902 0.036758892 -0.12180096 0.08333306
-0.084160246 -0.069972426 -0.03206044 0.0956162 0.011053064 -0.11721399 0.14062765 -0.0882133
0.034906775 0.1649261 -0.03582733 0.13662864 -0.07238974 -0.18191947 0.07294635 -0.15747969
-0.13294442 -0.009230374 -0.077074304 0.050478116 -0.01578838 -0.10592 -0.11830111 0.16458753
0.056436658 0.15659936 -0.06979101 -0.049920794 0.18332401 -0.042316146 -0.12825976 -0.08955033
-0.0135620525 -0.03598596 0.09293701 0.17073992 -0.05309256 -0.030996906 -0.1458737 -0.075316876
-0.11993257 -0.13979253 0.11255051 -0.013015668 0.09585862 -0.1692964 0.14383067 0.13025747
0.1526148 -0.17025985 0.07705704 -0.030375334 0.102544285 -0.00892928 -0.15694587 0.083478056
0.13699508 0.14696595 -0.18265393 0.16005896 0.07048514 0.008996012 -0.17079756 -0.057664003
0.074692726 -0.16617584 -0.15103967 -0.16751035 -0.13578607 0.18606374 -0.07056388 0.19085114
-0.009200327 0.11004315 0.091623046 0.13576101 -0.13469104 0.050572578 -0.14677219 -0.15518522
-0.05711389 0.14714365 0.050880454 0.12319481 -0.06533142 0.1756873 0.15178423 -0.10391534
0.0970647 -0.066743344 0.1325947 0.00420176 0.047516778 -0.059062153 0.1302353 -0.15868545
-0.1921496 -0.0648375 -0.19120173 0.14886078 0.12444308 -0.17390366 0.08759343 0.08263868
0.10618589 0.12065759 0.043209046 -0.064761564 0.0694567 -0.046111926 -0.1509071 -2.9319142e-05
-0.18628962 0.08044439 0.15395986 -0.075357884 -0.088989526 0.043658357 0.007145465 0.0747505
-0.10356182 0.08600896 -0.123376355 0.090370744 -0.014633092 0.23452227 -0.017943928 0.15692528
-0.07304495 0.07588243 0.17793253 -0.079902604 -0.1343524 0.21792433 0.24210107 -0.13041107
0.22836046 0.042810176 -0.12642235 0.158623 0.011779074 0.113062724 -0.1496029 0.038736284
-0.16295902 -0.22089982 -0.22695203 0.13584502 -0.069392115 -0.20658252 -0.06081777 0.023341564
0.06661883 0.03962965 0.11859989 0.110913835 -0.03587115 -0.030198647 -0.091667816 -0.0047528385
-0.16043265 -0.14028786 -0.16784099 0.12364113 -0.21809486 0.09509774 0.1093449 -0.18707399
0.12479361 -0.11733541 -0.004259517 0.13589916 -0.16531172 -0.035792384 -0.11664663 0.1082049
-0.10586994 -0.05426121 0.1430196 -0.027507156 -0.06488203 -0.1984136 0.15181343 0.16362949
0.1163104 -0.2002153 -0.1718087 0.010164979 -0.17573462 -0.17982106 -0.11171144 -0.020182978
-0.20535967 -0.17723936 0.113607086 -0.03132629 -0.17374617 -0.111919515 -0.025708487 -0.11247596
0.122429945 -0.0840512 0.0862049 0.07926107 -0.14562763 0.11658356 -0.046450984 0.017654158
00000000: b4ef 69bd b697 823d 11e7 253e cb38 76bc
00000010: 780c 263e 0f5e 40be 2494 143d ee86 fcbd
00000020: 8895 013e f192 713c d046 62bd f93c 4ebd
00000030: 5d35 8a3d 2c73 7a3d 88a0 1c3e 8198 e2bd
00000040: 9b13 c2bc a0ef 90bd b91a 873d f6ef 1a3e
00000050: 42c8 dd3d 9819 a9bd acd7 4abe 0207 b7bd
00000060: bec9 e53d 97c6 03bd 4b17 3fbe 535a bdbd
00000070: ef45 a4bd 0a86 7abc 6280 763d c355 b8bb
00000080: e28a 0d3e c348 4c3c afe5 c63d 6846 1f3e
00000090: 5af8 2b3e e46b 03be e2b2 07be bf8c 213e
000000a0: 9209 8f3c 89e6 b9bd bd34 0cbe 8f32 c7bb
000000b0: d88a 46be 7e90 163d c872 f9bd 86aa aa3d
000000c0: 355c acbd b44d 8fbd cf51 03bd 6dd2 c33d
000000d0: e917 353c e30d f0bd b200 103e 2da9 b4bd
000000e0: 68fa 0e3d 63e2 283e aebf 12bd 61e8 0b3e
000000f0: 1241 94bd 1949 3abe e564 953d 5b42 21be
00000100: 9522 08be ff3a 17bc 22d9 9dbd 24c2 4e3d
00000110: a256 81bc 96ec d8bd da47 f2bd a289 283e
00000120: 202a 673d 955b 203e 97ee 8ebd bf79 4cbd
00000130: 4ab9 3b3e b253 2dbd 8756 03be 2a66 b7bd
00000140: 5f33 5ebc 0466 13bd c255 be3d 72d6 2e3e
00000150: 9677 59bd 39ed fdbc ea5f 15be bc3f 9abd
00000160: 359f f5bd c625 0fbe e280 e63d ab3f 55bc
00000170: 8651 c43d 095c 2dbe 5948 133e 3762 053e
00000180: 0e47 1c3e 9958 2ebe 15d0 9d3d b1d5 f8bc
00000190: bd02 d23d 1d4c 12bc 6bb6 20be 8bf6 aa3d
000001a0: 7048 0c3e 3e7e 163e a209 3bbe 7fe6 233e
000001b0: 835a 903d 0264 133c 8ee5 2ebe 1731 6cbd
000001c0: 80f8 983d 002a 2abe 25aa 1abe d587 2bbe
000001d0: 810b 0bbe 7e87 3e3e cc83 90bd 7b6e 433e
000001e0: f8bc 16bc 4e5e e13d dda4 bb3d ef04 0b3e
000001f0: 73ec 09be 3125 4f3d 734b 16be e0e8 1ebe
00000200: 41f0 69bd d3ac 163e 0668 503d 8f4d fc3d
00000210: 7bcc 85bd 5fe7 333e 536d 1b3e 91d1 d4bd
00000220: dcc9 c63d bcb0 88bd e8c6 073e ebae 893b
00000230: f4a0 423d 28eb 71bd 675c 053e 707e 22be
00000240: ddc2 44be 86c9 84bd 63ca 43be f66e 183e
00000250: 03dc fe3d cd13 32be 2f64 b33d 783e a93d
00000260: fd77 d93d 541b f73d f8fb 303d b6a1 84bd
00000270: 503f 8e3d dcdf 3cbd 6487 1abe 61f2 f5b7
00000280: b5c2 3ebe 07c0 a43d a7a7 1d3e 3c55 9abd
00000290: 2440 b6bd 1bd3 323d 8124 ea3b ca16 993d
000002a0: 3818 d4bd 7725 b03d beac fcbd 4c14 b93d
000002b0: a3bf 6fbc 9b26 703e 25ff 92bc 05b1 203e
000002c0: 9798 95bd 3f68 9b3d f233 363e faa3 a3bd
000002d0: ad93 09be 8e27 5f3e 58e9 773e 7b8a 05be
000002e0: 53d7 693e b959 2f3d dc74 01be 116e 223e
000002f0: 04fd 403c 6e8d e73d 8131 19be f0a9 1e3d
00000300: bbde 26be 9033 62be 1d66 68be f51a 0b3e
00000310: 741d 8ebd 5e8a 53be 0e1c 79bd cf36 bf3c
00000320: 746f 883d b352 223d 80e4 f23d cb26 e33d
00000330: a1ed 12bd 2763 f7bc 56bc bbbd b3bd 9bbb
00000340: 7548 24be 9fa7 0fbe 82de 2bbe 9037 fd3d
00000350: 4254 5fbe 9bc2 c23d 38f0 df3d 5390 3fbe
00000360: cb93 ff3d 8c4d f0bd 6b93 8bbb 2629 0b3e
00000370: 7a47 29be 099b 12bd 6ee4 eebd 889a dd3d
00000380: 57d2 d8bd 0141 5ebd bb73 123e b056 e1bc
00000390: dfe0 84bd ef2c 4bbe fb74 1b3e 7d8e 273e
000003a0: 2634 ee3d 3d05 4dbe 9fee 2fbe 038b 263c
000003b0: c7f3 33be 0323 38be f8c8 e4bd c656 a5bc
000003c0: ce49 52be 3c7e 35be d5aa e83d ff4f 00bd
000003d0: 84ea 31be 0f36 e5bd 9b9a d2bc cc59 e6bd
000003e0: 8dbc fa3d 0923 acbd 328c b03d a153 a23d
000003f0: 691f 15be 5dc3 ee3d 6343 3ebd 749f 903c

model.0.bias f4 [64]
-0.10170003 -0.15010822 -0.08935172 -0.20186494 -0.06642382 -0.12459241 -0.030038938 0.017251646
0.0019406414 -0.11792608 -0.1719281 -0.00512524 -0.042983577 0.032752022 -0.13547023 -0.11350712
-0.18072845 -0.06605681 0.10037887 -0.14745224 0.09964936 0.0027886357 0.03390516 -0.05740298
0.055140898 -0.13133682 -0.015280116 -0.14416647 -0.14709754 -0.14036894 0.00031973817 0.10288112
-0.03002947 0.08840396 0.097800545 -0.06717921 0.111869074 0.10826249 -0.08956703 0.006652464
0.10615038 -0.16294634 -0.064653374 -0.11253867 0.08154208 -0.0667732 -0.114828795 -0.030374955
0.08313989 -0.019659705 -0.102035195 -0.025341358 0.08057748 -0.019973401 -0.17077418 0.07823494
0.070230134 -0.12395114 -0.10634366 -0.081046104 0.010390978 -0.07019732 0.045543298 0.0956936
00000000: 1b48 d0bd f8b5 19be 09fe b6bd afb5 4ebe
00000010: 3609 88bd 4e2a ffbd 3814 f6bc 5353 8d3c
00000020: 1f5d fe3a 3b83 f1bd eb0d 30be a1f1 a7bb
00000030: 8c0f 30bd fc26 063d b5b8 0abe 6c76 e8bd
00000040: e110 39be cb48 87bd 7093 cd3d b8fd 16be
00000050: f714 cc3d 8bc1 363b 23e0 0a3d 631f 6bbd
00000060: 6cdb 613d 297d 06be 7459 7abc 60a0 13be
00000070: bda0 16be e0bc 0fbe 88a2 a739 56b3 d23d
00000080: 5d00 f6bc 230d b53d a74b c83d 4195 89bd
00000090: 9d1b e53d b9b8 dd3d eb6e b7bd eafc d93b
000000a0: 5f65 d93d 68db 26be fd68 84bd ad7a e6bd
000000b0: 89ff a63d 63c0 88bd 5c2b ebbd e6d4 f8bc
000000c0: 3f45 aa3d 640d a1bc d4f7 d0bd ae98 cfbc
000000d0: ce05 a53d 429f a3bc 6ddf 2ebe a439 a03d
000000e0: d1d4 8f3d 18da fdbd b4ca d9bd 80fb a5bd
000000f0: ec3e 2a3c 9dc3 8fbd 9c8b 3a3d 02fb c33d

model.2.weight f4 [128, 64, 3, 3]
0.04206644 0.033793982 0.0078055323 0.04400198 -0.012826375 -0.010683569 0.039895732 -0.038604926
-0.027521346 -0.036992013 0.029215056 -0.045170046 0.030955732 -0.040128574 -0.0054267207 -0.023182832
-0.027928792 0.020543672 0.01283371 0.013155789 0.0026035854 -0.0029670568 -0.023694241 -0.03714667
-0.02965827 -0.025232509 0.010789692 -0.040583268 0.014005708 0.03001382 -0.044629946 0.020960288
-0.026658801 0.0340279 -0.016182454 0.0060529686 -0.01801942 -0.027746884 -0.037598535 0.027894992
0.009908121 -0.025340546 -0.008990275 -0.036791544 0.03060118 0.02346346 0.028838148 -0.041713424
0.03835629 -0.008454925 -0.0072331773 -0.007820139 0.031074742 -0.02190706 -0.08266146 -0.008264009
-0.031787712 -0.034151614 -0.026710197 -0.0003592595 -0.042109255 -0.07238386 -0.05007714 0.010361528
0.038747363 0.009356459 0.029626036 0.0042735725 0.01089904 0.021173486 -0.013283216 -0.008678851
0.011085659 0.0021783845 -0.030883858 -0.01578034 0.031280123 0.040519886 -0.02620588 0.046714243
0.05019147 -0.028940696 0.014372587 -0.032137364 0.012239769 -0.01598358 -0.009398103 -0.009981772
0.0046835197 0.0003106892 -0.01195456 0.0217586 -0.0072955135 -0.018091004 0.04822526 0.024629725
0.034150906 -0.020307347 -0.010318955 0.027519846 0.023678867 0.0117615005 -0.03273592 0.035519134
-0.009451451 0.04355352 0.032175012 0.0060581365 0.012069206 -0.018282566 0.0389908 0.012095747
-0.039231792 -0.0066712396 0.017953277 -0.021348108 -0.026418013 -0.033189524 -0.017036764 0.012025098
-0.022105874 0.03371077 0.009519283 -0.033869363 0.029086744 0.045044955 0.03415734 0.024646342
-0.027111314 -0.002412624 -0.018452788 0.02607672 0.037340116 0.011857743 -0.00052208744 0.008102821
0.0061904415 -0.026437808 -0.034275416 0.0022444392 0.033885866 0.04113653 -0.0129163265 0.0052219187
-0.03271831 -0.022282608 0.009595205 -0.037115168 -0.018744115 0.02148577 -0.0143061485 0.02451706
-0.0351568 0.019381374 -0.019947778 -0.036556903 -0.0020819497 0.00966842 -0.016337989 -0.039844874
-0.014325141 -0.017945206 -0.009664051 -0.03896187 0.03238837 -0.041531395 0.028347155 0.011891454
-0.035138246 -0.0023979375 -0.036169164 -0.00036984682 0.008380353 -0.025225218 -0.014783415 -0.037964184
0.033350825 -0.0008854146 -0.031224288 0.010219252 -0.032793082 0.017849034 0.025575804 -0.028805302
-0.005660598 0.01303101 0.007630965 0.017281605 0.004808283 -0.025822373 0.03020639 0.035267208
0.0065926816 -0.011547118 -0.021771291 0.02528567 0.029883532 -0.0070128106 -0.030917961 -0.025239736
0.040315587 0.008519097 -0.01934026 0.04703058 0.035019405 0.023082897 -0.026701497 0.01313512
0.00841293 -0.03741375 0.039323658 -0.010825021 0.014603448 0.040848948 -0.0055052983 0.0085971765
-0.023296408 0.024881242 -0.020188138 -0.02755588 0.045250427 0.026587088 0.01800741 0.00081800437
0.005095955 0.0074582295 -0.03761671 -0.002216448 0.034762125 -0.03910625 -0.000119079916 -0.017638298
0.01949986 -0.023414887 0.038744856 -0.029945262 0.020191168 0.023003232 -0.036935583 0.031176934
0.04286726 0.043379243 0.031131277 0.03683388 -0.008886246 -0.0008283481 0.0074730366 0.029865932
-0.0071198074 0.025322076 0.011210388 0.030216664 0.025961598 -0.040634178 -0.02227916 -0.021060312
00000000: dc4d 2c3d 8f6b 0a3d 8dc5 ff3b 6c3b 343d
00000010: b725 52bc 230a 2fbc b569 233d 3320 1ebd
00000020: 7274 e1bc f084 17bd 6a54 ef3c 3a04 39bd
00000030: e096 fd3c dc5d 24bd a2d2 b1bb ece9 bdbc
00000040: ecca e4bc 344b a83c 7b44 523c 618b 573c
00000050: eaa0 2a3b f472 42bb 6d1a c2bc 1b27 18bd
00000060: e6f5 f2bc 68b4 cebc 40c7 303c a43a 26bd
00000070: 3278 653c 8bdf f53c e4cd 36bd e9b4 ab3c
00000080: 8f63 dabc d760 0b3d 1191 84bc fb57 c63b
00000090: 769d 93bc 6f4d e3bc ec00 1abd 0a84 e43c
000000a0: ac55 223c fa96 cfbc f24b 13bc bbb2 16bd
000000b0: 53af fa3c 7136 c03c fb3d ec3c b2db 2abd
000000c0: 7c1b 1d3d 8786 0abc 4a04 edbb 0a20 00bc
000000d0: 7590 fe3c 6f76 b3bc 694a a9bd c465 07bc
000000e0: d533 02bd 90e2 0bbd 58cf dabc fe5a bcb9
000000f0: c17a 2cbd fd3d 94bd b01d 4dbd 66c3 293c
00000100: 8eb5 1e3d d54b 193c 4db2 f23c 5309 8c3b
00000110: e391 323c 0574 ad3c d9a1 59bc bd31 0ebc
00000120: a0a0 353c 3ac3 0e3b 2500 fdbc c645 81bc
00000130: 961f 003d 2ef8 253d b7ad d6bc 6f57 3f3d
00000140: 9295 4d3d 0a15 edbc 007b 6b3c 78a2 03bd
00000150: 5089 483c ffef 82bc 80fa 19bc 968a 23bc
00000160: 3678 993b 00e4 a239 0fdd 43bc 173f b23c
00000170: 340f efbb 9633 94bc da87 453d 47c4 c93c
00000180: d2e1 0b3d 985b a6bc d610 29bc 4d71 e13c
00000190: 2ffa c13c 4fb3 403c 1a16 06bd 837c 113d
000001a0: 42da 1abc 2d65 323d f2c9 033d 5583 c63b
000001b0: ebbd 453c 52c5 95bc d1b4 1f3d 3d2d 463c
000001c0: 84b1 20bd 6a9a dabb c012 933c 3ae2 aebc
000001d0: 976a d8bc bdf1 07bd af90 8bbc eb04 453c
000001e0: 6117 b5bc 4e14 0a3d c4f6 1b3c 9aba 0abd
000001f0: 5347 ee3c 0f81 383d 91e8 0b3d 20e7 c93c
00000200: 8c18 debc 1d1d 1ebb 4d2a 97bc d89e d53c
00000210: f3f1 183d fb46 423c b2dc 08ba b2c1 043c
00000220: 30d9 ca3b 1a94 d8bc 6164 0cbd 7117 133b
00000230: e8cb 0a3d c77e 283d 009f 53bc a11c ab3b
00000240: a203 06bd 048a b6bc 3535 1d3c 1306 18bd
00000250: 428d 99bc ed02 b03c 5664 6abc 00d8 c83c
00000260: 9400 10bd b0c5 9e3c 8669 a3bc b1bc 15bd
00000270: 5271 08bb 4b68 1e3c 3fd7 85bc 6134 23bd
00000280: ffb3 6abc d301 93bc f855 1ebc 7b96 1fbd
00000290: aba9 043d d31c 2abd 4b38 e83c 60d4 423c
000002a0: 1fed 0fbd b726 1dbb 1e26 14bd 00e8 c1b9
000002b0: c04d 093c 1ea5 cebc 2336 72bc 5580 1bbd
000002c0: e09a 083d 2b1b 68ba 14ca ffbc a66e 273c
000002d0: 0a52 06bd 2338 923c 5984 d13c 19f9 ebbc
000002e0: 8a7c b9bb 0480 553c 2d0d fa3b 2792 8d3c
000002f0: cd8e 9d3b 7189 d3bc 6473 f73c 5974 103d
00000300: 6c07 d83b 2030 3dbc b559 b2bc e523 cf3c
00000310: 4fce f43c b8cb e5bb aa47 fdbc 90c3 cebc
00000320: f521 253d af93 0b3c 776f 9ebc 23a3 403d
00000330: 8270 0f3d 5818 bd3c 19bd dabc b034 573c
00000340: 63d6 093c 293f 19bd d811 213d 6e5b 31bc
00000350: 4d43 6f3c 3a51 273d ca65 b4bb 2cdb 0c3c
00000360: 1cd8 bebc bfd3 cb3c 9861 a5bc debc e1bc
00000370: 8358 393d 2acd d93c 4784 933c 586f 563a
00000380: f8fb a63b 2a64 f43b fb13 1abd d441 11bb
00000390: bb62 0e3d e02d 20bd 8bba f9b8 317e 90bc
000003a0: 2cbe 9f3c 94d0 bfbc edb2 1e3d c44f f5bc
000003b0: f367 a53c 4671 bc3c c449 17bd c566 ff3c
000003c0: 9495 2f3d 6fae 313d 0507 ff3c 1fdf 163d
000003d0: 9e97 11bc 8025 59ba 60e0 f43b 66a9 f43c
000003e0: 464d e9bb 3e70 cf3c c6ab 373c f088 f73c
000003f0: 6bad d43c 0670 26bd c982 b6bc ad86 acbc

model.2.bias f4 [128]
-0.027788742 -0.058715194 -0.041099545 -0.017817192 -0.0149264755 -0.041376475 0.011294382 0.008694303
-0.017130742 0.009593105 0.028682802 0.02085123 -0.029767761 -0.0424329 -0.02342072 0.0026109936
-0.035918538 0.025836036 -0.010788634 -0.02478111 0.0075630075 0.0097808065 -0.0038818445 -0.0116959205
-0.033452842 -0.010581811 0.030550158 0.023473434 -0.00524532 0.012290179 -0.0131926825 0.0010866293
-0.0360384 0.026332475 -0.022438575 -0.020216636 0.0033782013 -0.026868496 -0.011413018 -0.0056991167
-0.021868693 -0.0148471985 -0.01083994 -0.050330266 0.014471696 -0.012477739 -0.014032055 -0.004302894
-0.016343996 0.0067937486 -0.040041726 -0.02955603 0.03945894 0.0048009516 0.025781784 0.0041339407
-0.044325594 -0.015541504 0.009267638 0.008034083 -0.023651889 0.014374336 0.00065366365 -0.03196001
-0.034657855 -0.0026792635 -0.03853115 0.016017063 -0.033209227 -0.010337267 0.0140910605 0.0022528877
0.00809264 0.0106277475 0.00025637075 0.021876466 0.01575887 -0.021870047 -0.009334921 -0.030394308
-0.025328282 0.0055891653 -0.0014696936 -0.038404558 0.011122427 0.018536128 0.030260766 7.426099e-05
-0.03416395 0.008651816 -0.00042135353 0.0040315883 0.0162757 -0.002755701 -0.033666406 -0.03649624
0.01581768 -0.04322388 0.02156688 -0.0029517142 -0.013027661 0.0002317627 0.023012083 -0.04810043
0.017876571 -0.031368554 -0.013244575 -0.0061592483 -0.013557554 -0.039483733 -0.033675227 -0.0037447726
0.016601315 0.027029922 -0.028066155 -0.030578326 0.0058912537 0.021058237 -0.03668772 -0.019334577
-0.042372227 -0.027036073 0.013986237 -0.033275526 0.020623423 0.010482622 -0.026544802 0.007136892
00000000: 37a5 e3bc 587f 70bd ff57 28bd 5cf5 91bc
00000010: 2d8e 74bc 617a 29bd 120c 393c 8d72 0e3c
00000020: c555 8cbc 662c 1d3c 32f8 ea3c 33d0 aa3c
00000030: 85db f3bc 1fce 2dbd cfdc bfbc 341d 2b3b
00000040: 511f 13bd 18a6 d33c d0c2 30bc c101 cbbc
00000050: 1bd3 f73b ad3f 203c 8b66 7ebb 3fa0 3fbc
00000060: d905 09bd 555f 2dbc 5344 fa3c 5c4b c03c
00000070: efe0 abbb bf5c 493c 1f26 58bc 3b6d 8e3a
00000080: 009d 13bd 34b7 d73c 1ad1 b7bc 5c9d a5bc
00000090: d064 5d3b 521b dcbc abfd 3abc a8bf babb
000000a0: f925 b3bc aa41 73bc 019a 31bc 1c27 4ebd
000000b0: b11a 6d3c 6e6f 4cbc b4e6 65bc 4bff 8cbb
000000c0: d8e3 85bc 189e de3b cb02 24bd 7d1f f2bc
000000d0: b39f 213d 4d51 9d3b 5234 d33c 0276 873b
000000e0: c18e 35bd cba1 7ebc 4bd7 173c 63a1 033c
000000f0: 9bc1 c1bc 5682 6b3c a05a 2b3a 80e8 02bd
00000100: 65f5 0dbd 9596 2fbb d7d2 1dbd 3736 833c
00000110: 6606 08bd a45d 29bc 31de 663c 2fa5 133b
00000120: fe96 043c 0120 2e3c 8069 8639 4636 b33c
00000130: bf18 813c d028 b3bc 7ff1 18bc 7cfd f8bc
00000140: 427d cfbc 5125 b73b bca2 c0ba 194e 1dbd
00000150: d73a 363c 14d9 973c 6de5 f73c 91bc 9b38
00000160: 7fef 0bbd 59c0 0d3c 1de9 dcb9 6a1b 843b
00000170: 9e54 853c fe98 34bb c9e5 09bd 157d 15bd
00000180: 1494 813c 860b 31bd 07ad b03c 8c71 41bb
00000190: f871 55bc 5305 7339 d683 bc3c f504 45bd
000001a0: e371 923c 507c 00bd c6ff 58bc 85d3 c9bb
000001b0: 8120 5ebc b2b9 21bd 09ef 09bd dc6a 75bb
000001c0: 7bff 873c db6d dd3c feea e5bc 667f fabc
000001d0: 6b0b c13b 5382 ac3c dd45 16bd 8c63 9ebc
000001e0: 808e 2dbd c17a ddbc 8826 653c eb4b 08bd
000001f0: 74f2 a83c 4ebf 2b3c 7c74 d9bc 97dc e93b

model.4.weight f4 [64, 128, 3, 3]
0.0013717129 -0.004563086 -0.026945857 0.010461469 -0.03341206 -0.007905238 0.0071210465 -0.012656364
0.020615457 0.029172933 0.0043446915 0.0053212116 0.012611597 0.051265873 0.047219187 0.04886964
0.047524393 0.043689925 -0.01620358 -0.0049208296 -0.0077613005 0.018187908 0.00755946 -0.014817326
0.018264208 -0.023870882 -0.002554093 -0.01653217 0.013063918 -0.007878464 -0.013700047 0.02146682
0.008952242 -0.02618915 0.009123926 0.016598517 0.0554407 0.024893275 0.0098504275 0.05435348
0.0018727427 0.04708835 0.0016363048 0.049855158 0.04836092 0.0108788125 -0.018793156 -0.027642692
-0.027658662 0.0040113716 -0.013032237 0.005742339 -0.019659903 0.0044431174 0.0032188573 0.012615847
-0.027595244 0.015304207 0.026887128 0.016796028 -0.0038223641 0.018206716 0.036743406 0.0029503545
0.011242171 -0.025618035 -1.6462127e-05 0.00849043 -0.030909767 0.02062183 -0.018290607 0.010464858
0.009505549 -0.026813956 -0.025305556 0.026787966 0.0155457305 0.02127343 0.018009193 -0.0004501632
0.002423135 -0.010642977 -0.008562281 0.013842453 0.026647156 -0.0060846396 0.009070595 -0.02051583
-0.011340775 -0.0058377455 -0.008142735 -0.023087405 0.03269666 0.0044959937 -0.007223685 0.021285325
-0.008000352 -0.025732847 0.007992826 -0.011044157 0.01160806 0.008267141 -0.0025895205 0.039014783
0.014085393 0.03450169 0.045654967 0.037119746 -0.018529715 0.005539413 0.017898764 -0.026382234
-0.010509527 -0.023363229 -0.013557725 0.0038774922 0.0034973153 -0.014556712 -0.0057734363 0.0063515776
0.017995289 -0.021962523 0.01206341 -0.0120694535 -0.026493024 0.02525393 -0.03019721 -0.023112442
-0.006083283 0.010066931 -0.0066756275 0.009941901 -0.02497792 0.016618954 -0.0115282275 0.009218336
0.011361139 -0.01876296 -0.019154808 -0.03494854 -0.0059759426 -0.008672118 -0.01293882 0.020906877
0.0101097375 -0.024042442 -0.025723428 0.010824294 0.014131344 -0.019792322 0.0020330301 -0.0067400434
-0.019316483 -0.1160377 -0.07251476 -0.11228277 -0.058011502 -0.07155148 -0.07125619 -0.094059296
-0.06516901 -0.07716938 -0.02074409 0.019699967 0.024753058 -0.0074126106 -0.013313661 -0.023736583
-0.013677251 -0.02057431 -0.019824455 -0.006986019 -0.021281742 0.030379878 -0.0064498466 -0.028377444
-0.0015690157 0.016903972 -0.009192508 0.030233448 0.018186303 -0.013363363 -0.027705308 -0.010731048
0.008283613 0.017475901 0.03859317 0.0399785 0.037821114 -0.03781023 -0.014029657 -0.011707103
-0.027368551 -0.0016481264 -0.0017703876 -0.004435499 -0.001107688 -0.022790968 -0.030394413 -0.03681799
0.007522487 0.0013186894 0.0013093628 -0.006478686 0.006348606 -0.011486735 -0.022284562 0.008258565
0.02134202 -0.006870586 -0.0054495623 0.022655759 -0.011521324 -0.026751125 0.028577982 -0.015396581
0.006910677 0.010428145 -0.014721489 0.025712192 -0.018212603 -0.021025995 0.030670147 -0.016604453
-0.025709901 -0.0099623855 0.024084043 -0.012254301 -0.029284282 0.027325386 -0.014508143 7.9729754e-05
0.009642276 -0.012508738 -0.106962666 -0.13580713 -0.10779171 -0.116052195 -0.119489394 -0.07731206
-0.085920066 -0.129471 -0.103772275 -0.002350243 -0.02051964 0.012049986 -0.016730238 0.037049603
-0.005839945 0.003188772 0.03130708 0.0067639123 -0.020916883 -0.007016924 0.0034549038 -0.011801544
00000000: 0ccb b33a f185 95bb 8fbd dcbc 9566 2b3c
00000010: 16db 08bd f984 01bc ab57 e93b a35c 4fbc
00000020: bfe1 a83c 13fc ee3c ea5d 8e3b 8f5d ae3b
00000030: dfa0 4e3c 2afc 513d e868 413d 882b 483d
00000040: f0a8 423d 35f4 323d 5fbd 84bc e93e a1bb
00000050: 8252 febb cffe 943c 59b5 f73b 5fc4 72bc
00000060: d29e 953c de8c c3bc 9262 27bb 796e 87bc
00000070: 0b0a 563c ac14 01bc 2976 60bc 2fdb af3c
00000080: 6dac 123c a18a d6bc 857c 153c 9df9 873c
00000090: ca15 633d fbec cb3c b063 213c c1a1 5e3d
000000a0: d176 f53a b7df 403d 4779 d63a ec34 4c3d
000000b0: 1a16 463d 0c3d 323c 1bf4 99bc ed72 e2bc
000000c0: 6b94 e2bc d371 833b 2a85 55bc 3b2a bc3b
000000d0: ce0d a1bc 9297 913b 77f3 523b b3b2 4e3c
000000e0: 6c0f e2bc 7fbe 7a3c 6542 dc3c d397 893c
000000f0: a180 7abb 4026 953c 4180 163d bc5a 413b
00000100: 1531 383c eadc d1bc 2618 8ab7 721b 0b3c
00000110: 7b36 fdbc 1def a83c 2fd6 95bc cc74 2b3c
00000120: 2abd 1b3c f1a8 dbbc 994d cfbc 7072 db3c
00000130: 85b3 7e3c 9e45 ae3c 0488 933c e203 ecb9
00000140: 76cd 1e3b e25f 2ebc cf48 0cbc 75cb 623c
00000150: 234b da3c a861 c7bb d59c 143c d010 a8bc
00000160: a8ce 39bc 8f4a bfbb 1b69 05bc cc21 bdbc
00000170: efec 053d 2153 933b a9b4 ecbb 905e ae3c
00000180: e913 03bc b1cd d2bc 58f4 023c 8df2 34bc
00000190: bc2f 3e3c e772 073c f2b4 29bb f7cd 1f3d
000001a0: 6cc6 663c a551 0d3d b400 3b3d e00a 183d
000001b0: a1cb 97bc f783 b53b 6ea0 923c 8e1f d8bc
000001c0: 2730 2cbc 3e64 bfbc 3821 5ebc 861d 7e3b
000001d0: 3733 653b 467f 6ebc 182f bdbb e520 d03b
000001e0: db6a 933c c0ea b3bc 9ca5 453c f5be 45bc
000001f0: e607 d9bc 54e1 ce3c 2460 f7bc 4e56 bdbc
00000200: 4756 c7bb c5ef 243c 39bf dabb 5be3 223c
00000210: 7f9e ccbc 7924 883c e4e0 3cbc 8108 173c
00000220: 1224 3a3c c7b4 99bc 8bea 9cbc 3326 0fbd
00000230: d7d1 c3bb 8015 0ebc 58fd 53bc e644 ab3c
00000240: 50a3 253c a8f4 c4bc f0b9 d2bc 6158 313c
00000250: 2787 673c 8223 a2bc 963c 053b 95db dcbb
00000260: 9a3d 9ebc 2ca5 edbd 9e82 94bd 82f4 e5bd
00000270: 789d 6dbd 9589 92bd c4ee 91bd 29a2 c0bd
00000280: 5477 85bd fb0a 9ebd 83ef a9bc d361 a13c
00000290: edc6 ca3c 7ce5 f2bb 8b21 5abc 3973 c2bc
000002a0: 8c16 60bc 758b a8bc e566 a2bc faea e4bb
000002b0: 0c57 aebc 39df f83c 3c59 d3bb d077 e8bc
000002c0: 6ea7 cdba 337a 8a3c 2c9c 16bc 23ac f73c
000002d0: 71fb 943c 02f2 5abc 3ef6 e2bc 47d1 2fbc
000002e0: feb7 073c 9f29 8f3c df13 1e3d 7fc0 233d
000002f0: 50ea 1a3d e6de 1abd a5dc 65bc 26cf 3fbc
00000300: 0334 e0bc f205 d8ba 5a0c e8ba aa57 91bb
00000310: d72f 91ba 20b4 babc b4fd f8bc 76ce 16bd
00000320: 327f f63b e0d7 ac3a ed9e ab3a 284b d4bb
00000330: f807 d03b dc32 3cbc 1d8e b6bc ef4e 073c
00000340: 76d5 ae3c a722 e1bb 3e92 b2bb 9298 b93c
00000350: efc3 3cbc 2d25 dbbc 5f1c ea3c f141 7cbc
00000360: f672 e23b cfda 2a3c 6632 71bc 60a2 d23c
00000370: 9932 95bc b53e acbc f63f fb3c 1006 88bc
00000380: 929d d2bc 4639 23bc e64b c53c 44c6 48bc
00000390: 97e5 efbc 7dd9 df3c 90b3 6dbc 9634 a738
000003a0: a3fa 1d3c 73f1 4cbc 3e0f dbbd 0611 0bbe
000003b0: e6c1 dcbd c6ac edbd dbb6 f4bd c955 9ebd
000003c0: dcf6 afbd 0c94 04be 8f86 d4bd 8906 1abb
000003d0: ce18 a8bc 4e6d 453c da0d 89bc 53c1 173d
000003e0: 025d bfbb b7fa 503b da3b 003d cfa3 dd3b
000003f0: e259 abbc 3aee e5bb ab6b 623b 435b 41bc

model.4.bias f4 [64]
-0.022468949 -0.024806777 -0.0071609495 0.0017051569 -0.028844114 -0.016638355 0.04728733 -0.024430579
0.008562208 0.008042858 0.010963392 0.028488703 -0.037994042 -0.0029196646 0.014562147 -0.013522274
-0.033580627 -0.010555285 -0.015722407 0.031060884 -0.025366414 0.0069182627 -0.027309446 0.0056114066
0.01935197 -0.0012765455 -0.012044722 -0.0023941586 -0.011862058 -0.025060117 -0.0011218293 -0.02730495
-0.01916935 0.017922934 -0.032430485 0.008182415 -0.030885557 -0.009559857 -0.010298966 0.0042749746
-0.007605763 0.0065735467 -0.025199698 0.0105671035 -0.006423456 -0.013937801 -0.02831889 -0.032815546
-0.05984316 0.014298948 -0.0027933575 -0.027459389 -0.024636598 0.0196011 -0.04268698 0.023570148
0.00039593974 0.008920592 -0.025996745 -0.013494401 0.002485913 0.005566184 -0.030157728 -0.016959652
00000000: cd10 b8bc 9537 cbbc 66a6 eabb 927f df3a
00000010: 7e4a ecbc 294d 88bc 5cb0 413d a322 c8bc
00000020: 8148 0c3c 31c6 033c cd9f 333c 2461 e93c
00000030: a49f 1bbd d857 3fbb 1296 6e3c 878c 5dbc
00000040: d78b 09bd 13f0 2cbc 47cc 80bc 6573 fe3c
00000050: 3acd cfbc 98b2 e23b 0fb8 dfbc e4df b73b
00000060: 0688 9e3c c251 a7ba 3a57 45bc 51e7 1cbb
00000070: 1459 42bc e04a cdbc 580a 93ba a1ae dfbc
00000080: 0a09 9dbc 1ed3 923c d4d5 04bd 890f 063c
00000090: b503 fdbc f2a0 1cbc ffbc 28bc 1615 8c3b
000000a0: c439 f9bb e866 d73b 996f cebc a521 2d3c
000000b0: db7b d2bb 605b 64bc 04fd e7bc 9869 06bd
000000c0: 1a1e 75bd 2346 6a3c c310 37bb 83f2 e0bc
000000d0: b1d2 c9bc 7c92 a03c 8bd8 2ebd 2f16 c13c
000000e0: 2296 cf39 ad27 123c 20f7 d4bc 9f17 5dbc
000000f0: b3ea 223b 8964 b63b 570d f7bc f8ee 8abc

model.6.weight f4 [3, 64, 3, 3]
-0.0038187236 0.026711982 -0.027795257 -0.027344016 -0.034022868 0.0033194574 -0.0010910002 0.015973004
0.00484363 0.0512276 0.04300077 0.04051629 0.057393946 -0.012315839 -0.0017597512 0.045338225
-0.0136736445 0.055087972 0.013312872 -0.04542917 0.03196199 0.0308908 0.03271947 -0.021107946
-0.004061108 0.024980092 -0.02552336 -0.04589058 -0.04964973 -0.023664836 -0.061816245 -0.009795654
0.0048040706 0.00035029356 0.007972179 -0.000492369 0.008365193 -0.031582143 -0.018326554 -0.03685715
0.031787362 -0.03141444 -0.031198971 0.0083242105 -0.042119805 0.042562045 0.05665126 0.048734248
0.011826847 0.031203218 0.013300625 -0.021255197 0.051488627 0.04769307 -0.02127473 -0.07287716
-0.024521858 -0.033956595 -0.056342967 -0.030656174 -0.04997717 -0.065586425 -0.09231341 -0.008760481
0.040377293 -0.0312717 0.03373572 -0.030489953 -0.02261759 0.020584535 0.019303245 -0.014929153
-0.029253405 -0.072035864 -0.0692835 -0.004050273 -0.058386993 -0.015443358 1.4903433e-05 0.0059323623
-0.0021678978 -0.033773925 0.013133757 0.005426966 -0.0037541615 -0.021646582 -0.015734063 -0.020285124
-0.018085625 -0.000848603 -0.0025123484 -0.004399386 -0.03253846 -0.04550946 -0.03144303 0.010365197
0.01745285 -0.0059185894 -0.037665274 -0.0485591 -0.045223814 0.019679964 -0.042385403 -0.022333013
-0.030292528 -0.016744565 0.014912518 -0.02243493 0.033006188 -0.039075557 0.025753833 0.025733192
-0.0028470114 -0.002201487 0.037337493 0.0044130892 0.037257735 0.024813116 0.0027050097 0.012900275
0.02819133 0.003974282 0.0066752955 0.009365942 0.022546003 -0.031220779 -0.012047263 -0.009169654
-0.00027998543 -0.017826162 -0.009701307 -0.025020119 -0.03331081 0.030331861 -0.014454557 -0.052393347
-0.03240938 -0.022528311 0.0064894175 -0.009356469 -0.0077321213 -0.041300934 0.011217822 -0.026110137
-0.011050966 0.014610421 0.01310486 0.0011251947 -0.025308868 -0.055303305 0.0015471997 0.0264015
-0.0030458746 -0.026292682 0.010343396 -0.041463036 0.0199607 -0.005478959 0.0019648054 -0.048931893
0.0060243467 -0.00032921313 -0.053705994 -0.03146592 0.010125559 -0.023599412 -0.0068903663 -0.017316852
-0.04454658 -0.0515306 -0.035435814 -0.023208143 0.028953837 0.027467284 0.03132923 -0.041542236
-0.027556244 0.022286458 -0.034216918 -0.03515712 -0.021092005 -0.032836173 0.029134898 0.016038086
0.024460265 0.007855119 -0.027344963 -0.04064304 0.028778646 -0.02125957 -0.03263163 -0.017728101
-0.033558294 0.011009743 0.026393002 0.030535165 0.013482541 0.030388659 -0.00843004 -0.013204888
0.027300645 -0.019369662 0.014530396 -0.010342805 -0.041150786 -0.016152048 0.01715861 0.013692552
0.023040013 0.0149881635 -0.028357182 -0.05007411 0.025571594 -0.030635538 0.026025826 -0.010866873
-0.061513573 -0.04035896 -0.059359726 -0.03735593 -0.024000658 -0.042732093 -0.001167671 -0.024311386
-0.06148423 0.019316709 -0.015422427 0.0051987087 0.027183004 0.031917382 -0.031539507 0.009285674
0.008574693 -0.03900672 -0.029128378 -0.040710364 0.014770348 -0.011120605 0.02405024 0.021195253
-0.037304915 -0.04925018 -0.0010903999 -0.015937308 -0.033851672 0.008883531 0.03606424 -0.008554525
-0.004186328 0.021842804 0.039004166 0.0021298036 0.005006453 -0.045166023 -0.0076579694 -0.0044975528
00000000: 8d43 7abb 16d3 da3c e1b2 e3bc 8f00 e0bc
00000010: 905b 0bbd 418b 593b e4ff 8eba d1d9 823c
00000020: 50b7 9e3b 08d4 513d 9321 303d 69f4 253d
00000030: ea15 6b3d 5fc8 49bc 74a7 e6ba 93b4 393d
00000040: 6c07 60bc eda3 613d 3b1e 5a3c f013 3abd
00000050: 93ea 023d b40e fd3c da04 063d 92ea acbc
00000060: 0b13 85bb 0da3 cc3c 5e16 d1bc c3f7 3bbd
00000070: 845d 4bbd c2dc c1bc 0833 7dbd f37d 20bc
00000080: 776b 9d3b 9ba7 b739 be9d 023c 5312 01ba
00000090: 2a0e 093c 475c 01bd 9221 96bc 86f7 16bd
000000a0: 7733 023d 6eac 00bd fc94 ffbc 4562 083c
000000b0: d185 2cbd 8a55 2e3d 270b 683d 909d 473d
000000c0: 64c5 413c e49d ff3c ddea 593c 611f aebc
000000d0: bde5 523d cf59 433d 5848 aebc 9f40 95bd
000000e0: 10e2 c8bc 1216 0bbd e2c7 66bd a822 fbbc
000000f0: dcb4 4cbd 2d52 86bd d00e bdbd 1f88 0fbc
00000100: a962 253d c116 00bd 772e 0a3d 11c6 f9bc
00000110: 8648 b9bc e6a0 a83c d721 9e3c 6899 74bc
00000120: d6a4 efbc 8a87 93bd 82e4 8dbd 27b8 84bb
00000130: 3327 6fbd 2306 7dbc c209 7a37 4364 c23b
00000140: 4a13 0ebb 8756 0abd f82e 573c b1d4 b13b
00000150: 6108 76bb 2c54 b1bc b9e4 80bc fd2c a6bc
00000160: 4e28 94bc c974 5eba 36a6 24bb b928 90bb
00000170: 0c47 05bd 2168 3abd 68ca 00bd cad2 293c
00000180: 47f9 8e3c baf0 c1bb e746 1abd e8e5 46bd
00000190: 9b3c 39bd e037 a13c 519c 2dbd b9f3 b6bc
000001a0: 0928 f8bc e62b 89bc a253 743c 75c9 b7bc
000001b0: 7f31 073d b10d 20bd b4f9 d23c 6ace d23c
000001c0: ed94 3abb d346 10bb 33ef 183d ad9b 903b
000001d0: 919b 183d e044 cb3c 8846 313b ad5b 533c
000001e0: 81f1 e63c b23a 823b 70bc da3b 9c73 193c
000001f0: 65b2 b83c b8c2 ffbc e261 45bc 513c 16bc
00000200: 02cb 92b9 2c08 92bc 3bf2 1ebc fef6 ccbc
00000210: ea70 08bd 867a f83c ced2 6cbc 689a 56bd
00000220: b3bf 04bd 4b8d b8bc 2ea5 d43b e04b 19bc
00000230: bc5d fdbb 2b2b 29bd f5ca 373c ede4 d5bc
00000240: 1c0f 35bc 8c60 6f3c c4b5 563c 457b 933a
00000250: 8b54 cfbc b885 62bd 68cb ca3a f547 d83c
00000260: 4c9d 47bb c063 d7bc 5977 293c 25d5 29bd
00000270: 9f84 a33c d788 b3bb f7c3 003b cf6c 48bd
00000280: e267 c53b 3d9a acb9 d1fa 5bbd 69e2 00bd
00000290: ace5 253c 8e53 c1bc 95c8 e1bb 12dc 8dbc
000002a0: 7a76 36bd c011 53bd 2525 11bd 011f bebc
000002b0: 9930 ed3c 1203 e13c 1453 003d 3128 2abd
000002c0: a2bd e1bc 1792 b63c 0a27 0cbd ea00 10bd
000002d0: 24c9 acbc 397f 06bd 4fac ee3c 4e62 833c
000002e0: e560 c83c c2b2 003c 8b02 e0bc 5179 26bd
000002f0: 32c1 eb3c 8d28 aebc bea8 05bd 863a 91bc
00000300: 6c74 09bd 3662 343c 2336 d83c e224 fa3c
00000310: e0e5 5c3c a3f1 f83c 271e 0abc 5159 58bc
00000320: 9aa5 df3c 20ad 9ebc e610 6e3c de74 29bc
00000330: ba8d 28bd 4d51 84bc 3790 8c3c ba56 603c
00000340: 69be bc3c ea90 753c 524d e8bc 831a 4dbd
00000350: 857b d13c 61f7 fabc 1d34 d53c f80a 32bc
00000360: a8f5 7bbd 704f 25bd 2f23 73bd 8802 19bd
00000370: 079d c4bc d907 2fbd 8a0c 99ba ac28 c7bc
00000380: e3d6 7bbd 133e 9e3c 59ae 7cbc ee59 aa3b
00000390: e4ae de3c cdbb 023d 922f 01bd f122 183c
000003a0: df7c 0c3c 83c5 1fbd a39e eebc e9bf 26bd
000003b0: 54ff 713c 3333 36bc 0205 c53c aba1 ad3c
000003c0: 0acd 18bd 8fba 49bd c0eb 8eba f58e 82bc
000003d0: 0da8 0abd 3b8c 113c 19b8 133d 4728 0cbc
000003e0: 772d 89bb aeef b23c d5c2 1f3d 2d94 0b3b
000003f0: 2c0d a43b 0200 39bd b4ef fabb 3560 93bb

model.6.bias f4 [3]
-0.030203933 0.03957727 -0.03840194
00000000: 3d6e f7bc c71b 223d 5a4b 1dbd
