weights/ve_lol_dataset/capture/generator_weights.pth (torch, 608184 bytes, 8 tensors)

model.0.weight f4 [64, 3, 3, 3]
0	0xbc38e003	-0.011283877
1	0x3e1a0179	0.15039624
2	0x3cdddeb4	0.027083732
3	0xbe3a63ef	-0.18202184
4	0x3d38149a	0.044941522
5	0x3d643662	0.055715926
6	0x3db48cb7	0.08815902
7	0x3d0677da	0.032829143
8	0xbdc4e01e	-0.096130595
9	0x3cc9d1a2	0.024636094
10	0x3e084910	0.13309121
11	0xbe02e249	-0.12781633
12	0x3d9b7798	0.0759117
13	0xbe17df45	-0.14831264
14	0xbe3326af	-0.17495225
15	0xbe3e07b1	-0.18557622
16	0x3dd63b8b	0.10460576
17	0xbe3f19cb	-0.18662183
18	0x3d114b37	0.03547212
19	0xbe0bac53	-0.13639955
20	0x3d8b51b5	0.06802694
21	0x3ddcbf50	0.107786775
22	0x3d400b61	0.04688585
23	0x3e1296a3	0.14315276
24	0x3e0f3687	0.13985644
25	0x3d01923f	0.03163361
26	0x3e170bd3	0.14750604
27	0xbe2ae4ce	-0.16688845
28	0xbdf2f011	-0.11862195
29	0x3d90e6d5	0.07075278
30	0x3c6ea010	0.014564529
31	0xbdb2460f	-0.08704769
32	0xbe07c658	-0.13259256
33	0x3d75bcb4	0.059994414
34	0xbdc85e13	-0.09783568
35	0xbe3cd763	-0.18441539
36	0x3d64b846	0.0558398
37	0xbddc8eb8	-0.10769409
38	0x3dbd96a0	0.09257245
39	0x3c39d12d	0.011341375
40	0x3d19b501	0.037526134
41	0xbe0864cc	-0.13319701
42	0x3dd8bfb9	0.10583443
43	0x3cbfb853	0.023403322
44	0x3d3edaff	0.04659557
45	0x3d14d1b4	0.0363328
46	0xbe381ef1	-0.17980553
47	0xbe7aeaf5	-0.24503691
48	0xbe54890e	-0.20755407
49	0xbd6abd73	-0.05730958
50	0xbcd77518	-0.026300952
51	0x3d69f1d7	0.057115402
52	0xbd2ee2b6	-0.042696677
53	0xbe0fa97e	-0.140295
54	0xbe6f3840	-0.23361301
55	0xbd8a5878	-0.06755155
56	0xbc84ca7b	-0.016209831
57	0xbdc9834c	-0.09839496
58	0xbdb40096	-0.08789174
59	0xbd53f9b5	-0.05175181
60	0xbe80e534	-0.25174868
61	0xbdaac3e3	-0.08338144
62	0xbd8b85a5	-0.068126
63	0x3d83ff7c	0.06445214
64	0xbe1cbfac	-0.15307492
65	0xbda34300	-0.079717636
66	0xbe6beb23	-0.23038916
67	0x3c6c66e8	0.014428832
68	0xbd53143a	-0.05153296
69	0x3ca6fb06	0.02038337
70	0xbe16e4c8	-0.1473571
71	0x3d76b242	0.060228594
72	0x3df7224a	0.12067087
73	0xbe26c1dc	-0.16284889
74	0xbe811b62	-0.25216204
75	0xbe4fbbe3	-0.20286517
76	0xbe49dfb3	-0.1971424
77	0xbe2d590b	-0.16928498
78	0x3de2442f	0.11048161
79	0xbde5f4c3	-0.11228325
80	0xbe769cc9	-0.24083246
81	0xbe2c6c8f	-0.16838287
82	0x3ddeeed2	0.10885395
83	0x3e01b191	0.12665392
84	0x3e034c54	0.12822086
85	0xbe41e6dc	-0.18935722
86	0xbbfcc23c	-0.007713584
87	0xbd8b5753	-0.06803765
88	0xbdcc8e39	-0.09988064
89	0xbe2b2446	-0.16713056
90	0x3d9a640a	0.07538612
91	0xbdfd4887	-0.12367349
92	0xbe474e95	-0.1946357
93	0xbe0f263d	-0.1397943
94	0xbe641c8e	-0.22276518
95	0x3cbb95a9	0.022898512
96	0x3db7f768	0.08982736
97	0x3da7b5a0	0.08188939
98	0x3d46ade4	0.04850568
99	0x3e09b5fc	0.13448328
100	0xbe1d5b69	-0.15366901
101	0xbd2019e0	-0.039087176
102	0x3e0e1e96	0.13878855
103	0x3dc4a5c0	0.09601927
104	0x3e091e8e	0.13390562
105	0xbbf9e1b7	-0.0076257843
106	0xbd97db80	-0.07414913
107	0xbd43623e	-0.047701113
108	0xbe315241	-0.17316534
109	0x3d86abb8	0.065757215
110	0xbd01f170	-0.031724393
111	0xbdc4709c	-0.09591791
112	0xbe3f3c58	-0.18675363
113	0x3d0a70af	0.03379887
114	0xbe475da5	-0.19469316
115	0xbe5e7ddd	-0.217277
116	0x3dadf3ab	0.084937416
117	0xbdb7dbe7	-0.0897749
118	0xbd1e6ac4	-0.03867604
119	0xbe79039b	-0.24317782
120	0xbe320564	-0.17384869
121	0xbe5a98d7	-0.21347366
122	0x3d8f5067	0.069977574
123	0x3d741572	0.059590764
124	0xbd2a5f68	-0.041594893
125	0x3d0da241	0.034578566
126	0xbdb2bd23	-0.08727481
127	0xbdba828f	-0.09106933
128	0xbde9bfef	-0.114135616
129	0xbe8853d0	-0.26626444
130	0xbe30efd0	-0.17278981
131	0xbd858874	-0.06520167
132	0xbe1e3fbe	-0.15454003
133	0x3d29922d	0.04139917
134	0xbc6770b8	-0.014125995
135	0xbda48377	-0.080328874
136	0xbda11ea4	-0.07867172
137	0xbe32d79a	-0.17465058
138	0x3ba9db68	0.005183626
139	0xbdda555a	-0.10660811
140	0xbda77391	-0.081763394
141	0x3d34fcca	0.04418639
142	0xbe3f3208	-0.18671429
143	0x3d896e3a	0.06710477
144	0xbe611d37	-0.21983801
145	0xbe04d414	-0.12971526
146	0x3da0d87c	0.07853791
147	0x3dc3d1b8	0.09561485
148	0xbdb73365	-0.089453496
149	0x3dabf53b	0.083963834
150	0xbd8c70c6	-0.06857447
151	0x3d7a7bd2	0.06115324
152	0xbc293f06	-0.010329967
153	0x3d14493e	0.03620266
154	0xbdcf47e5	-0.10121135
155	0xbdd9ccdc	-0.10634777
156	0xbdfb076b	-0.12257274
157	0xbe4180b3	-0.18896751
158	0xbe33d3f2	-0.1756132
159	0xbcead43b	-0.028665652
160	0xbd892591	-0.06696618
161	0xbcc3be3a	-0.023894418
162	0xbe410009	-0.1884767
163	0xbe1f42e9	-0.15552868
164	0xbd0dfde3	-0.034665953
165	0xbe62cb6f	-0.22147916
166	0xbe6533aa	-0.2238299
167	0xbddefb6d	-0.108877994
168	0xbd8e8370	-0.069586635
169	0xbd69eebe	-0.057112448
170	0xbe16503f	-0.14679049
171	0xbddf4c08	-0.10903174
172	0x3c7f4eee	0.015582783
173	0xbc8c47c4	-0.017124064
174	0xbde2c716	-0.11073129
175	0xbdbc4c04	-0.09194186
176	0xbe671937	-0.22568212
177	0x3df11d0d	0.11773119
178	0xbe15145f	-0.14558552
179	0xbd921b8f	-0.07134163
180	0xbda53656	-0.080670044
181	0xbe4723f0	-0.19447303
182	0xbddb3081	-0.10702611
183	0xbe65a9f9	-0.2242812
184	0x3d3396f5	0.043845136
185	0x3de25485	0.11051277
186	0xbe4a4a90	-0.19755006
187	0xbe72e497	-0.23720013
188	0xbd35242c	-0.04422395
189	0x3d9c9350	0.07645285
190	0xbcfbe67e	-0.030749556
191	0x3d70d855	0.05880006
192	0xbb95c6e2	-0.004570828
193	0xbc8195bd	-0.015818471
194	0xbe624bb1	-0.22099186
195	0xbe084498	-0.13307416
196	0xbdabe4a7	-0.08393221
197	0x3d9b5f82	0.07586576
198	0xbddfca36	-0.109272406
199	0x3d6f91d3	0.05848868
200	0x3ce64452	0.02810875
201	0x3d0c494c	0.03424959
202	0xbe2c944a	-0.16853443
203	0xbbc55451	-0.006022014
204	0xbd28a81e	-0.041175954
205	0xbdce6ded	-0.100795604
206	0xbc8e651c	-0.017382197
207	0xbe448ab5	-0.19193538
208	0x3de5a3a6	0.11212854
209	0xbdcb4bcf	-0.09926569
210	0xbdc9d4ab	-0.09855016
211	0x3d14d92f	0.036339935
212	0xbd3fe31a	-0.04684744
213	0xbde53e84	-0.111935645
214	0xbdc6300d	-0.09677134
215	0x3db8602a	0.09002717
216	0xbd9ad926	-0.07560949
217	0xbc8f2b97	-0.01747684
218	0x3dda38d9	0.10655374
219	0xbbe36c5e	-0.0069404086
220	0x3db23030	0.08700597
221	0x3e45c24a	0.19312397
222	0xbe170668	-0.14748538
223	0xbe3093b4	-0.17243844
224	0x3d242715	0.040076334
225	0xbbe70caf	-0.0070510725
226	0x3d1c7f90	0.03820759
227	0xbe20d80a	-0.15707412
228	0xbe2dd571	-0.16975953
229	0xbd198152	-0.037476845
230	0x3cea5229	0.02860363
231	0xbe2cdacd	-0.16880341
232	0xbe264405	-0.16236885
233	0xbd284515	-0.041081507
234	0x3c06e338	0.008232884
235	0x3d30698e	0.043069415
236	0xbe01ff1f	-0.12694977
237	0xbd9efc0e	-0.07762919
238	0xbd3d4271	-0.04620594
239	0xbcd771d5	-0.026299397
240	0xbd9d0b62	-0.07668187
241	0xbe2db1bd	-0.16962333
242	0xbe190c62	-0.1494613
243	0xbdd79d6b	-0.10528072
244	0xbd2b3b9f	-0.041804906
245	0x3d4349f7	0.04767796
246	0x3e1d2dfa	0.1534957
247	0x3e0f79df	0.14011334
248	0xbda5411c	-0.08069059
249	0xbd3890bd	-0.04505991
250	0x3d064bdb	0.032787185
251	0xbde89d3c	-0.11358115
252	0xbc4b56e3	-0.012410852
253	0x3be975a5	0.00712462
254	0x3db1cf34	0.08682099
255	0xbdc2f1b7	-0.0951876

model.0.bias f4 [64]
0	0xbdc6e27a	-0.09711166
1	0x3d515d98	0.05111465
2	0x3dc4f935	0.09617845
3	0xbcbfeb8b	-0.023427745
4	0x3db6d523	0.08927371
5	0x3d683831	0.056694213
6	0x3ddb978a	0.10722263
7	0x3cf85bf6	0.030317288
8	0xbe1b9e5a	-0.15197125
9	0xbe3415fb	-0.1758651
10	0x3dae6458	0.08515233
11	0xbdaf5523	-0.085611604
12	0xbca3c702	-0.019992355
13	0x3d74f9f1	0.059808675
14	0xbe282984	-0.16422087
15	0xbda575c1	-0.080791004
16	0xbe0acea9	-0.13555397
17	0x3cd559e1	0.026043834
18	0xbdc73e6d	-0.09728704
19	0xbbfd239d	-0.0077251927
20	0xbda9bc57	-0.08287876
21	0xbc653420	-0.013989478
22	0xbddd6f45	-0.108122386
23	0x3dcc03e9	0.09961683
24	0xbd937982	-0.0720091
25	0xbdce3545	-0.10068754
26	0xbdacd8d2	-0.08439793
27	0x3d892d66	0.06698112
28	0x3d4ce7e2	0.05002583
29	0x3b50ae5e	0.0031842212
30	0xbd8a18f2	-0.06743039
31	0xbe0f16a4	-0.1397348
32	0xbd47609f	-0.04867613
33	0x3cdbf084	0.026848085
34	0x3d07f88c	0.033196017
35	0x3d8997dd	0.06718419
36	0x3d9dbc40	0.077019215
37	0xbe244a5b	-0.1604399
38	0x3d8b7def	0.06811129
39	0xbd4f8fe5	-0.050674338
40	0xbc76ee69	-0.01507149
41	0xbe3ff33f	-0.18745135
42	0xbd72e60f	-0.059301432
43	0xbdd3cee4	-0.10342196
44	0xbe13bd2a	-0.14427629
45	0xbd74a2aa	-0.05972544
46	0x3d9b41b8	0.07580894
47	0xbd82d0cc	-0.06387481
48	0xbd877c75	-0.06615535
49	0xbddadd77	-0.10686772
50	0xbb9d3783	-0.0047978773
51	0xbe17ac3b	-0.14811794
52	0xbe1adbdc	-0.15122932
53	0xbc9a8efa	-0.018867005
54	0xbe0ec59c	-0.1394257
55	0x3d5d769b	0.05406819
56	0xbe0740db	-0.13208334
57	0x3d99ed75	0.075159945
58	0xbd62cbaf	-0.05537003
59	0x3d7fbd86	0.062436603
60	0xbd36c42a	-0.04462067
61	0xbe214b5f	-0.15751408
62	0xbd9a97f7	-0.07548516
63	0x3d963426	0.07334165

model.2.weight f4 [128, 64, 3, 3]
0	0x3cb783a6	0.022401642
1	0x3d561510	0.05226618
2	0x3cbb3a62	0.022854988
3	0xbb6ff9d9	-0.0036617427
4	0x3d35a5b9	0.0443475
5	0x3c75ec38	0.015009932
6	0xbc2e294f	-0.010629966
7	0x3d35278e	0.044227175
8	0x3d191c03	0.03738023
9	0x3c2b3f5f	0.010452121
10	0x3caa8b2d	0.020818317
11	0xbd1cc02c	-0.038269207
12	0xbb857d5f	-0.0040737833
13	0xbc024b66	-0.007952547
14	0x3cf9f73d	0.0305134
15	0x3cb2342c	0.021753393
16	0x3b2a75f7	0.0026010254
17	0x3cc5305a	0.024070907
18	0x3d097807	0.033561733
19	0xbd1aa720	-0.03775704
20	0xbbfbe673	-0.007687384
21	0x3cd576ca	0.02605762
22	0x3bb7c8a0	0.005608633
23	0xbd2b2d67	-0.041791346
24	0xbc2625d8	-0.010140859
25	0xbc8db670	-0.017298907
26	0x3cc80649	0.02441706
27	0xbcb04cd4	-0.02152101
28	0x3d2fbb57	0.04290327
29	0xbc043c60	-0.008071035
30	0x3d12c36d	0.035830904
31	0x3d295dd5	0.04134925
32	0xbd0117dc	-0.031516895
33	0xbca3f234	-0.020012952
34	0xbbc6a6d3	-0.0060623675
35	0x3d478907	0.048714664
36	0xbd19057b	-0.037358742
37	0xbd268f0e	-0.04066377
38	0x3c98f5c3	0.018671876
39	0x3c7bef7f	0.015376925
40	0xbc3fc2fe	-0.011704205
41	0x3c49776e	0.012296541
42	0xbd156637	-0.036474433
43	0x3c1a9f93	0.0094374595
44	0xbd272089	-0.040802512
45	0xbc2de5d5	-0.010613878
46	0xbb99bf85	-0.0046920204
47	0xbc0ab047	-0.008464879
48	0x3cf29d5f	0.029616056
49	0x3b4cf31e	0.0031272839
50	0x3c5fadb2	0.013652252
51	0x3d022afa	0.031779267
52	0xbcae6371	-0.021287652
53	0x3ce96c49	0.028494017
54	0xbd199de6	-0.0375041
55	0xbd11be52	-0.035581894
56	0x3cd6797c	0.026180975
57	0x3d02adc8	0.031904012
58	0x3c4f9a4b	0.012671064
59	0x3d141cb5	0.03616019
60	0xbacb34bb	-0.0015503386
61	0xbab5d46d	-0.0013872512
62	0xbcb7f9e2	-0.02245802
63	0x3ccd30ba	0.025047649
64	0xbd192430	-0.037388027
65	0xbc14c381	-0.009079815
66	0xbcab4e9f	-0.020911513
67	0x3cbbd881	0.022930386
68	0x3bf4152e	0.007448814
69	0xbd040e3b	-0.032240134
70	0x3be150c0	0.006876081
71	0xbcc3c16e	-0.023895945
72	0xbcf0dc8f	-0.029402046
73	0xbca12668	-0.019671634
74	0xbc7fab23	-0.015604767
75	0x3c54168c	0.012944829
76	0x3caee000	0.021347046
77	0x3b7485ac	0.003731112
78	0x3bc600a7	0.0060425582
79	0xbd15e3fc	-0.036594376
80	0xbc407678	-0.011746995
81	0xbc92b72a	-0.017909605
82	0x3c83bf2b	0.016082367
83	0xbca07fbc	-0.019592158
84	0x3c4ef118	0.012630723
85	0xbd0347e5	-0.032050986
86	0xbd20d07b	-0.039261322
87	0x3cd3b009	0.025840776
88	0x3b1f67a3	0.0024323247
89	0xbcceeb4e	-0.025258686
90	0xbd05aac6	-0.032633565
91	0xbc83dfb2	-0.016097877
92	0xbcf10875	-0.029422978
93	0x3c951a92	0.018201146
94	0x3cb1982a	0.021679003
95	0x3cbbb764	0.022914596
96	0xbc247ce3	-0.010039541
97	0x3d0a7bf2	0.03380961
98	0x3c8386ae	0.016055431
99	0xbbea2f3e	-0.007146745
100	0x3cc00527	0.023439957
101	0x3bf456d8	0.0074566416
102	0xbaf2a886	-0.0018513359
103	0xbc8fbece	-0.017547037
104	0x3b7d4ee7	0.0038651766
105	0x3b30b8de	0.0026965658
106	0x3d17bfaa	0.03704802
107	0x3d1b6c9b	0.03794537
108	0xbced7be2	-0.028989736
109	0x3c3514c0	0.0110523105
110	0x3c949109	0.018135564
111	0xbb3f22f2	-0.0029165116
112	0x3d2bbf37	0.041930404
113	0xbc973066	-0.018455695
114	0x3acf4bd7	0.0015815449
115	0xbc136be9	-0.008997896
116	0xbc211d15	-0.009833594
117	0x3c844771	0.016147347
118	0xbc2eee26	-0.010676896
119	0x3c8afd3b	0.016966453
120	0xbd10723f	-0.035265204
121	0xbc4b47ee	-0.012407286
122	0xbc5edbdb	-0.013602222
123	0xbcebc406	-0.028779995
124	0x3b7b3f0f	0.0038337146
125	0xbccb4ed4	-0.024817862
126	0x3c980666	0.018557739
127	0x3d09d4ae	0.033650093
128	0xbb85f1d3	-0.0040876656
129	0x3d2091bc	0.039201483
130	0xbca0efa8	-0.019645527
131	0xbcb0d439	-0.02158557
132	0x3c8af01b	0.016960194
133	0x3c831024	0.015998907
134	0xbc525968	-0.012838699
135	0x3b8ab81e	0.0042333743
136	0x3c7ae58a	0.015313515
137	0xbcfea192	-0.031082902
138	0xbd7914da	-0.0608109
139	0x3cab1e3a	0.020888437
140	0xbc936b7c	-0.017995588
141	0xbc0514a7	-0.0081226
142	0xbd0d0b66	-0.0344347
143	0xbd0d79e4	-0.034540072
144	0xbc88c879	-0.016697155
145	0x3c66a286	0.014076835
146	0x3cddecc5	0.02709044
147	0x3d1783b4	0.036990836
148	0xbc5a1a62	-0.013311954
149	0x3b53d9bd	0.0032325827
150	0x3c9b904b	0.018989703
151	0xbc3b22bb	-0.011421855
152	0xbc9bd10e	-0.019020583
153	0x3ca5bb5b	0.02023094
154	0x3cb951c9	0.022622006
155	0x3d07e9b2	0.033181854
156	0x3ccebff7	0.02523802
157	0x3cee0d32	0.029059026
158	0x3be6c0f9	0.007042047
159	0xbd0652bb	-0.03279374
160	0xbcd1710d	-0.025566602
161	0xbb8cefb1	-0.0043010344
162	0xbd069d6a	-0.032864965
163	0x3d0d0fd2	0.034438916
164	0xbcf28043	-0.029602176
165	0xbcb8e5ba	-0.02257048
166	0xbca0d382	-0.019632105
167	0x3cdaeb40	0.026723504
168	0xbd28877d	-0.041144837
169	0x3d04a778	0.032386273
170	0x3d22f59a	0.039785005
171	0xbc62bc52	-0.013838844
172	0xbc922abd	-0.017842645
173	0x3a13c2e7	0.00056366477
174	0xbb9456b9	-0.0045269397
175	0x3d36cc4f	0.044628438
176	0xbd029ade	-0.031885974
177	0x3d33b1fa	0.043870904
178	0xbc5c21b1	-0.013435767
179	0x3d3af05f	0.045639392
180	0x3c104382	0.008805158
181	0x3c5a1b8d	0.013312233
182	0x3cd5e2a5	0.02610905
183	0xbc009645	-0.007848327
184	0x3d15a711	0.03653628
185	0x3d189fd8	0.037261814
186	0xbb98e065	-0.004665422
187	0xbc33d6f0	-0.010976538
188	0x3cae09ba	0.021244872
189	0xbc8f07bd	-0.017459745
190	0x3c83a9ac	0.016072117
191	0x3d0caf9a	0.034347154
192	0x3d3f46c0	0.04669833
193	0xbce3478e	-0.02774408
194	0x3ca753c5	0.020425687
195	0x3d3acbaf	0.045604404
196	0x3c948b0a	0.018132705
197	0xbbd627a8	-0.006535489
198	0xbcd5d097	-0.02610044
199	0x3cf26001	0.029586794
200	0x3b1dd2b8	0.0024081897
201	0xbcca4630	-0.024691671
202	0xbd2da790	-0.04239613
203	0xbc43f373	-0.011959898
204	0x3cf39f8c	0.029739164
205	0xbd36eef6	-0.044661485
206	0x3d009421	0.031391267
207	0xbc105c2e	-0.00881104
208	0x3cb664e4	0.022264905
209	0x3cc9d2be	0.024636623
210	0xbd1a3554	-0.037648514
211	0xbd156735	-0.03647538
212	0x3c1feedb	0.009761537
213	0x3cd7f16b	0.026360234
214	0x3cb6c6d3	0.022311604
215	0xbba66a40	-0.005078584
216	0xbd063894	-0.0327688
217	0x3ce7c32c	0.028291307
218	0x3c0b0fc7	0.008487648
219	0xbc59f8ae	-0.013303919
220	0xbcdc5309	-0.026895063
221	0x3c589796	0.013219735
222	0xbcb1d31a	-0.021707106
223	0x3caefa26	0.021359514
224	0xbb4a518b	-0.0030871357
225	0x3d1b9a3e	0.037988894
226	0x3c874d52	0.016516361
227	0x3d4e2dc6	0.05033662
228	0x3a3e61c1	0.0007262491
229	0x3d472b64	0.048625365
230	0x3d1ed661	0.038778666
231	0x3c4b08a4	0.012392197
232	0x3ca12826	0.019672465
233	0x3d054f96	0.032546602
234	0xbd1adaf3	-0.037806462
235	0xbce428d5	-0.027851501
236	0x3cf317bf	0.029674409
237	0xbcceed9f	-0.025259791
238	0x3c0360e8	0.00801871
239	0xbc99e73e	-0.018787023
240	0x3a169d66	0.00057455
241	0xbd147d08	-0.03625205
242	0xbccc58ff	-0.02494478
243	0xbd2e30ed	-0.042527128
244	0x3d075f74	0.033050016
245	0xbc7d9dd0	-0.01547952
246	0xbcc53595	-0.024073401
247	0x3a8d416a	0.0010776941
248	0xbc0c912c	-0.008579534
249	0x3cef5659	0.029215978
250	0x3ccaa554	0.024737038
251	0x3d1a3cdb	0.037655693
252	0xbc632bf0	-0.013865456
253	0x3b859d56	0.004077594
254	0x3cdf038b	0.02722337
255	0x3cfb7609	0.030695932

model.2.bias f4 [128]
0	0xbd19b23c	-0.037523493
1	0xbc75a69d	-0.014993337
2	0xbc651741	-0.013982595
3	0xbac20612	-0.0014802834
4	0xbb078497	-0.0020678395
5	0x3c97022d	0.018433655
6	0xbb470af7	-0.0030371526
7	0xbd151836	-0.036400042
8	0xbc8b2d41	-0.016989352
9	0x3d17fd25	0.03710665
10	0x3c9b4f7f	0.018958805
11	0xbd0637aa	-0.03276793
12	0x3d00505d	0.03132664
13	0x3cb1ff4d	0.021728182
14	0x3c17d918	0.009268068
15	0x3d1899a4	0.037255898
16	0xbc6a0c33	-0.014285135
17	0xbc5c487e	-0.013445018
18	0x3b512669	0.0031913763
19	0x3c71d3e0	0.014759988
20	0xbce13d28	-0.027494982
21	0x3cd9bd49	0.026579516
22	0xbcb17a99	-0.021664904
23	0x3bdde3f4	0.006771559
24	0xbcffe20a	-0.031235714
25	0x3ccfa20b	0.025345823
26	0xbb04763e	-0.002021208
27	0x3d07a4e9	0.033116255
28	0x3d15e26f	0.036592897
29	0x3b81adc9	0.0039574844
30	0x3a897984	0.0010488485
31	0x3ca18616	0.019717257
32	0xbd12b00a	-0.035812415
33	0x3cac8857	0.021061106
34	0xbcf64229	-0.030060844
35	0xbd2493ab	-0.04017989
36	0xbcde24ab	-0.027117094
37	0x3bc6fefe	0.006072878
38	0xbcb08d51	-0.02155176
39	0x3d1ff726	0.03905406
40	0xbc2bab27	-0.010477818
41	0xbcb88f00	-0.022529125
42	0xbcf536dc	-0.029933386
43	0xbc98bf83	-0.018646007
44	0xbca129d9	-0.019673275
45	0x3cf92bb7	0.030416353
46	0xbcdb98ae	-0.026806202
47	0xbd13181a	-0.035911657
48	0x3ca666fa	0.020312775
49	0x3cda4567	0.026644422
50	0xbc6dd191	-0.014515297
51	0x3c944cba	0.018102992
52	0xbd321b0c	-0.043482825
53	0x3c11ce55	0.008899291
54	0xbd084e65	-0.033277888
55	0x3d0258eb	0.03182308
56	0xbd254b0b	-0.04035477
57	0xbcee4ebc	-0.029090278
58	0xbcfd0f48	-0.030891076
59	0xbd01d8ed	-0.031701017
60	0xbb227966	-0.0024791597
61	0x3d3eb54e	0.046559624
62	0xbcab290d	-0.020893598
63	0xb9865427	-0.0002562117
64	0xbd36d0bb	-0.044632655
65	0x3c1d06c3	0.009584132
66	0xbc6f0e0e	-0.014590753
67	0x3c89044c	0.016725682
68	0xbd11fbeb	-0.03564064
69	0x3b8335ba	0.0040042074
70	0x3c9d53a3	0.01920492
71	0xbc88ba5c	-0.016690426
72	0x3c230742	0.009950461
73	0x3cba5549	0.022745745
74	0xbca0fb5e	-0.019651111
75	0x3cc4f5ba	0.024042953
76	0x3c9c2ac1	0.019063355
77	0x3d5c4545	0.053776998
78	0xbbfca8ea	-0.007710566
79	0xbcf36424	-0.029710837
80	0xbc1cde8e	-0.009574546
81	0xbc9b8665	-0.018984983
82	0xbc10c8c0	-0.008836925
83	0x3d66a068	0.05630532
84	0xbba5f9e4	-0.0050651897
85	0x3d0440cb	0.032288354
86	0x3c9ea3f0	0.01936528
87	0x3ca45950	0.020062119
88	0x3c064a16	0.008196374
89	0xbbe230d6	-0.0069027944
90	0xbc808aac	-0.015691124
91	0xbb9e2668	-0.0048263557
92	0xbb1e1801	-0.0024123194
93	0xbcfa5d36	-0.030562025
94	0xbba0805b	-0.0048981137
95	0xbb7a0757	-0.0038151348
96	0x3d565a86	0.052332424
97	0xb8868499	-6.414316e-05
98	0xbcd139fd	-0.025540346
99	0x3b0c7027	0.0021429153
100	0xbc555136	-0.0130198505
101	0xbc3e7ebe	-0.011626897
102	0xbb0935ea	-0.0020936676
103	0xbc99abdd	-0.018758709
104	0xbc8c4455	-0.017122427
105	0xbbbe126f	-0.0058005373
106	0x3a292778	0.00064527197
107	0xbc06c2c8	-0.00822515
108	0xbc3c96fa	-0.011510605
109	0x3d7980e7	0.060913946
110	0xbbb686e5	-0.00557028
111	0x3cdaca83	0.026707893
112	0x3d1b5159	0.037919376
113	0x3c55b131	0.013042734
114	0x3bb3afef	0.0054836194
115	0x3d03d261	0.032183055
116	0x3ce76b56	0.028249424
117	0xbb214eaf	-0.002461355
118	0xbc71665f	-0.01473388
119	0x3bff0992	0.0077831233
120	0x3c4e85fb	0.012605186
121	0xbd19329f	-0.03740179
122	0xbc8201f5	-0.015870074
123	0x3c8f4244	0.017487653
124	0x3c8311d2	0.015999708
125	0xbd200107	-0.03906348
126	0x3d12936a	0.035785116
127	0xbc087d6e	-0.008330686

model.4.weight f4 [64, 128, 3, 3]
0	0x3d08a757	0.033362713
1	0x3c56fed9	0.013122284
2	0xbb86b4be	-0.0041109016
3	0x3ac220c7	0.0014810794
4	0x3c4eb420	0.012616187
5	0x3cfd2e60	0.030905902
6	0x3c271bc9	0.010199496
7	0x3b74765e	0.0037301998
8	0x3d07a495	0.033115942
9	0xbc359beb	-0.011084537
10	0xbc9c6c94	-0.019094743
11	0xbca5abd0	-0.020223528
12	0x3b6c0a78	0.0036016982
13	0x3aed662a	0.0018112112
14	0xbabb07fc	-0.0014269347
15	0x3c4c47c9	0.012468287
16	0xbac04475	-0.0014668839
17	0xbd01bccf	-0.031674203
18	0xbc52fd87	-0.012877828
19	0x3bf3bf24	0.007438557
20	0x3b8aff46	0.0042418567
21	0xbb3c7244	-0.002875463
22	0xbca64d78	-0.020300612
23	0xbd0986b4	-0.03357573
24	0xbd1082b5	-0.035280902
25	0x3c2e0f19	0.010623717
26	0xbce09766	-0.027415942
27	0x3ba603ee	0.0050663864
28	0xbc624f86	-0.013812905
29	0xbc130485	-0.0089732455
30	0xbbdfb6f2	-0.0068272287
31	0xbcbaca1f	-0.022801457
32	0x3cafd630	0.021464437
33	0xbbc938fb	-0.006140826
34	0xbc0ff589	-0.0087865675
35	0xbca7d2fb	-0.020486346
36	0x3cb52aa9	0.022115069
37	0x3c198654	0.009370405
38	0xbcd743b9	-0.02627741
39	0xbca882f7	-0.020570261
40	0x3b8941f2	0.0041887695
41	0xbb7a9c94	-0.00382403
42	0x3cb7ecac	0.022451721
43	0x3c0ea4d6	0.008706292
44	0xbcc84b9d	-0.024450118
45	0xbc31e7dd	-0.010858503
46	0x3d2fa210	0.042879164
47	0x3c41fd3c	0.011840161
48	0x3c33478b	0.01094235
49	0x3c66731c	0.01406553
50	0x3ce327ad	0.02772888
51	0x3d39082c	0.04517381
52	0x3cca53bf	0.024698136
53	0x3d068039	0.032837126
54	0x3c96257f	0.018328426
55	0x3cea45d0	0.028597742
56	0xbaa55c0f	-0.0012615937
57	0xbc0c9383	-0.008580091
58	0x3c1c8c5a	0.009554947
59	0x3bd37bed	0.006453982
60	0x3c9b4fa2	0.01895887
61	0x3cd6468f	0.026156692
62	0x3d4328e6	0.047646426
63	0xbc419044	-0.011814181
64	0x3cb0f73d	0.021602267
65	0xbce46ddb	-0.027884414
66	0x3c8c7ff3	0.017150855
67	0xbc2b23b0	-0.01044552
68	0xbcaada70	-0.020856112
69	0x3c61ab1e	0.013773708
70	0x3ca4232b	0.0200363
71	0x3c5cafa2	0.0134696085
72	0x3c83d234	0.016091444
73	0x3bc726da	0.0060776295
74	0xbcc2d0e4	-0.023781247
75	0x3cc7c137	0.024384124
76	0xbc7bdfdf	-0.015373199
77	0x3c8caca8	0.017172173
78	0x3c444f7c	0.011981841
79	0xbcf9ebea	-0.030508
80	0xba654585	-0.0008746016
81	0xbc5ee38a	-0.013604054
82	0xbbf68973	-0.0075237094
83	0xbcf86a7b	-0.030324211
84	0xbb358aa9	-0.0027701056
85	0xbb8c723d	-0.004286079
86	0x3b48eaeb	0.00306576
87	0xbcfeaffd	-0.031089777
88	0xbc85e216	-0.016343158
89	0xbd06b6d0	-0.032889187
90	0xbca5c852	-0.020237122
91	0x3ba93ca9	0.005164702
92	0x3cbaf19a	0.022820283
93	0x3c487703	0.012235406
94	0xbbe86972	-0.007092648
95	0xbb0cba8d	-0.0021473498
96	0x3c688ac1	0.014193238
97	0x3cd7cbc6	0.026342284
98	0x3c36488e	0.011125697
99	0x3c9c7229	0.019097405
100	0xbbbb2dff	-0.0057122703
101	0xbb9d43b8	-0.0047993325
102	0x3c9699ae	0.018383827
103	0x3bab4078	0.005226191
104	0x3c9c34fc	0.019068234
105	0xbc604d92	-0.013690369
106	0xbc23de1b	-0.010001685
107	0xbcc7539a	-0.024331857
108	0xbd7f39b2	-0.062310882
109	0xbd5441b4	-0.051820472
110	0xbc44bccf	-0.012007906
111	0xbb80220d	-0.003910309
112	0xbcd0abef	-0.02547261
113	0xbd23f2b3	-0.040026378
114	0xbd0e4097	-0.034729566
115	0xbc8eef41	-0.01744807
116	0xbd7647ba	-0.060126998
117	0xbd0e155b	-0.034688335
118	0xbcea32b3	-0.028588628
119	0xbc38b0b4	-0.011272598
120	0xbca87d19	-0.020567464
121	0xbc941afc	-0.018079273
122	0xbd1092f0	-0.03529638
123	0xbbe0a58d	-0.0068556727
124	0x3ac63da1	0.0015124568
125	0xbc9f29d6	-0.019429129
126	0xbd4a6125	-0.04940905
127	0xbd3d056b	-0.046147745
128	0xbbcbd15c	-0.006220026
129	0xbd15d7e4	-0.036582842
130	0xbd5f244d	-0.05447798
131	0xbcdf9abe	-0.027295467
132	0xbc0b088f	-0.008485927
133	0xbd044a65	-0.03229751
134	0xbc87cc57	-0.016576929
135	0x3cb4a803	0.02205277
136	0x3b7148eb	0.0036817144
137	0xbba8aa09	-0.005147223
138	0xbcbae615	-0.02281479
139	0xbc338b94	-0.010958571
140	0xbc66ed97	-0.014094732
141	0xbba9b2ef	-0.0051788012
142	0xbc9ae648	-0.018908635
143	0x3b008dd5	0.0019615788
144	0x3d75f27f	0.060045715
145	0x3d66afce	0.056320004
146	0x3d1537cd	0.03643017
147	0x3c0bad5b	0.008525218
148	0x3d0f3fe1	0.03497303
149	0x3d370395	0.04468115
150	0x3b32ee7f	0.00273028
151	0x3cf899d0	0.030346781
152	0x3d2d8365	0.042361636
153	0x3c7645af	0.015031262
154	0x3c9f9e7b	0.019484749
155	0xbb7d8eb7	-0.00386898
156	0x3c7e4291	0.0155188
157	0xbc5fbfd3	-0.013656574
158	0x3cb58535	0.022158245
159	0x3ceb428c	0.028718255
160	0x3cdb561a	0.026774455
161	0xbbf0ea91	-0.0073521812
162	0xbcddf84c	-0.027095936
163	0xbcbc5db9	-0.02299391
164	0xbd57cdf4	-0.052686647
165	0xbd286c54	-0.041118935
166	0xbd1d8dca	-0.0384653
167	0xbc11af3d	-0.008891878
168	0xbd60b92c	-0.054864094
169	0xbc96eafb	-0.018422594
170	0xbc430ddf	-0.011905163
171	0x3cbd302c	0.02309426
172	0x3ca077eb	0.019588431
173	0x3cf5fed0	0.03002873
174	0x3cfcb5a7	0.030848337
175	0x3c4ef6d8	0.012632094
176	0x3d354865	0.044258494
177	0x3accaf68	0.001561624
178	0x3cde7b2a	0.027158339
179	0x3c5f1830	0.013616607
180	0x3c7816cb	0.015142153
181	0xbbeea997	-0.0072834003
182	0xbccce58d	-0.025011802
183	0x3b3f1079	0.0029154106
184	0xbbff2e8e	-0.007787532
185	0xbc92f165	-0.017937372
186	0x3c7baec1	0.015361489
187	0x3c6de613	0.014520186
188	0x3c2d22f3	0.010567415
189	0x3cb7283c	0.022358052
190	0xbc79cca3	-0.015246543
191	0xbc80d0d2	-0.015724573
192	0xbcae3274	-0.021264292
193	0xb92a0e65	-0.00016217826
194	0x3c55073f	0.013002216
195	0x3a3a7ff8	0.0007114406
196	0xbccf36a7	-0.025294615
197	0xbcea979e	-0.02863675
198	0xbc7fd1b7	-0.015613965
199	0xbbad2ef4	-0.0052851383
200	0x3c47718e	0.01217307
201	0xbb8cb606	-0.00429416
202	0x3c3a43a3	0.011368665
203	0xbbb4f17c	-0.0055219512
204	0xbc689700	-0.014196157
205	0x3cc79afb	0.024365893
206	0x3c727c12	0.0148000885
207	0x3ca3d971	0.020001145
208	0x3d1479e2	0.03624905
209	0x3beaa2c8	0.0071605183
210	0x3c86ea4e	0.016469147
211	0x3c2e44df	0.010636537
212	0xbb83beeb	-0.004020562
213	0x3c0b8dce	0.008517696
214	0x3cc84b92	0.024450097
215	0x3af5386e	0.0018708834
216	0x3b8a84ea	0.0042272704
217	0xbcc1c883	-0.023655182
218	0x3cbd8709	0.023135679
219	0xbc2e9123	-0.0106547205
220	0x3be35e9d	0.006938769
221	0x3ad1e957	0.0016014975
222	0x3ca1d4c1	0.01975477
223	0xbcafe6b2	-0.021472309
224	0x3cd54f2a	0.026038725
225	0xbc8cb58e	-0.017176416
226	0x3c3a30e1	0.011364193
227	0xbc5c40be	-0.01344317
228	0xbca65519	-0.02030425
229	0xbb9ec767	-0.004845548
230	0x3c816614	0.015795745
231	0xbcc39964	-0.023876853
232	0x3c8dad6b	0.017294606
233	0x3b8c45df	0.00428079
234	0x3ce44307	0.027863992
235	0x3cc985d7	0.024599953
236	0x3abe33b6	0.0014511261
237	0x3cab4590	0.020907193
238	0xbc29d52d	-0.0103657665
239	0x3a8cdfa7	0.0010747806
240	0xbca98f78	-0.020698294
241	0xbc72be10	-0.014815822
242	0x3c765c4b	0.015036653
243	0xbcaf811e	-0.021423873
244	0xbc665f27	-0.014060772
245	0xbbaeb62b	-0.0053317747
246	0xbd0b846a	-0.034061827
247	0xbd41d3f6	-0.047321282
248	0xbd3d6047	-0.046234395
249	0xbd03bab0	-0.03216046
250	0xbc99bc26	-0.018766474
251	0xbcb334a8	-0.021875694
252	0xbd0d8b2d	-0.034556556
253	0xbc8e37c2	-0.017360572
254	0xbd45cb05	-0.048289318
255	0xbd3f09f0	-0.046640337

model.4.bias f4 [64]
0	0x3cc0dca9	0.023542719
1	0xbcec625a	-0.028855491
2	0x3b88ebfd	0.0041785226
3	0x3c366e68	0.011134721
4	0x3cb5a26b	0.022172173
5	0xbd0433c9	-0.03227595
6	0x3cc35bbf	0.023847459
7	0xbcca002b	-0.024658283
8	0xbc8b0798	-0.016971394
9	0x3d0313cc	0.0320013
10	0x3cbee192	0.02330092
11	0x3c393c21	0.01130584
12	0xbb87666c	-0.0041320827
13	0x3c08d1de	0.0083508175
14	0xbc29491b	-0.010332371
15	0x3ce13d91	0.027495177
16	0xbc46f1a2	-0.012142571
17	0xbab9ebd9	-0.0014184668
18	0xbca2c2a5	-0.019868204
19	0x3d01258d	0.03152995
20	0x3b9417fb	0.0045194603
21	0x3bf99530	0.0076166615
22	0x3b0864be	0.0020812
23	0x3d1933cf	0.037402924
24	0xbce569b2	-0.028004501
25	0xbbd1d912	-0.0064040506
26	0xbcd3a91a	-0.02583747
27	0x3b34e373	0.002760139
28	0xbc9c8a62	-0.019108955
29	0x3c22df09	0.009940871
30	0x3c6778cb	0.01412792
31	0xbceb219d	-0.028702551
32	0xbd3e0090	-0.046387255
33	0xbb357c94	-0.0027692663
34	0x3bc79ed2	0.006091931
35	0xbcdf95de	-0.027293142
36	0xbc4a818b	-0.012359987
37	0x3d07fb12	0.033198424
38	0xbcf8ab91	-0.030355247
39	0x3c2cc0be	0.010544
40	0x3c9c27c0	0.019061923
41	0x3b1ac664	0.0023616785
42	0xbc92d0f1	-0.017921897
43	0x3c8153dd	0.01578706
44	0x3b1aebe9	0.0023639149
45	0xbc35642a	-0.011071244
46	0x3c54f7d6	0.012998542
47	0x3c242c06	0.010020262
48	0xbcd6bd2c	-0.026213251
49	0xbbebdd49	-0.00719801
50	0xbb59d522	-0.003323861
51	0x3c126741	0.00893575
52	0xbc46012e	-0.012085242
53	0x3bda730e	0.0066665476
54	0xbcdcfd3d	-0.026976222
55	0x3cc14b57	0.023595495
56	0x3a9dc2a4	0.0012036157
57	0x3ce40eb0	0.027839035
58	0xbb23bc33	-0.0024984002
59	0xbca02aa6	-0.019551586
60	0x3c01a970	0.007913932
61	0x3c856967	0.016285611
62	0x3cb3920a	0.021920223
63	0x3c6dc967	0.01451335

model.6.weight f4 [3, 64, 3, 3]
0	0x3ce3db79	0.027814614
1	0x3cad4cd2	0.021154795
2	0xbcf92d90	-0.030417234
3	0x3ca6cc8e	0.020361211
4	0x3bf93598	0.007605266
5	0xbce054a1	-0.027384104
6	0xbc833768	-0.01601763
7	0x3ce34c33	0.027746296
8	0x3cbbb4c6	0.022913348
9	0x3c896b7a	0.016774882
10	0x3c7f88d1	0.015596584
11	0x3d1943d9	0.03741822
12	0x3d102cac	0.035198852
13	0x3be2032e	0.0068973517
14	0x3d6e3286	0.05815365
15	0x3d831472	0.06400384
16	0x3d5e5236	0.05427762
17	0x3d082637	0.03323957
18	0xbbc45f58	-0.005992811
19	0xbd3216c0	-0.043478727
20	0xbd12ad3b	-0.035809737
21	0x3b4f2aca	0.0031611198
22	0xbcb77ac8	-0.022397414
23	0xbc6c3698	-0.014417313
24	0x3be44fc7	0.006967518
25	0xbc960a25	-0.018315384
26	0xbbb41c5f	-0.005496546
27	0xbd59c2f3	-0.053164434
28	0xbca5c98a	-0.020237703
29	0xbb8435d4	-0.004034737
30	0xbca932bf	-0.02065408
31	0x3c99bd4e	0.018767025
32	0xbce2b245	-0.027672896
33	0xbcdb70bb	-0.026787153
34	0xbc366197	-0.011131666
35	0x3c20014b	0.009765933
36	0x3d23cf21	0.039992455
37	0x3ce044eb	0.027376613
38	0x3d6f421f	0.058412667
39	0xbbb40c57	-0.005494635
40	0x3c5e8136	0.013580611
41	0x3c084bb8	0.008318834
42	0x3d2fe9f1	0.042947713
43	0x3d16c7ed	0.036811758
44	0xbc014e8c	-0.007892262
45	0x3cc41654	0.023936428
46	0x3cbe555d	0.023234064
47	0x3bc1f090	0.00591857
48	0x3bd8516e	0.006601504
49	0xbc9c4167	-0.019074155
50	0xbba876c9	-0.0051411134
51	0x3c373638	0.01118236
52	0x3c2f767c	0.010709401
53	0x3cc41e1a	0.023940135
54	0x3d371a79	0.04470298
55	0x3d559514	0.052144125
56	0x3d665a10	0.056238234
57	0x3c2213b8	0.009892397
58	0x3c687f78	0.014190547
59	0x3d63f663	0.055654895
60	0x3bd9c852	0.0066461945
61	0x3d891e6a	0.06695254
62	0x3c87207c	0.016494982
63	0xbc9763c6	-0.018480193
64	0xbcca8c99	-0.024725245
65	0xbcd11709	-0.02552368
66	0x3d272bbe	0.0408132
67	0x3d04cb58	0.032420486
68	0x3d009ed5	0.031401474
69	0xbca43102	-0.0200429
70	0x3d333206	0.043748878
71	0xbc873ab3	-0.016507482
72	0x3cbcc70d	0.023044134
73	0xbc5396bd	-0.012914357
74	0x3c8ed7fc	0.017436974
75	0xbd1b8702	-0.03797055
76	0xbc26f885	-0.010191088
77	0xbcf9937f	-0.03046584
78	0x3c45b19d	0.012066272
79	0x3b9fe89b	0.0048800237
80	0xbc403aa6	-0.011732733
81	0x3a248b8c	0.00062768976
82	0x3d275d92	0.04086072
83	0x3d3ec045	0.04657008
84	0x3d3cbe99	0.046080206
85	0x3c4fac89	0.012675413
86	0x3be8a615	0.0070998766
87	0x3b79f6b8	0.003814144
88	0xbc4804fb	-0.012208219
89	0x3c9b9420	0.01899153
90	0xbd0e27dd	-0.034705985
91	0xbca4d71a	-0.0201221
92	0xbc5442f1	-0.012955413
93	0x3ca05cf6	0.019575577
94	0xbc2a7d82	-0.0104059
95	0xbce785ea	-0.028262097
96	0xbcb893f0	-0.02253148
97	0xbcadf6f8	-0.021235928
98	0xbce13965	-0.027493188
99	0x3c213c0d	0.009840977
100	0xba97845c	-0.0011559832
101	0xbd0fd120	-0.035111547
102	0x3d39349d	0.04521619
103	0x3d2f5c4f	0.04281264
104	0x3d1e0110	0.038575232
105	0xbbe5d9f0	-0.0070145056
106	0x3d2a42f1	0.041567747
107	0xbce1279f	-0.027484713
108	0xbb3c5e4a	-0.0028742724
109	0x3d9106d0	0.070813775
110	0x3d1bb395	0.03801306
111	0x3c52115f	0.012821524
112	0x3d3a4ff9	0.045486424
113	0x3c6bf367	0.014401293
114	0x3d567f76	0.05236765
115	0xbbda4b4b	-0.0066618077
116	0x3d4b747a	0.049671628
117	0xbd17cefd	-0.037062634
118	0x3cbe6f02	0.023246292
119	0x3cff3130	0.031151384
120	0xbc23e89b	-0.010004188
121	0x3c878670	0.016543597
122	0x3cdc5ab9	0.026898729
123	0x3cde59fd	0.02714252
124	0xbd020eb9	-0.031752322
125	0xbd442411	-0.047885958
126	0xbc24a25f	-0.010048478
127	0x3ab0eb3b	0.0013497839
128	0xbc42235f	-0.011849253
129	0x3d728f41	0.05921865
130	0x3cac6e25	0.021048615
131	0xbbeb8fde	-0.007188781
132	0xbc66f018	-0.014095329
133	0x3bdbee69	0.0067117703
134	0x3d5a90c8	0.05336073
135	0x3d0d8d3e	0.034558527
136	0x39e78334	0.00044157507
137	0xbd127d39	-0.035763953
138	0x3c0119a8	0.007879652
139	0xbce31422	-0.027719561
140	0x3b8c8e70	0.004289441
141	0xbd1083fd	-0.035282124
142	0x3ced597d	0.028973335
143	0xbd0a89b1	-0.03382272
144	0x3d0e7fd8	0.03478989
145	0x3d2714d1	0.040791336
146	0x3bac4bd3	0.0052580624
147	0xbc79d36d	-0.015248162
148	0x3b19f91c	0.0023494428
149	0x3d3749bb	0.04474805
150	0x3d58e3b9	0.05295155
151	0x3d2d1454	0.042255715
152	0x3d5a3d36	0.05328103
153	0x3c3ac17d	0.01139867
154	0xbbab8a9c	-0.0052350294
155	0x3bd8ba38	0.006613996
156	0x39674134	0.00022054167
157	0x3b941a2e	0.0045197224
158	0x3bb98fce	0.005662895
159	0xbcc407f0	-0.023929566
160	0xbd02195f	-0.031762477
161	0x3b403695	0.0029329408
162	0xbd4cc7f2	-0.04999537
163	0xba1eba92	-0.0006055023
164	0x3c3aef9f	0.011409669
165	0xbd48651a	-0.048924543
166	0x3d065d43	0.032803785
167	0xbc9261c3	-0.017868882
168	0xbd212e7a	-0.039350964
169	0xbb19caba	-0.0023466782
170	0xbc33bbe7	-0.010970092
171	0xbd5d0f8e	-0.053969912
172	0xbd5bb499	-0.05363903
173	0xbda9d7ca	-0.082931116
174	0xbda03f0d	-0.07824526
175	0xbd152559	-0.03641257
176	0xbcfb8b68	-0.030706123
177	0xbc6dc2ac	-0.014511745
178	0xbd05cfd1	-0.032668892
179	0xbcaab017	-0.02083592
180	0xbd640abd	-0.055674303
181	0xbcf2a773	-0.029620862
182	0xbd4cec9b	-0.050030332
183	0xbd322e8f	-0.043501433
184	0xbca8e682	-0.020617727
185	0xbd253a20	-0.040338635
186	0xbda2195b	-0.079149924
187	0xbd38609f	-0.04501402
188	0xbc34f21a	-0.01104405
189	0xbc6746cf	-0.014116003
190	0x3cc94ddf	0.024573265
191	0x3c49f349	0.01232607
192	0x3c72da6c	0.014822584
193	0x3c87125e	0.01648825
194	0xbc896609	-0.016772287
195	0xbd3ae86a	-0.045631804
196	0xbd26f267	-0.040758517
197	0xbd4a07e3	-0.049323928
198	0x3d305d8d	0.043057967
199	0x3cfd3af2	0.030911896
200	0xbba9f3d0	-0.0051865354
201	0x3c0ed815	0.00871851
202	0xbbd6fc86	-0.006560865
203	0xbbcb8f5c	-0.006212158
204	0x3d08445c	0.033268318
205	0x3d620591	0.05518109
206	0x3c73b8c4	0.0148755945
207	0xbce49b59	-0.027906107
208	0xbd09d5bd	-0.033651102
209	0xbc92f07f	-0.017936943
210	0xbc35a754	-0.011087257
211	0x3cbe316a	0.023216922
212	0xbcaad87b	-0.020855179
213	0x3b177708	0.002311172
214	0xbd5104c3	-0.05102993
215	0xbd5715be	-0.05251097
216	0x3d158ff8	0.036514252
217	0x3cbbc1aa	0.022919495
218	0x3b83a1c9	0.004017089
219	0x3ccfc407	0.025362028
220	0xbb2e086c	-0.0026555313
221	0x3cee9aef	0.029126612
222	0xbc9c513b	-0.019081702
223	0x3d553691	0.05205399
224	0xbbaeebd6	-0.0053381724
225	0xbbc6d406	-0.0060677556
226	0xbc654e86	-0.013995772
227	0x3c8f2965	0.017475793
228	0x3cd13477	0.025537712
229	0xbca8b29d	-0.020592982
230	0xbd2179e3	-0.03942288
231	0x3ca16baf	0.019704668
232	0xbb44cdd2	-0.0030029905
233	0x3cae0505	0.021242628
234	0xbcd5f02d	-0.026115501
235	0xbc084a9b	-0.008318569
236	0xbcc17d8f	-0.023619441
237	0xbb364f41	-0.0027818235
238	0xbc0382e8	-0.008026816
239	0xbc92303c	-0.017845266
240	0xbd25904f	-0.040420827
241	0x3c5f9888	0.013647206
242	0xbc179fa6	-0.009254372
243	0x3cc5a491	0.024126323
244	0xbc985e73	-0.018599724
245	0x3c9d503d	0.0192033
246	0xbc11499a	-0.008867646
247	0xbcd2ad0a	-0.025717277
248	0x3ccb94de	0.024851259
249	0x3d2c30e7	0.042038824
250	0xbc41558a	-0.011800179
251	0xbbcffaa1	-0.006347016
252	0xbc8b93f2	-0.01703832
253	0x3c0b2d9a	0.008494759
254	0x3cb1bede	0.021697458
255	0x3ce66bdc	0.028127603

model.6.bias f4 [3]
0	0x3d5decd8	0.05418095
1	0x3c67e46d	0.014153582
2	0xbd49b28d	-0.049242545
