weights/ve_lol_dataset/synthetic/discriminator_weight.pth (torch, 310090 bytes, 5 tensors)

conv1.weight f4 [64, 3, 3, 3]
0.10312929 -0.21263997 -0.15693428 0.007013937 -0.145121 0.08123182 0.02101059 0.07258434
-0.14575408 0.13895646 -0.13575408 -0.090310685 0.09782022 0.10983394 -0.13836378 -0.11195388
0.115855426 -0.08154341 0.16951704 -0.0037657695 0.09134532 -0.15364441 -0.12296413 0.13582288
0.11282301 0.12966247 0.02600024 -0.18616253 0.08494295 0.1067007 0.06674142 0.0026788018
0.1396554 0.06364101 -0.0216254 0.12634656 0.19936165 0.016252644 0.16833772 0.096976854
0.152538 -0.13605087 0.14848109 -0.172697 -0.107854344 -0.06332924 0.18805175 -0.018392824
0.021969004 0.034826096 -0.06832068 0.1009867 -0.004513087 0.033864167 -0.071230836 0.094794445
-0.11295179 -0.0251434 -0.11101371 -0.05897208 0.0963465 -0.0784025 -0.15473014 0.04725977
0.111226656 0.038964607 0.08283302 0.062725104 -0.22060029 -0.17626859 0.037135467 0.0679533
-0.019455496 -0.07417741 0.027603542 0.08130564 0.06878293 -0.2095596 0.0801344 0.080855995
-0.04599276 -0.17890026 -0.097274125 0.05654356 -0.12602365 -0.18040338 -0.11221846 0.05835438
0.16496967 0.14218885 0.09910852 -0.20112069 0.18308155 -0.047809433 -0.008601661 -0.079982996
-0.1919315 0.13894743 -0.15725131 0.048948318 0.0096395835 0.10905276 -0.12830631 0.059048004
0.16439655 -0.18005061 -0.18415049 0.081415884 0.079496466 -0.06302588 0.13005933 -0.08576489
0.0004740082 0.102558546 -0.0058453553 0.113517545 -0.12277931 0.18421352 -0.049759593 -0.017528683
0.1920928 -0.05764894 0.083679765 -0.08883459 -0.030420065 -0.13531351 0.07742241 -0.035499755
-0.004285147 0.03626533 0.048934158 0.0075567276 -0.118178986 0.09695658 -0.09413344 0.06722749
0.07349795 -0.13514121 0.05929744 -0.15371625 0.023035977 -0.09935682 0.02432523 -0.044598047
-0.16403283 -0.026399175 0.14268926 -0.15264879 0.18184434 -0.107031934 -0.107428595 -0.12034598
0.1504698 0.06290277 -0.09458064 0.07049909 0.013868544 -0.12097118 0.034816746 0.08209476
0.09210338 -0.09086737 0.27613875 -0.028043084 0.07018021 0.027750159 -0.06473222 -0.013646315
-0.08021087 0.17410147 0.15907405 0.120411 0.032449786 -0.007593933 0.083704785 0.18052272
0.18474355 0.14118287 -0.18638605 -0.17419797 0.0693093 0.006759238 0.02267939 -0.09758011
0.090062626 0.082751185 -0.09488197 -0.049649976 0.19318603 0.06666007 -0.036724504 0.12719858
-0.04380449 -0.0045941668 0.074661665 0.06944644 -0.084177144 -0.03472573 0.08632963 -0.06888077
-0.08694209 0.050577156 0.09841358 0.18047287 -0.090816334 -0.12679544 0.098404616 0.119282626
0.05393205 -0.15219295 0.07268564 -0.03043776 0.0600307 0.063261196 0.0020119236 -0.18347761
-0.08009708 0.06327578 -0.07955533 -0.114450626 0.16476126 -0.05014857 0.116305776 0.031187644
-0.22294459 0.09627715 0.052523196 0.12528929 -0.103824444 -0.0058124266 -0.029867245 -0.123920515
0.074259125 -0.049202718 0.11260874 0.013211336 0.14764796 -0.06385148 0.07802562 -0.083177306
0.019201621 -0.14057691 -0.1615393 0.055425983 -0.008770161 -0.07319415 0.087814584 0.019810833
-0.030154226 0.09977403 0.072336495 0.20237246 -0.12774833 0.10495812 0.04045433 0.0059474325
00000000: 7335 d33d 4bbe 59be 61b3 20be 2bd5 e53b
00000010: 999a 14be de5c a63d 671e ac3c 19a7 943d
00000020: 8f40 15be 9a4a 0e3e 1e03 0bbe cff4 b8bd
00000030: f855 c83d 9ef0 e03d 3caf 0dbe 1348 e5bd
00000040: 9c45 ed3d 3b00 a7bd e095 2d3e 21cb 76bb
00000050: 4113 bb3d f654 1dbe 9ed4 fbbd 2715 0b3e
00000060: c00f e73d 3dc6 043e 75fe d43c 64a1 3ebe
00000070: 92f6 ad3d e685 da3d baaf 883d d68e 2f3b
00000080: d301 0f3e 3856 823d c027 b1bc fe60 013e
00000090: 7625 4c3e 4424 853c b960 2c3e cd9b c63d
000000a0: ec32 1c3e eb50 0bbe 6d0b 183e 7bd7 30be
000000b0: bde2 dcbd c3b2 81bd a390 403e 8cac 96bc
000000c0: 57f8 b33c cfa5 0e3d b6eb 8bbd 1dd2 ce3d
000000d0: 85e2 93bb 27b5 0a3d 79e1 91bd 9723 c23d
000000e0: 4553 e7bd 88f9 cdbc 285b e3bd b58c 71bd
000000f0: 5051 c53d 7d91 a0bd 9471 1ebe 7693 413d
00000100: cdca e33d 5a99 1f3d 5ca4 a93d 0576 803d
00000110: 0be5 61be c17f 34be 5c1b 183d 1a2b 8b3d
00000120: 2261 9fbc 53ea 97bd d320 e23c 9283 a63d
00000130: 11de 8c3d cb96 56be 811d a43d d497 a53d
00000140: e862 3cbd a131 37be a837 c7bd 389a 673d
00000150: 580c 01be aabb 38be cbd2 e5bd 0105 6f3d
00000160: cfed 283e f499 113e 68f9 ca3d 95f2 4dbe
00000170: bb79 3b3e d3d3 43bd fbed 0cbc 20ce a3bd
00000180: b189 44be 3c48 0e3e 7d06 21be 087e 483d
00000190: 58ef 1d3c 0e57 df3d bb62 03be 52dc 713d
000001a0: 9257 283e 305f 38be f291 3cbe 5fbd a63d
000001b0: 0bcf a23d b613 81bd 462e 053e 81a5 afbd
000001c0: 4e84 f839 370a d23d 658a bfbb e37b e83d
000001d0: b873 fbbd 78a2 3c3e b7d0 4bbd 5098 8fbc
000001e0: fab3 443e 4b21 6cbd 4c60 ab3d e9ee b5bd
000001f0: 8033 f9bc a08f 0abe a48f 9e3d 3168 11bd
00000200: 6b6a 8cbb f48a 143d 2f6f 483d 6d9e f73b
00000210: d307 f2bd 2c91 c63d 08c9 c0bd 91ae 893d
00000220: 1886 963d 7562 0abe dfe1 723d cb67 1dbe
00000230: f2b5 bc3c 977b cbbd b445 c73c 71ac 36bd
00000240: 39f8 27be 1543 d8bc 221d 123e f74f 1cbe
00000250: 6735 3a3e 8f33 dbbd 8603 dcbd f477 f6bd
00000260: c114 1a3e 2bd3 803d 7fb3 c1bd d461 903d
00000270: e438 633c bdbf f7bd 019c 0e3d 4c21 a83d
00000280: b2a0 bc3d ac18 babd 0f62 8d3e 9cba e5bc
00000290: a4ba 8f3d 4d54 e33c 5392 84bd cb94 5fbc
000002a0: 9945 a4bd a847 323e 4fe4 223e 0b9a f63d
000002b0: 11ea 043d 87d6 f8bb 6a6d ab3d f3da 383e
000002c0: 6a2d 3d3e 3e92 103e fcdb 3ebe f460 32be
000002d0: 09f2 8d3d 997c dd3b 21ca b93c 15d8 c7bd
000002e0: c172 b83d 7479 a93d 7a51 c2bd c65d 4bbd
000002f0: 8fd2 453e 1385 883d 6f6c 16bd 5840 023e
00000300: 566c 33bd aa8a 96bb 37e8 983d ef39 8e3d
00000310: 1165 acbd 913c 0ebd 97cd b03d 5c11 8dbd
00000320: b20e b2bd fe29 4f3d 0f8d c93d e1cd 383e
00000330: eafd b9bd aad6 01be 5c88 c93d 734a f43d
00000340: dae7 5c3d 78d8 1bbe 35dc 943d 9c58 f9bc
00000350: c0e2 753d 168f 813d 7ada 033b 8ee1 3bbe
00000360: f009 a4bd bb96 813d e8ed a2bd 1765 eabd
00000370: 2db7 283e 9668 4dbd b931 ee3d 3b7d ff3c
00000380: 964b 64be f42c c53d 9022 573d d64b 003e
00000390: e9a1 d4bd 2b76 bebb 27ac f4bc 0aca fdbd
000003a0: 2b15 983d ca88 49bd 699f e63d 5c74 583c
000003b0: 0731 173e 91c4 82bd e5cb 9f3d dd58 aabd
000003c0: b84c 9d3c 65f3 0fbe 8f6a 25be 5b06 633d
000003d0: b9b0 0fbc d1e6 95bd 22d8 b33d 544a a23c
000003e0: ff05 f7bc 5456 cc3d 2825 943d ba3a 4f3e
000003f0: 75d0 02be 48f4 d63d 71b3 253d aee2 c23b

conv1.bias f4 [64]
-0.028188772 0.09178488 -0.068650946 0.11286489 0.11304692 0.068509415 0.11919548 0.14538798
0.19236445 0.07061157 -0.04629905 0.052040283 0.08101648 -0.039304867 -0.13755453 0.034948345
0.080273174 -0.17393743 0.110566676 0.046221245 0.0017803094 -0.117360994 0.033989917 -0.30185014
0.070456244 -0.079498194 0.10972998 -0.15902115 0.11818341 -0.12446702 0.061406825 0.12286232
0.07051484 0.15202025 0.24089515 0.106423676 0.10516022 -0.1216128 -0.1216964 -0.17294504
-0.1014504 -0.11203347 0.22013552 0.14560972 -0.1267141 0.019911377 -0.08078147 -0.06980139
0.09386443 -0.19106272 -0.1339045 0.03062552 0.10879073 -0.17210943 -0.046545524 0.15778914
-0.15356174 0.11584752 0.09021344 -0.122197025 0.13965537 -0.1050084 0.042981252 0.102678195
00000000: 24ec e6bc b6f9 bb3d de98 8cbd b525 e73d
00000010: 2585 e73d aa4e 8c3d c31c f43d 96e0 143e
00000020: 30fb 443e cc9c 903d 13a4 3dbd 3128 553d
00000030: f8eb a53d 24fe 20bd 18db 0cbe ff25 0f3d
00000040: 4366 a43d a71c 32be c870 e23d 7d52 3d3d
00000050: 4559 e93a f65a f0bd 0339 0b3d 1a8c 9abe
00000060: 5d4b 903d f3cf a2bd 1dba e03d 71d6 22be
00000070: 250a f23d 91e8 febd b985 7b3d 3d9f fb3d
00000080: 166a 903d 32ab 1b3e 38ad 763e a8f4 d93d
00000090: 3e5e d73d 2210 f9bd f63b f9bd 8118 31be
000000a0: 3ac5 cfbd ce71 e5bd 356b 613e b71a 153e
000000b0: 57c1 01be 2f1d a33c c170 a5bd 08f4 8ebd
000000c0: ff3b c03d f2a5 43be 431e 09be 5fe2 fa3c
000000d0: adcd de3d 743d 30be 85a6 3ebd 7a93 213e
000000e0: 4a3f 1dbe 7741 ed3d d3c1 b83d 6f42 fabd
000000f0: d101 0f3e a50e d7bd 1c0d 303d f248 d23d

conv2.weight f4 [128, 64, 3, 3]
0.059846826 -0.0039506005 0.059274413 0.002156597 0.020357683 -0.019781241 -0.003182273 0.0016318354
0.06364022 -0.03176559 -0.008448767 -0.04348723 0.007673871 0.011423714 -0.018971302 0.0044428743
0.015437376 -0.025553174 0.037145548 0.017390698 0.009703219 0.024393396 -0.00012320276 0.026397947
-0.018510431 0.05443842 -0.016197488 -0.036580686 -0.061512798 -0.0701266 -0.08249526 -0.029376702
-0.04057914 -0.039151967 -0.046919968 -0.010516516 0.014204062 -0.044385575 0.017865282 0.025775207
0.017557414 -0.03956782 -0.015985018 0.036950376 0.030679446 0.007497397 -0.0261793 0.012400167
-0.017499657 0.043587867 0.042385012 -0.026262788 -0.028426733 0.02465046 0.01152917 -0.009838772
0.024928238 -0.027341636 -0.04403082 0.0094616525 -0.023209387 -0.026188334 -0.022311311 0.019025503
-0.0076918695 -0.025048638 0.012923564 0.03840657 0.027290322 0.03515076 0.03227202 0.035127297
-0.15020347 -0.09266815 -0.109248996 -0.16423494 -0.13685054 -0.16075279 -0.13784105 -0.17592476
-0.15381128 0.022761092 0.012564164 -0.020207614 0.024548085 -0.020224294 -0.046421405 -0.032561153
-0.042412784 -0.028549735 -0.03354927 -0.044660315 -0.02014022 -0.06466582 -0.06765966 -0.06261619
-0.09252643 -0.08189101 -0.021237701 0.0328675 0.025464142 0.016701126 0.017533844 -0.00015496503
0.009901722 0.00049652316 0.036434937 0.057749957 -0.004444999 0.042426456 0.00156769 0.04201771
-0.018096477 -0.0010717 0.036965456 -0.017645622 -0.012913162 -0.031196218 -0.07624878 -0.06417559
-0.0023764907 -0.008987139 -0.054312345 -0.046497874 -0.06563473 -0.04491542 0.032052282 0.014265031
0.040638663 -0.029808745 -0.021873165 -0.0025056656 0.044968657 -0.0048254165 0.041903477 -0.009463136
0.0060792495 -0.0020960253 0.019737957 0.024113331 0.045947008 -0.01093414 0.04259402 0.052834358
-0.010860258 0.007736763 0.004296215 0.01463446 0.0117257945 0.02470359 -0.00408286 -0.014709493
0.04734248 0.031522673 -0.026994972 0.036402304 -0.02295202 -0.030904388 -0.015806822 -0.02194823
-0.03854528 0.00033069547 0.036944486 0.03088503 0.08870784 0.049079396 0.060085934 0.09825736
0.07166431 0.06170551 0.025502546 0.043749742 0.0523956 0.015635155 0.055676397 0.080174014
0.019183414 0.018403737 0.052162778 0.0565819 0.0010452687 0.031893317 -0.0022521745 0.026911294
-0.018273182 -0.02992106 -0.031734616 -0.03901281 0.033741686 -0.041108016 -0.053693082 -0.049587168
-0.010302259 -0.05388558 -0.004410704 -0.04001407 -0.03906947 -0.042118493 0.035588585 -0.005343557
0.048187327 0.017958818 0.054303188 0.05003725 0.036207907 0.0353838 0.040223613 -0.14453581
-0.1934123 -0.121923015 -0.15577768 -0.11989084 -0.1591806 -0.15341018 -0.13798907 -0.13634221
0.030754263 0.02081112 0.0008672242 -0.004330691 -0.008858285 0.0016766778 -0.043224063 0.0052282223
0.03949027 0.056665532 0.02887729 0.023452433 -0.024858715 -0.02115886 0.0031929633 0.044823367
-0.0063012685 -0.010294219 0.0080383485 -0.020857684 -0.009422613 -0.034868635 -0.031001031 -0.02090409
-0.004662242 -0.014199896 0.0075113038 -0.054037146 -0.020072337 -0.03369197 -0.026433868 -0.07266235
-0.04276688 -0.0060716635 -0.033227604 -0.080449976 0.032156587 0.08100127 0.058268316 0.04386002
00000000: f221 753d 0a74 81bb bac9 723d b255 0d3b
00000010: 28c5 a63c 450c a2bc ae8d 50bb 4fe3 d53a
00000020: ce55 823d a31c 02bd b26c 0abc aa1f 32bd
00000030: 1875 fb3b 882a 3b3c b469 9bbc 8895 913b
00000040: 0ced 7c3c e454 d1bc ee25 183d f076 8e3c
00000050: 40fa 1e3c a9d4 c73c fd2f 01b9 8240 d83c
00000060: 30a3 97bc d2fa 5e3d 98b0 84bc a1d5 15bd
00000070: d8f4 7bbd 899e 8fbd 46f3 a8bd 69a7 f0bc
00000080: 5036 26bd d05d 20bd 272f 40bd 774d 2cbc
00000090: 27b8 683c a6cd 35bd 365a 923c 8726 d33c
000000a0: 91d4 8f3c de11 22bd 03f3 82bc 4759 173d
000000b0: 7653 fb3c b9ac f53b f975 d6bc 122a 4b3c
000000c0: 715b 8fbc 3189 323d e89b 2d3d 0f25 d7bc
000000d0: 2edf e8bc c3ef c93c d8e4 3c3c cd32 21bc
000000e0: 4e36 cc3c 91fb dfbc a959 34bd 0c05 1b3c
000000f0: 9d21 bebc eb88 d6bc 36c6 b6bc 5fdb 9b3c
00000100: 140c fcbb cd32 cdbc 5bbd 533c 3550 1d3d
00000110: f48f df3c 3efa 0f3d aa2f 043d a4e1 0f3d
00000120: f0ce 19be cdc8 bdbd f0bd dfbd 342d 28be
00000130: 8c22 0cbe 619c 24be 3426 0dbe 9f25 34be
00000140: b480 1dbe 7875 ba3c ecd9 4d3c 708a a5bc
00000150: 1119 c93c 6bad a5bc 5f24 3ebd d85e 05bd
00000160: 07b9 2dbd 22e1 e9bc f66a 09bd bced 36bd
00000170: 1afd a4bc 836f 84bd 2691 8abd eb3c 80bd
00000180: 7f7e bdbd 79b6 a7bd b0fa adbc 12a0 063d
00000190: 2d9a d03c cdd0 883c 23a3 8f3c 1c7e 22b9
000001a0: d53a 223c 1b29 023a cd3c 153d 388b 6c3d
000001b0: 5ba7 91bb 5dc7 2d3d f37a cd3a c31a 2c3d
000001c0: 103f 94bc 4978 8cba 1769 173d 8d8d 90bc
000001d0: ba91 53bc 368f ffbc 5228 9cbd 7e6e 83bd
000001e0: e6be 1bbb cb3e 13bc 9f76 5ebd 8e74 3ebd
000001f0: 806b 86bd 3bf9 37bd 4149 033d e0b7 693c
00000200: ba74 263d 7831 f4bc 5a2f b3bc 1836 24bb
00000210: 0e31 383d 871e 9ebb fba2 2b3d 450b 1bbc
00000220: 7134 c73b 785d 09bb 7fb1 a13c 5289 c53c
00000230: ee32 3c3d 1b25 33bc 1177 2e3d d768 583d
00000240: 39ef 31bc ac84 fd3b 43c7 8c3b 60c5 6f3c
00000250: 8c1d 403c 2f5f ca3c 83c9 85bb 1600 71bc
00000260: 30ea 413d eb1d 013d 8f24 ddbc 951a 153d
00000270: e005 bcbc 332b fdbc 4f7d 81bc c6cc b3bc
00000280: a8e1 1dbd 3261 ad39 1a53 173d 9a02 fd3c
00000290: 75ac b53d 7a07 493d ab1c 763d 283b c93d
000002a0: bdc4 923d ebbe 7c3d b7ea d03c ee32 333d
000002b0: c59c 563d 4c15 803c ef0c 643d 4632 a43d
000002c0: 8926 9d3c 6fc3 963c a3a8 553d 6cc2 673d
000002d0: 6601 893a 91a2 023d 3899 13bb 1375 dc3c
000002e0: a4b1 95bc 031d f5bc 28fc 01bd e5cb 1fbd
000002f0: b934 0a3d e160 28bd 47ed 5bbd ea1b 4bbd
00000300: ceca 28bc 20b7 5cbd ab87 90bb cbe5 23bd
00000310: 4f07 20bd 7184 2cbd 56c5 113d 0119 afbb
00000320: 1360 453d 5f1e 933c 056d 5e3d dcf3 4c3d
00000330: be4e 143d 9aee 103d 84c1 243d 3201 14be
00000340: e00d 46be c6b2 f9bd 2f84 1fbe 5489 f5bd
00000350: 3d00 23be 8f17 1dbe 024d 0dbe 4b9d 0bbe
00000360: 5df0 fb3c 157c aa3c 6e56 633a 78e8 8dbb
00000370: 5722 11bc f9c3 db3a b70b 31bd 8251 ab3b
00000380: 8dc0 213d 1e1a 683d 1190 ec3c 511f c03c
00000390: 81a4 cbbc 5855 adbc 0941 513b b598 373d
000003a0: df7a cebb 15a9 28bc 47b3 033c bcdd aabc
000003b0: 4e61 1abc 6ad2 0ebd e0f5 fdbc 0e3f abbc
000003c0: b8c5 98bb aea6 68bc 6221 f63b 0e56 5dbd
000003d0: be6e a4bc 9700 0abd d78b d8bc 00d0 94bd
000003e0: 532c 2fbd cef4 c6bb ab19 08bd f5c2 a4bd
000003f0: a0b6 033d fee3 a53d c2aa 6e3d 90a6 333d

conv2.bias f4 [128]
0.07030688 -0.03132679 -0.022603083 -0.011896306 0.03532212 -0.024748022 0.010795047 0.0049416358
-0.031186953 -0.008535698 0.04356649 -0.020241413 -0.009606795 0.0025513547 0.02222179 -0.0026143007
0.008067143 0.03210963 0.0721975 -0.008775219 0.0014949384 -0.035632413 0.028561436 -0.007556441
-0.058312707 -0.018219423 0.019365963 0.094488725 -0.11963618 0.054377865 0.016331242 0.035684384
-0.014225242 -0.016563522 -0.032405674 0.019523317 -0.029950235 -0.031153541 -0.013773707 -0.023429953
0.044406928 -0.04098994 -0.04996922 -0.0028965478 0.026926292 0.006267186 -0.039625484 -0.007267243
0.05391605 -0.076301776 -0.03497637 -0.0023622932 0.018310983 0.027466305 -0.054108817 -0.025173608
-0.006234665 0.013455253 0.013408175 0.027487192 -0.061912104 0.037271664 0.04693851 -0.063820325
-0.026556866 0.052044816 -0.015863754 0.04490511 0.0054108985 -0.019119985 0.051851407 -0.07345944
-0.034649495 -0.079640634 -0.02759905 0.018979728 -0.02513564 0.0042214547 0.028231183 -0.006632334
-0.06891105 -0.058009658 0.012770261 -0.0042018592 0.051928874 0.02821636 -0.009830651 0.053441558
0.04833492 0.07106772 -0.007829238 0.017555973 -0.0064492347 -0.022669587 0.027306287 -0.0064103333
-0.026407242 0.017984882 -0.005842232 0.053598598 -0.06716977 0.026053222 0.0030816 -0.023384457
0.0418938 -0.06223489 0.025669742 0.004446205 -0.012884002 0.021799242 -0.028797705 -0.0019075953
-0.068743825 -0.017502103 -0.025728412 0.0044391654 0.0021816718 -0.10430575 -0.0708488 0.0046814554
0.019629935 0.035100427 -0.054730885 0.010536843 0.0028165204 0.037686218 0.030691199 0.04789625
00000000: 0efd 8f3d 8550 00bd 1a2a b9bc b9e8 42bc
00000010: edad 103d 5dbc cabc b5dd 303c 72ed a13b
00000020: c87b ffbc 50d9 0bbc c772 323d 52d1 a5bc
00000030: d265 1dbc a134 273b 790a b63c b054 2bbb
00000040: 0d2c 043c 6385 033d 48dc 933d f0c5 0fbc
00000050: cff1 c33a 4bf3 11bd acf9 e93c 059c f7bb
00000060: 4ed9 6ebd e640 95bc 5ea5 9e3c 4e83 c13d
00000070: d003 f5bd 53bb 5e3d 19c9 853c ca29 123d
00000080: fd10 69bc 39b0 87bc d0bb 04bd 5def 9f3c
00000090: 325a f5bc b635 ffbc 1dab 61bc 2cf0 bfbc
000000a0: 0ae4 353d 11e5 27bd 86ac 4cbd 02d4 3dbb
000000b0: 8794 dc3c f75c cd3b 554e 22bd 0e22 eebb
000000c0: 13d7 5c3d 1b44 9cbd 6243 0fbd b4d0 1abb
000000d0: ea00 963c 0401 e13c 35a1 5dbd e238 cebc
000000e0: 294c ccbb 6c73 5c3c f6ad 5b3c d22c e13c
000000f0: 8c97 7dbd 2caa 183d 9842 403d 3bb4 82bd
00000100: c98d d9bc f22c 553d b4f4 81bc 6cee 373d
00000110: e84d b13b 84a1 9cbc 2462 543d e771 96bd
00000120: a1ec 0dbd a11a a3bd 6717 e2bc 607b 9b3c
00000130: 42e9 cdbc 2154 8a3b 1545 e73c 0d54 d9bb
00000140: 3d21 8dbd 899b 6dbd 5b3a 513c c0af 89bb
00000150: 5fb3 543d ff25 e73c bd10 21bc 89e5 5a3d
00000160: d6fa 453d f48b 913d 3446 00bc 8bd1 8f3c
00000170: 1a54 d3bb 92b5 b9bc 6fb1 df3c c60d d2bb
00000180: 0054 d8bc 0855 933c 3270 bfbb 348a 5b3d
00000190: 4e90 89bd 916d d53c abf4 493b c390 bfbc
000001a0: d598 2b3d 03ea 7ebd 5a49 d23c 79b1 913b
000001b0: 6c17 53bc 5394 b23c 2ae9 ebbc 4708 faba
000001c0: 90c9 8cbd 9260 8fbc 64c4 d2bc 6b76 913b
000001d0: 61fa 0e3b 419e d5bd 2d19 91bd e566 993b
000001e0: f5ce a03c 77c5 0f3d 7e2d 60bd b9a2 2c3c
000001f0: 5f95 383b dd5c 1a3d 1c6c fb3c dc2e 443d

conv3.weight f4 [1, 128, 3, 3]
-0.009648244 -0.0065075364 -0.02582895 0.011732991 -0.030458368 0.0014939962 -0.023481177 -0.020216176
-0.025152314 -0.017436745 -0.018646028 -0.012896355 0.028310487 -0.010237581 0.01746059 0.013026787
0.026197094 -0.00088507065 0.019817177 -0.0026789256 0.016434817 0.004666758 0.0054852017 -0.013312838
0.020547695 0.03894213 0.0054985746 0.0077992603 0.010109433 -0.009419071 0.008267425 0.017059928
-0.008659825 -0.01606867 0.013009004 0.024538625 -0.0015032463 -0.027909895 -0.030467903 -0.016398793
-0.019956848 0.007798489 0.0016122465 0.00039124608 -0.0075817 -0.020991262 -0.024870286 0.0043130764
-0.037002616 -0.0058928863 -0.01047852 -0.027904235 0.009152836 -0.032836836 -0.015429611 -0.02717297
-0.010015099 -0.007821843 -0.03236578 0.0038724223 0.00074117613 0.011564156 -0.042701688 0.017485313
0.016177956 -0.025850093 0.0074706157 0.020984082 -0.009319647 0.025468903 0.019212618 0.0022594505
0.010102867 -0.020936279 0.026353955 -0.013609239 0.027573155 -0.012771379 0.001503536 -0.025685487
0.0012278641 -0.013746018 -0.019122122 0.021864314 -0.020173945 0.007935865 -0.027827406 -0.011131359
0.012475737 -0.032266635 -0.028584719 -0.019762218 -0.014013151 -0.0054087657 -0.014633955 0.0059293867
-0.001978244 -0.006992162 0.011644653 -0.02440725 0.021284446 -0.0281702 -0.0037733258 0.024955492
0.009729942 -0.012169493 0.015527416 0.0030810393 -0.023808777 -0.019279653 -0.0016784137 -0.023148853
0.007675867 0.0041897404 0.013773915 -0.017543735 0.003823564 0.007959676 -0.00031797602 0.011393649
-0.006453817 0.0057800375 -0.014014443 0.007673306 0.012089846 0.011974502 -0.009192311 -0.008670535
-0.019931935 -0.0063892053 -0.027483938 -0.0151287485 -0.008281439 -0.0038017912 0.021626052 -0.013974308
-0.012027725 -0.021759637 -0.019066114 0.026973115 0.0069426033 -0.033203624 -0.010124556 -0.03434115
0.0104511 -0.008469595 -0.012007242 -0.009544555 0.007064491 -0.029719895 -0.0069599957 -0.03769448
-0.017729916 -0.012383974 -0.03833389 -0.01451584 -0.03896194 -0.0005968614 0.0032903524 -0.0061606634
-0.015954303 -0.016761443 0.014185759 -0.009565974 0.006441754 -0.02032738 -0.022322739 -0.0021771018
-0.032825116 0.021292847 -0.022062087 -0.0034831539 0.024475837 -0.01536959 -0.013427655 0.0045116735
-0.010052792 -0.029220171 -0.011962906 0.019714333 0.0152967675 0.0059143016 -0.0008197075 -0.005666767
0.015533795 0.004234928 -0.016326902 0.016742848 0.012121965 -0.008069408 0.0064711827 -0.024086196
0.0028693324 -0.006512399 0.005154864 -0.022445232 0.022113154 0.026351094 -0.011737031 -0.02183535
-0.023138653 0.022098687 0.010135163 0.006998283 0.011049815 0.0062071052 -0.027604576 -0.012034424
0.025215197 0.0013206934 0.021777593 -0.0027538456 -0.019976981 -0.028640347 -0.005562015 0.016602095
-0.022774352 0.01100622 -0.011205057 -0.031066295 -0.0034809893 -0.0083813295 -0.013606382 -0.041537624
0.0036503826 0.018345688 0.012279037 0.008136019 0.03160345 0.037140388 0.02937568 0.013040523
0.005640151 -0.001476125 0.018852992 -0.029272042 0.023563946 0.012085197 0.02148144 -0.005787884
0.00017843037 -0.011008622 -0.009782182 -0.030013185 -0.0359573 -0.03702036 -0.019760365 -0.014259596
-0.005093312 0.0076666255 0.006061248 -0.02239234 0.041581646 0.06852922 0.09030249 0.047371723
00000000: ab13 1ebc 2c3d d5bb 3c97 d3bc bb3b 403c
00000010: d483 f9bc 32d2 c33a 995b c0bc 659c a5bc
00000020: 3a0c cebc 81d7 8ebc 8ebf 98bc 3c4b 53bc
00000030: 65eb e73c 87bb 27bc 8309 8f3c 4e6e 553c
00000040: 4a9b d63c 1604 68ba a257 a23c ea90 2fbb
00000050: 4fa2 863c 9aeb 983b 35bd b33b 171e 5abc
00000060: a453 a83c c881 1f3d 632d b43b f090 ff3b
00000070: 09a2 253c 7252 1abc 1874 073c 43c1 8b3c
00000080: f0e1 0dbc 72a2 83bc b823 553c 3a05 c93c
00000090: 9308 c5ba 4ba3 e4bc d397 f9bc c356 86bc
000000a0: 8b7c a3bc 788a ff3b 0452 d33a 2920 cd39
000000b0: e96f f8bb def5 abbc c5bc cbbc b554 8d3b
000000c0: 0e90 17bd 1d19 c1bb 19ae 2bbc 6c97 e4bc
000000d0: c7f5 153c eb7f 06bd 7bcc 7cbc d999 debc
000000e0: 5f16 24bc 3027 00bc fb91 04bd 77c8 7d3b
000000f0: 7d4b 423a 9677 3d3c f7e7 2ebd 5c3d 8f3c
00000100: a287 843c 93c3 d3bc 11cc f43b cfe6 ab3c
00000110: 6fb1 18bc 29a4 d03c c863 9d3c 4a13 143b
00000120: 7f86 253c 8f82 abbc 40e4 d73c 49f9 5ebc
00000130: 19e1 e13c 0c3f 51bc 4c12 c53a 5f6a d2bc
00000140: 48f0 a03a fa36 61bc ffa5 9cbc ca1c b33c
00000150: d443 a5bc 6e05 023c 4df6 e3bc 4e60 36bc
00000160: 0967 4c3c 052a 04bd 802a eabc 60e4 a1bc
00000170: 6a97 65bc 043c b1bb 42c3 6fbc 4d4b c23b
00000180: 6da5 01bb 821e e5bb 37c9 3e3c b7f1 c7bc
00000190: b85c ae3c 31c5 e6bc e749 77bb 766f cc3c
000001a0: 566a 1f3c 8e62 47bc b466 7e3c 43eb 493b
000001b0: a00a c3bc 5df0 9dbc 38fe dbba aaa2 bdbc
000001c0: d785 fb3b 174a 893b fdab 613c e1b7 8fbc
000001d0: c294 7a3b 4d69 023c 05b6 a6b9 6dac 3a3c
000001e0: 8a7a d3bb 7866 bd3b d69c 65bc 5b70 fb3b
000001f0: 7d14 463c b430 443c 599b 16bc dc0e 0ebc
00000200: 4c48 a3bc 8a5c d1bb ff25 e1bc 92de 77bc
00000210: dfae 07bc 7927 79bb 1e29 b13c 7ff4 64bc
00000220: ef0f 45bc 4441 b2bc 8a30 9cbc b9f6 dc3c
00000230: c77e e33b 8600 08bd 77e1 25bc 4ea9 0cbd
00000240: 173b 2b3c 0ec4 0abc 06ba 44bc c460 1cbc
00000250: 3f7d e73b 2377 f3bc ad10 e4bb 8765 1abd
00000260: 543e 91bc 27e6 4abc ff03 1dbd d9d3 6dbc
00000270: 8e96 1fbd b176 1cba f4a2 573b 64df c9bb
00000280: 99b2 82bc 4b4f 89bc 636b 683c 9aba 1cbc
00000290: 5915 d33b 9b85 a6bc 2dde b6bc b5ad 0ebb
000002a0: a173 06bd 566e ae3c 8dbb b4bc a045 64bb
000002b0: 8d81 c83c bcd0 7bbc abff 5bbc a9d6 933b
000002c0: 77b4 24bc 245f efbc 1100 44bc f47f a13c
000002d0: 4b9f 7a3c c2cc c13b a4e1 56ba 49b0 b9bb
000002e0: 7581 7e3c 27c5 8a3b ffbf 85bc 4c28 893c
000002f0: 359b 463c 8d35 04bc 370c d43b 6a50 c5bc
00000300: 690b 3c3b f665 d5bb 22ea a83b 10df b7bc
00000310: a526 b53c 40de d73c ad4c 40bc 0ce0 b2bc
00000320: 468d bdbc 4e08 b53c f40d 263c da51 e53b
00000330: 490a 353c f964 cb3b fe22 e2bc 082c 45bc
00000340: 1a90 ce3c 1e1b ad3a ec66 b23c dd79 34bb
00000350: c4a6 a3bc 299f eabc 9041 b6bb 1e01 883c
00000360: 4791 babc 6f53 343c 6a95 37bc be7e febc
00000370: 4f21 64bb d851 09bc 4ded 5ebc 5b23 2abd
00000380: 423b 6f3b b249 963c 042e 493c f04c 053c
00000390: 9f72 013d 8520 183d 44a5 f03c eba7 553c
000003a0: 04d1 b83b 897a c1ba 9771 9a3c eccb efbc
000003b0: 2d09 c13c fd00 463c d8f9 af3c 4aa8 bdbb
000003c0: 0a19 3b39 825d 34bc 7245 20bc 36de f5bc
000003d0: f647 13bd a9a2 17bd 7de0 a1bc 15a1 69bc
000003e0: cce5 a6bb 5138 fb3b 6f9d c63b 2470 b7bc
000003f0: 8451 2a3d 0c59 8c3d 83f0 b83d da08 423d
