weights/ve_lol_dataset/synthetic/generator_weights.pth (torch, 608184 bytes, 8 tensors)

model.0.weight f4 [64, 3, 3, 3]
0	0x3db9f305	0.090795554
1	0xbe362345	-0.17786892
2	0xbe5c0486	-0.214861
3	0x3e089676	0.13338646
4	0xbe59d757	-0.21273552
5	0xbd254ce6	-0.04035654
6	0x3cb5e57a	0.02220415
7	0xbe2ad49e	-0.1668267
8	0xbcb711f2	-0.022347424
9	0x3daaf155	0.08346812
10	0xbe253d0a	-0.16136566
11	0x3e12becf	0.143306
12	0xbe4ef443	-0.20210366
13	0xbd7bb8f8	-0.061455697
14	0xbdd79f2d	-0.10528407
15	0xbd078ca4	-0.03309311
16	0xbe4cb006	-0.19989023
17	0x3c3a932a	0.011387626
18	0x3e074760	0.13210821
19	0x3d45072d	0.048102546
20	0xbe401c48	-0.18760788
21	0xbe4b8330	-0.19874263
22	0xbe1e852e	-0.15480492
23	0x3de7cd09	0.11318404
24	0x3e0b98be	0.13632485
25	0xbdab3496	-0.08359639
26	0xbb9011cd	-0.0043966533
27	0x3c6ceec0	0.014461219
28	0xbe49094a	-0.1963245
29	0xbe31ac9c	-0.17351002
30	0x3c5736c0	0.013135612
31	0x3ac61f73	0.0015115574
32	0x3d99038b	0.07471379
33	0x3d0a387e	0.03374528
34	0xbd9be7bc	-0.07612559
35	0xbd1d8b1d	-0.038462747
36	0x3d3aae3f	0.04557633
37	0xbb982b89	-0.0046438617
38	0xbd3fb4c7	-0.046803262
39	0xbe2def37	-0.16985784
40	0x3d89b3e9	0.06723768
41	0x3db439b6	0.0880007
42	0xbe382ae8	-0.17985117
43	0xbe7a0216	-0.24414858
44	0xbcf56cc0	-0.029959083
45	0xbd1d187f	-0.03835344
46	0x3dcebf9d	0.10095141
47	0xbd94f37f	-0.07273006
48	0x3d64da03	0.055871975
49	0xbdfbaf88	-0.12289339
50	0xbe6f8041	-0.23388769
51	0x3db7099b	0.08937379
52	0xbe741a31	-0.23838116
53	0x3d3835a8	0.044973046
54	0xbdedb51d	-0.1160681
55	0x3defddbc	0.11712214
56	0x3d79977d	0.060935486
57	0x3e07d68d	0.13265438
58	0xbe5b4463	-0.21412806
59	0xbd84b5d7	-0.06479996
60	0xbde889b0	-0.11354387
61	0xbd769921	-0.06020463
62	0x3e27a638	0.16372001
63	0x3dae6d14	0.08516899
64	0xbe00eb54	-0.1258977
65	0xbe1ddd09	-0.1541635
66	0x3de88360	0.11353183
67	0xbd0eca5a	-0.034860946
68	0x3e0c8b78	0.13725078
69	0xbd21172d	-0.039328743
70	0x3d3bdd23	0.04586519
71	0xbc53aa67	-0.012919045
72	0xbd739292	-0.059465952
73	0x3d0f63de	0.03500735
74	0x3de447e0	0.111465216
75	0x3bf824b9	0.007572737
76	0xbd8e46a6	-0.06947069
77	0x3dfbe806	0.12300114
78	0xbe1f9fef	-0.15588354
79	0x3dc0748f	0.09397232
80	0x3defafe2	0.11703469
81	0x3d80527e	0.06265734
82	0x3d01bb8e	0.031673007
83	0xbe545fd0	-0.20739675
84	0xbd2b4227	-0.041811135
85	0x3d94ffae	0.072753295
86	0x3da82310	0.08209813
87	0xbd988dd4	-0.074489266
88	0xbd48a890	-0.04898888
89	0x3de29e96	0.11065404
90	0xbd125c12	-0.035732336
91	0xbe53396d	-0.20627375
92	0xbe030f98	-0.12798917
93	0x3e01a70d	0.12661381
94	0xbdb52a57	-0.08845966
95	0x3e032c8b	0.1280996
96	0xbd5a8fff	-0.05335998
97	0xbddc39f3	-0.107532404
98	0x3dc605a5	0.09669045
99	0xba5e108f	-0.00084710954
100	0xbdd4dcde	-0.103936896
101	0x3dce92cc	0.10086593
102	0xbe1c1d59	-0.1524557
103	0xbcef8218	-0.029236838
104	0x3de9d3fc	0.11417386
105	0x3e0572b2	0.13032034
106	0xbdbac659	-0.09119863
107	0x3c94e652	0.018176232
108	0xbdc8ec42	-0.098106876
109	0xbe44d679	-0.1922244
110	0x3e0470ea	0.12933698
111	0x3da0cd69	0.07851679
112	0xbe560fe1	-0.20904495
113	0xbd30db6b	-0.043178003
114	0x39dc41dc	0.0004201074
115	0x3de7b52a	0.11313851
116	0x3dfcde18	0.123470485
117	0xbe5512c0	-0.20807934
118	0xbe4d14a3	-0.20027404
119	0xbdde84e3	-0.1086519
120	0xbd5f4b01	-0.05451489
121	0xbdb67e8b	-0.08910855
122	0x3d346d53	0.044049572
123	0xbb5f3084	-0.0034056017
124	0xbd07f1bc	-0.03318952
125	0x3aff5570	0.0019480418
126	0xbdb93c6f	-0.0904473
127	0xbe207170	-0.15668273
128	0xbe1c2d7f	-0.1525173
129	0xbd921ba2	-0.07134177
130	0x3e0f6940	0.14004993
131	0xbd6b65c2	-0.05747009
132	0xbc9ec1d2	-0.01937953
133	0xbdd887ea	-0.105727986
134	0x3ca37194	0.01995162
135	0x3e52d079	0.20587339
136	0x3e21b43a	0.15791407
137	0x3dc7a092	0.09747423
138	0xbe08ed1a	-0.13371697
139	0xbdec5cbb	-0.115411244
140	0xbe291310	-0.16511178
141	0xbe01035b	-0.12598936
142	0x3e1c9700	0.15291977
143	0xbd892681	-0.06696797
144	0xbdd9e60b	-0.1063958
145	0xbd75cbab	-0.060008686
146	0x3e225681	0.15853311
147	0x3ddb0404	0.10694125
148	0x3dfe073c	0.124037236
149	0xbd74949a	-0.05971203
150	0xbdd95bb4	-0.10613194
151	0x3d397415	0.04527672
152	0xbdb1c0db	-0.086793624
153	0xbd9494b9	-0.07254929
154	0x3c2e9b4d	0.010657144
155	0xbc5d93ed	-0.013524038
156	0x3e06ea12	0.13175228
157	0xbe21f7bd	-0.15817161
158	0xbd9d5510	-0.0768224
159	0x3e3fcbbc	0.18730062
160	0xbe19dc8c	-0.15025538
161	0x3e5c7879	0.21530332
162	0xbe194eae	-0.1497142
163	0xbe26cedc	-0.16289848
164	0xbd334175	-0.043763597
165	0x3d134c21	0.035961274
166	0x3e356b27	0.17716657
167	0xbe1bf007	-0.15228282
168	0x3e4e0fea	0.20123258
169	0xbdb4b15f	-0.08822893
170	0x3d82aa8b	0.06380185
171	0xbd8475f2	-0.06467809
172	0xbdf59b58	-0.1199252
173	0x3dc9bc87	0.09850412
174	0xbcd378b1	-0.025814386
175	0xbc9943a6	-0.018709015
176	0xbd578591	-0.052617613
177	0x3e0b1caf	0.1358516
178	0x3e2d4b14	0.16923171
179	0x3d535b4a	0.051600732
180	0x3b506f65	0.0031804678
181	0xbd3eff7f	-0.04663038
182	0x3bc49783	0.005999507
183	0x3e4be281	0.19910623
184	0xbe1e5a82	-0.15464213
185	0xbd917a93	-0.07103457
186	0xbe0df9bd	-0.13864799
187	0x3e1af8d1	0.15133978
188	0xbdef06f6	-0.116712496
189	0xbe025952	-0.12729385
190	0xbe00c20f	-0.12574027
191	0xbe312048	-0.1729747
192	0xbdb73eed	-0.08947549
193	0x3e129c51	0.14317442
194	0xbe3b017d	-0.18262286
195	0xbbcbcf65	-0.0062197917
196	0xbe2c1d41	-0.16808034
197	0xbe4b3148	-0.19843018
198	0xbd7a047a	-0.061039425
199	0x3cb88c56	0.022527855
200	0x3e3f8655	0.18703587
201	0x3dc60fd8	0.09670991
202	0x3e674e3e	0.22588441
203	0xbdb0e664	-0.086376935
204	0x3dd46e73	0.10372629
205	0xbe0729db	-0.1319956
206	0x3da8cba3	0.082419656
207	0xbd5a7427	-0.053333428
208	0xbd9b7c68	-0.07592088
209	0x3d388dec	0.045057222
210	0x3d47e491	0.048801962
211	0xbdf5470d	-0.119764425
212	0xbc52c9dd	-0.012865511
213	0xbe178ee4	-0.14800602
214	0xbe3332e9	-0.1749989
215	0x3e1e07ab	0.15432613
216	0xbc857c4c	-0.01629462
217	0xbe3d3f9d	-0.18481298
218	0xbe2abe14	-0.16674072
219	0x3d0c05ca	0.03418521
220	0x3e1e22ba	0.15442935
221	0xbde7f5da	-0.11326189
222	0x3dd8f1c6	0.105929896
223	0x3c03d2a4	0.008045826
224	0x3dd7f5bb	0.10544916
225	0xbe59e5d2	-0.21279076
226	0xbe457a48	-0.19284928
227	0x3e1ed240	0.15509892
228	0x3da3ca30	0.079975486
229	0x3bfd6131	0.0077325334
230	0xbd838400	-0.064216614
231	0xbdb191b3	-0.08670368
232	0x3dd58779	0.1042623
233	0xbe47d763	-0.19515757
234	0xbe3c36a1	-0.18380214
235	0x3d69eb20	0.057109
236	0xb98e97cb	-0.00027197445
237	0xbd5302be	-0.051516287
238	0xbdc6e138	-0.09710926
239	0xbe61cb39	-0.2205018
240	0x3deb3178	0.11484045
241	0xbad6e1fe	-0.0016394255
242	0x3de4bea8	0.11169177
243	0xbe1cb230	-0.15302348
244	0xbdd20e18	-0.102565944
245	0x3deda2d1	0.116033204
246	0x3dd7304c	0.10507259
247	0x3ded6e93	0.11593356
248	0x3e2f5f11	0.17126109
249	0xbd3d3c37	-0.046200003
250	0xbe275449	-0.16340746
251	0x3d5d7754	0.05406888
252	0xbd9fd414	-0.078041226
253	0xbd1263d4	-0.035739735
254	0xbe2b0905	-0.1670266
255	0xbe3abfb9	-0.18237199

model.0.bias f4 [64]
0	0x3d503385	0.050830383
1	0x3da85a90	0.082203984
2	0xbe53c558	-0.2068075
3	0xbd21aed7	-0.03947338
4	0x3c69f592	0.01427974
5	0xbe11f470	-0.14253402
6	0xbd370caa	-0.04468981
7	0x3ac14ca3	0.0014747571
8	0xbc9d9ffc	-0.019241326
9	0xbb66a3d2	-0.003519286
10	0x3cc3d339	0.02390443
11	0xbd7c1f16	-0.061553083
12	0x3c69347f	0.014233707
13	0x3da7f190	0.08200371
14	0xbdf1d296	-0.11807744
15	0xbe00e896	-0.12588724
16	0xbe1e015a	-0.15430203
17	0xbd691dfc	-0.05691336
18	0x3b0a13a2	0.002106883
19	0x3d92743e	0.07151078
20	0xbc30dc37	-0.010794691
21	0x3db30578	0.087412775
22	0x3ce2b74b	0.027675292
23	0x3d895d38	0.06707233
24	0x3d8abafc	0.06773946
25	0x3d4a90f9	0.049454663
26	0xbc5d7b9a	-0.013518238
27	0xbde552fd	-0.111974694
28	0xbd8ed978	-0.069750726
29	0x3cdfc53a	0.027315725
30	0xbd0661e7	-0.03280821
31	0x3e17278e	0.14761183
32	0x3dc19db7	0.0945391
33	0xbdf4bbc7	-0.11949878
34	0xbc23154b	-0.009953807
35	0xbe21842c	-0.15773076
36	0x3d9710fd	0.07376287
37	0xbd262442	-0.040561922
38	0xbdf2e53d	-0.1186013
39	0xbdc16726	-0.09443502
40	0xbcc4f274	-0.024041392
41	0xbe083424	-0.1330114
42	0x3dcd96d0	0.10038531
43	0xbd609786	-0.054832004
44	0x3e0ae8d4	0.1356538
45	0xbe4162c2	-0.1888533
46	0xbca9dc97	-0.020735068
47	0x3d0341da	0.032045223
48	0xbe13f24f	-0.14447902
49	0x3d04cbe9	0.032421026
50	0xbd683e26	-0.056699894
51	0x3d5a3a5b	0.05327831
52	0x3dd815c7	0.10551029
53	0xbdd77f79	-0.1052236
54	0xbe0c1771	-0.13680817
55	0x3c04723b	0.008083875
56	0x3d0748cb	0.033028405
57	0xbe46965d	-0.19393297
58	0x3e01549b	0.1262993
59	0xbcd7413a	-0.02627622
60	0x3ddeebdd	0.10884831
61	0xbd0e1aa7	-0.034693386
62	0x3cf38d8d	0.029730583
63	0xbc121678	-0.00891649

model.2.weight f4 [128, 64, 3, 3]
0	0xbd9ae564	-0.07563284
1	0xbd84bccf	-0.06481325
2	0xbc1427d9	-0.009042704
3	0xbd4256a0	-0.047445893
4	0xbd447cc9	-0.047970567
5	0xbce93d39	-0.028471576
6	0xbd12c2a9	-0.035830174
7	0xbb27e34f	-0.0025617664
8	0xbd406b91	-0.046977583
9	0xbd98eb4b	-0.074667536
10	0xbcf1aec9	-0.02950229
11	0xbd9c8702	-0.07642938
12	0xbd988441	-0.074471004
13	0xbd6bdedd	-0.057585586
14	0xbdb416f0	-0.087934375
15	0xbd53e011	-0.05172736
16	0xbdd4cf42	-0.10391094
17	0xbdba2500	-0.090890884
18	0x3cdcb6e2	0.026942674
19	0xbccab47a	-0.024744261
20	0x3c6971e0	0.014248341
21	0x3bf17897	0.0073691118
22	0x3c0a3cd3	0.008437353
23	0x3b655f12	0.0034999293
24	0x3d02a818	0.031898588
25	0x3c3d0f87	0.011539347
26	0xbc6e967f	-0.014562248
27	0x3d3dc776	0.0463328
28	0x3d0f6386	0.035007022
29	0x3d7c841e	0.061649434
30	0x3d728d59	0.05921683
31	0x3d474a26	0.048654698
32	0xbc4e9be7	-0.012610412
33	0xbce2c0dc	-0.027679853
34	0xbdb2d066	-0.08731155
35	0xbd823cfb	-0.06359287
36	0xbcd7d9d8	-0.026348993
37	0x3d06753e	0.032826655
38	0xbd0474b8	-0.032337874
39	0xbbf61e95	-0.00751097
40	0xbcb6172e	-0.02222785
41	0xbd84c220	-0.06482339
42	0xbd0307e9	-0.031989966
43	0xbb7f9f89	-0.0039005002
44	0xbd5a4ed8	-0.053297848
45	0x3c726769	0.014795163
46	0x3c9d891b	0.019230416
47	0x3c2c434f	0.0105140945
48	0xbd44225b	-0.047884326
49	0xbc9d2e5b	-0.019187143
50	0xbd345a34	-0.044031337
51	0xbc4dd8a4	-0.012563858
52	0xbd2e2685	-0.042517204
53	0xbc9629a1	-0.018330397
54	0x3db24a6d	0.08705602
55	0x3daadef6	0.08343308
56	0x3d24cdd1	0.040235344
57	0x3db47f9f	0.08813404
58	0x3dbdaca6	0.09261446
59	0x3dd9fd65	0.10644034
60	0x3d8c9c8e	0.06865798
61	0x3d9d42ff	0.07678794
62	0x3d9a2f89	0.07528598
63	0xbdb3a79e	-0.08772205
64	0xbdab3efc	-0.08361623
65	0xbdc3be59	-0.0955779
66	0x3c5b75f3	0.0133948205
67	0xbd3221a9	-0.043489132
68	0xbba89caf	-0.0051456313
69	0xbde8d49e	-0.113686785
70	0xbd3bb94a	-0.045831002
71	0xbd9c5143	-0.07632687
72	0xbd7ba952	-0.061440773
73	0xbb8fb197	-0.004385184
74	0xbbd3af25	-0.006460088
75	0xbc1cdc79	-0.009574049
76	0x3cf5670d	0.029956365
77	0xbc84b83e	-0.016201135
78	0xbd6234a4	-0.055225983
79	0xbde28978	-0.11061376
80	0xbd803695	-0.06260411
81	0xbcdf317b	-0.027245274
82	0xbd76040f	-0.060062464
83	0xbb44662a	-0.002996812
84	0xbd1ef399	-0.03880653
85	0xbd7e596c	-0.062096998
86	0xbd835d90	-0.0641433
87	0xbb54a587	-0.0032447295
88	0xbd762042	-0.060089357
89	0xbbc3b26e	-0.005972198
90	0xbd78d4b0	-0.06074971
91	0xbbd89c23	-0.00661041
92	0xbbbc187f	-0.005740225
93	0x3c79a07e	0.015236018
94	0xbd32d52d	-0.04366033
95	0xbb971009	-0.004610066
96	0xbc6bab95	-0.01438417
97	0x3bd02e8a	0.006353204
98	0xbd8868da	-0.06660624
99	0xbde769ae	-0.11299454
100	0xbdd93208	-0.10605246
101	0xbded39d9	-0.11583299
102	0xbe05c903	-0.13064961
103	0xbd8454f1	-0.06461514
104	0xbde137ac	-0.10996947
105	0xbcdb2194	-0.02674941
106	0xbca73651	-0.020411642
107	0x3c200d94	0.009768862
108	0xbc2e5045	-0.010639255
109	0xbd79ef1f	-0.06101906
110	0x3c713ee6	0.014724469
111	0xbd64512d	-0.055741478
112	0x3b612acc	0.0034357784
113	0x3c742784	0.014901999
114	0xbcdd9402	-0.027048115
115	0xbca42934	-0.020039178
116	0xbd816f60	-0.06320071
117	0xbd744610	-0.05963713
118	0xbd0848f1	-0.033272687
119	0xbd8ced3c	-0.06881186
120	0xbcd76879	-0.026294934
121	0xbd8c0fa7	-0.06838923
122	0xbcf813db	-0.030282905
123	0xbdb6ee03	-0.08932116
124	0xbdc81d26	-0.097711846
125	0xbd4c8368	-0.049930006
126	0xbd183f28	-0.037169605
127	0x3cb9bf1a	0.022674132
128	0xbc11af64	-0.008891914
129	0xbdb1e4d3	-0.08686223
130	0xbd637e12	-0.055540152
131	0xbe077189	-0.13226904
132	0xbd87c815	-0.066299595
133	0x3a17afa9	0.0005786368
134	0xbd5f237d	-0.054477204
135	0xbd9fe209	-0.07806785
136	0xbd9c27a8	-0.07624751
137	0xbd73cf1a	-0.05952368
138	0x3c3360f8	0.010948412
139	0xbc97f1da	-0.018547941
140	0x3d4487e9	0.047981177
141	0xbd681af8	-0.056666344
142	0xbd6095c3	-0.054830324
143	0xbcc25dd8	-0.023726389
144	0x3cf1ef64	0.029533096
145	0x3d3b8bb3	0.045787524
146	0x3cff84d0	0.03119126
147	0x3d7f57db	0.062339645
148	0x3d38fdca	0.045163907
149	0x3d4e6b52	0.050395317
150	0x3d293f4a	0.041320123
151	0x3b2972ec	0.0025855852
152	0xbc5a2e53	-0.013316709
153	0x3c319bc5	0.010840361
154	0x3ca6d841	0.02036679
155	0x3cbe52c4	0.023232825
156	0xbc8b6428	-0.017015532
157	0xbc223592	-0.0099004675
158	0xbc6be34f	-0.014397456
159	0xbaa81242	-0.0012822824
160	0x3b829445	0.0039849603
161	0x3ccf0271	0.025269719
162	0xbb488a92	-0.0030600172
163	0xbd0b99aa	-0.034082092
164	0xbb76abaa	-0.003763894
165	0xbd759d54	-0.059964493
166	0xbd7243cf	-0.0591467
167	0xbc1dcc8f	-0.00963129
168	0xbd2f2564	-0.042760268
169	0xbc3b03f4	-0.011414517
170	0xb9e32468	-0.0004332394
171	0x3c3b7e48	0.011443682
172	0xbd7809a5	-0.060556073
173	0xbcb1d01f	-0.021705685
174	0x3c15d585	0.009145145
175	0x3c6464a0	0.0139400065
176	0xbbc86b30	-0.0061162934
177	0xbd2dbfe1	-0.042419318
178	0xbad496f4	-0.0016219304
179	0xbc924447	-0.017854823
180	0xba207fba	-0.00061225484
181	0x3c9ae00e	0.018905666
182	0xbd3a7db8	-0.04553005
183	0xbd96a53c	-0.07355735
184	0xbd433727	-0.04766002
185	0xbd489141	-0.04896665
186	0xbd4f3eb3	-0.050596904
187	0xbceae38f	-0.028672962
188	0xbd816b61	-0.06319309
189	0xbd1a87fc	-0.03772734
190	0xbd35160b	-0.044210475
191	0xbc769e52	-0.015052395
192	0xbd90e40a	-0.07074745
193	0xbd4b5c4c	-0.049648568
194	0xbc9f1fb5	-0.019424299
195	0xbd2acf92	-0.04170186
196	0xbdaa774e	-0.08323537
197	0xbd4ea1d5	-0.050447304
198	0xbc954bc8	-0.018224612
199	0x3a3764f7	0.0006995941
200	0xbd661d60	-0.056180358
201	0xbbd63536	-0.006537105
202	0xbb62292e	-0.0034509408
203	0xbb9bd335	-0.0047554024
204	0xbca8a11d	-0.020584637
205	0x3b7be73c	0.0038437387
206	0xbce3df69	-0.027816491
207	0xbca091e5	-0.019600818
208	0xbd0a2b78	-0.03373286
209	0xbd9f234d	-0.07770405
210	0xbcfdb6e8	-0.030971006
211	0xbd37805d	-0.04480015
212	0xbc83d67a	-0.016093481
213	0xbd0cc428	-0.034366757
214	0xbd2fe129	-0.04293934
215	0xbdb55e17	-0.08855837
216	0xbd43b889	-0.04778341
217	0xbb02ea19	-0.001997596
218	0xbbc432ea	-0.0059875147
219	0xba3ad82f	-0.0007127551
220	0x3becb0fb	0.007223246
221	0x3d22223d	0.039583433
222	0xbd709b58	-0.058741897
223	0xbd3a63ad	-0.045505214
224	0xbb901fdd	-0.0043983296
225	0xbced6991	-0.028981002
226	0xbd3bda9d	-0.045862783
227	0xbc53a3f3	-0.0129175065
228	0xbd83043f	-0.06397294
229	0xbdaedd5c	-0.08538315
230	0xbc881015	-0.016609231
231	0xbcf70977	-0.03015588
232	0xbd6b1003	-0.057388317
233	0xbdb2be10	-0.08727658
234	0xbcb08c1c	-0.021551184
235	0x3939fe44	0.00017737696
236	0xbd95c566	-0.073130414
237	0x3b273cbe	0.0025518383
238	0x3b0c076d	0.002136673
239	0xbd2063c0	-0.03915763
240	0xbd58d0c0	-0.052933455
241	0xbcb38010	-0.02191165
242	0xbc77d138	-0.015125565
243	0xbd66a798	-0.056312174
244	0xbd3aa4ed	-0.04556744
245	0xba4d0128	-0.00078203017
246	0xbcb22a15	-0.021748582
247	0x3cb4089e	0.021976765
248	0x3d97e1f0	0.07416141
249	0xbd5bf4f2	-0.053700395
250	0xbcab582d	-0.020916069
251	0x3ce2f259	0.027703451
252	0xbbde8d0d	-0.006791717
253	0xbd5044cd	-0.050846864
254	0xbd6eff37	-0.05834886
255	0xbd6e28f2	-0.058144517

model.2.bias f4 [128]
0	0xbcad3a29	-0.021145897
1	0xbd0eda86	-0.03487637
2	0xbd656446	-0.05600383
3	0xbd3e702d	-0.046493698
4	0xbc078d77	-0.008273474
5	0xbc12ecf6	-0.008967629
6	0xbc7ad264	-0.01530895
7	0xbd54dc9d	-0.051968206
8	0xbce9b5f7	-0.02852915
9	0xbd8be1f0	-0.068302035
10	0xbc5e3bea	-0.013564089
11	0xbc4e3b32	-0.012587355
12	0xbcc3348d	-0.02382877
13	0x3c8f3c4e	0.01748481
14	0xbc430fbf	-0.01190561
15	0xbd1627c2	-0.03665901
16	0xbd977424	-0.07395199
17	0xbd0975c6	-0.033559583
18	0xbd6b224d	-0.05740576
19	0x3bdb49b8	0.0066921376
20	0xbd1d9ddb	-0.03848062
21	0x3da95ffc	0.08270261
22	0xbc72f64a	-0.014829228
23	0xbd90039d	-0.07031939
24	0x3d7c7e67	0.061643984
25	0xbd86b0f8	-0.06576723
26	0x3db25ab4	0.087087065
27	0xbd578213	-0.052614283
28	0xbc579a79	-0.013159388
29	0x3af129fe	0.0018399355
30	0xbc182278	-0.009285562
31	0xbd84e25d	-0.06488488
32	0xbbca7775	-0.006178791
33	0xbbb4211d	-0.0054971115
34	0xbd8cac48	-0.068687975
35	0xbd6b7e94	-0.05749376
36	0xbbc568b0	-0.0060244426
37	0xbc98df22	-0.018661086
38	0xbc48fbad	-0.012267035
39	0x3d88a6e2	0.06672455
40	0xbd4a4277	-0.049379792
41	0xbcb72891	-0.02235821
42	0xbcf7d5ac	-0.030253254
43	0xbd1da232	-0.03848476
44	0xbd33c35a	-0.043887474
45	0xbc299e38	-0.010352664
46	0xbd0c3fbb	-0.034240466
47	0xbc7949d0	-0.015215352
48	0x3cce135f	0.025155721
49	0xbd1f6386	-0.038913272
50	0xbba1fa40	-0.004943162
51	0x3bb6be01	0.0055768494
52	0xbd8956af	-0.06705987
53	0xbca31f73	-0.019912457
54	0xbbba219f	-0.0056802775
55	0xbcad91f4	-0.02118776
56	0xbda1035b	-0.07861968
57	0xbb772260	-0.0037709698
58	0x3d0e29fd	0.034708012
59	0xbca01e70	-0.019545764
60	0xbcf1c099	-0.029510783
61	0xbd9530c8	-0.07284695
62	0xbcd0acd1	-0.02547303
63	0xb9ed6a48	-0.00045283348
64	0xbd5e6b3c	-0.054301485
65	0xbc4ad776	-0.012380471
66	0xbc2620e3	-0.010139677
67	0xbc670a99	-0.014101648
68	0x3d68c3a8	0.056827217
69	0xbcffd0d2	-0.031227503
70	0xbc4b0cb5	-0.012393166
71	0xbc8339ec	-0.01601883
72	0xbced0115	-0.02893118
73	0xbc8e0e30	-0.01734075
74	0xbd596485	-0.05307438
75	0xbd30932f	-0.043109115
76	0xbd7b3dc8	-0.061338216
77	0xbd11a0b5	-0.035553653
78	0x3dbdfdd2	0.09276928
79	0xba6fc3a4	-0.0009146279
80	0xbcddfb25	-0.027097294
81	0xbb98ac21	-0.0046591912
82	0xbcc8a447	-0.024492396
83	0xbcdcef3b	-0.026969543
84	0xbc1f9eaa	-0.009742418
85	0xbc2902fb	-0.010315652
86	0xbbc9e33b	-0.006161121
87	0xbb44b4a4	-0.0030014897
88	0xbca5a8b5	-0.020222047
89	0x3c962919	0.018330144
90	0xbd0a53dc	-0.03377138
91	0xbc890105	-0.016724119
92	0xbcf04b7b	-0.029332867
93	0xbc8333a5	-0.016015837
94	0x3d8c88bd	0.06862018
95	0xbd596247	-0.05307224
96	0xbd3d515a	-0.04622016
97	0xbca1659c	-0.019701771
98	0xb9ea30be	-0.00044668274
99	0xbc80a317	-0.015702767
100	0xbcab5413	-0.020914113
101	0xbce7d803	-0.028301245
102	0xbccdc3a8	-0.02511771
103	0xbcb92e8b	-0.022605201
104	0xbc890341	-0.016725184
105	0x3db9e7ed	0.090774395
106	0xbc8d4709	-0.017245786
107	0xbc4c82b0	-0.01248233
108	0xbce3b8c5	-0.027798066
109	0xbd03dff6	-0.032196008
110	0xbd84f32c	-0.06491694
111	0xbc9a37b1	-0.018825384
112	0x3bb118c5	0.005404564
113	0xbd5a0e1d	-0.053236116
114	0x3da30aa4	0.07961014
115	0xbc845109	-0.016151922
116	0xbc92bc55	-0.01791207
117	0x3d39b462	0.045338042
118	0xbcde932e	-0.02716979
119	0xbd2d96ca	-0.04238013
120	0x3da02585	0.07819656
121	0xbbc3ef2c	-0.0059794392
122	0xbcb19de8	-0.02168174
123	0xbc452019	-0.012031578
124	0xbd329b4e	-0.04360514
125	0xbd2c7c11	-0.042110506
126	0xbc30733c	-0.0107696615
127	0x3afe6cbe	0.001941107

model.4.weight f4 [64, 128, 3, 3]
0	0xbd4c6231	-0.04989833
1	0xbd6f47e1	-0.05841816
2	0xbd896352	-0.06708397
3	0xbd1e8d3d	-0.038708914
4	0xbd777c36	-0.06042119
5	0xbd1f390a	-0.038872756
6	0xbd5a289d	-0.053261388
7	0xbd85da76	-0.06535809
8	0xbd83d244	-0.06436589
9	0xbd68a487	-0.05679753
10	0xbced53d0	-0.028970629
11	0xbd1daa5f	-0.038492557
12	0xbcf3a914	-0.029743709
13	0xbd6b7550	-0.057484925
14	0xbd1ad8bb	-0.037804347
15	0xbcf7609d	-0.030197436
16	0xbd2be9f1	-0.04197115
17	0xbd23ea18	-0.04001817
18	0xbcaf9736	-0.021434408
19	0x3c7f937a	0.015599126
20	0x3c918037	0.017761333
21	0x3cd6f03f	0.026237605
22	0xbc42abb4	-0.0118817575
23	0xbc6344c9	-0.01387138
24	0x3bbf3d59	0.0058361706
25	0x3a5baa0e	0.0008379527
26	0xbc1006ca	-0.008790681
27	0x3d7dda2d	0.061975647
28	0x3d5a0c31	0.053234283
29	0x3c7ddb1d	0.015494135
30	0x3bf88b30	0.007584952
31	0x3d12f795	0.035880644
32	0x3cda2e1e	0.026633319
33	0x3d465f34	0.048430637
34	0x3d3559ec	0.04427521
35	0x3d4c8252	0.04992897
36	0x3d970b14	0.0737516
37	0x3d1f6fdd	0.03892504
38	0x3ceffa25	0.029294083
39	0x3d9601c3	0.07324555
40	0x3cda4281	0.02664304
41	0x3d989e43	0.07452061
42	0x3d03c2f3	0.03216834
43	0x3cfa8b22	0.030583922
44	0x3d92dacd	0.07170639
45	0xbc053f1b	-0.008132721
46	0x3b4101b7	0.0029450485
47	0x37e9ed3e	2.7886239e-05
48	0xbb8f63ae	-0.0043758964
49	0x3ae016a1	0.0017096588
50	0x3c114c0a	0.008868227
51	0x3c4dca3c	0.012560423
52	0xbc360dc5	-0.011111681
53	0x3bebb3c2	0.0071930597
54	0x3d0c5926	0.034264706
55	0x3d9e2d8e	0.077235326
56	0x3d97f762	0.074202314
57	0x3c8472c9	0.016168015
58	0x3ce7716c	0.028252326
59	0x3cac3025	0.02101905
60	0x3bbe4971	0.0058070947
61	0x3d352ca6	0.044232033
62	0x3d1c84e6	0.03821268
63	0xbc951724	-0.01819951
64	0x3c8ef683	0.01745153
65	0xbccb1504	-0.024790294
66	0x3d0207c2	0.03174568
67	0xbc6fca8a	-0.014635691
68	0x3d82e4c3	0.06391289
69	0xbcf40bbb	-0.02979075
70	0x3c8b5c9a	0.01701193
71	0xbcf91ee1	-0.030410232
72	0xbceb27c0	-0.028705478
73	0x3af7ec3a	0.0018915005
74	0xbc410d4f	-0.011782958
75	0xbcd8383d	-0.026394004
76	0xbcb15aa2	-0.021649662
77	0x3be2d499	0.0069223163
78	0xbcb7358c	-0.0223644
79	0xbc183e95	-0.0092922645
80	0x3bb863eb	0.0056271455
81	0xbc27933a	-0.010227973
82	0xbce023e0	-0.027360857
83	0xbc42b730	-0.011884496
84	0xbc145818	-0.009054206
85	0x3c7681a9	0.015045562
86	0xbd1869f4	-0.03721042
87	0xbd0ac484	-0.03387882
88	0x3a9c3f9f	0.0011920816
89	0xbc1cd929	-0.009573259
90	0xbbf2a5f1	-0.0074050357
91	0x3b8f01bb	0.00436422
92	0x3c50a956	0.012735685
93	0x3af150bd	0.0018410903
94	0x3bcd97f2	0.006274217
95	0xbc87caa7	-0.016576124
96	0x3ccb34b5	0.024805406
97	0xb9e980b9	-0.0004453713
98	0xbc898220	-0.016785681
99	0xbc5ca988	-0.013468154
100	0xba1e3c43	-0.00060362014
101	0xbc45e48a	-0.012078414
102	0xbc0d683c	-0.008630808
103	0xbc6f2602	-0.014596464
104	0x3c628f44	0.0138281025
105	0xbc07b35e	-0.008282511
106	0x3c8afe75	0.016967038
107	0xbbe44340	-0.0069660246
108	0xbd29c3c1	-0.04144645
109	0xbd03f12f	-0.032212432
110	0xbd465fa9	-0.048431072
111	0xbd8c10fd	-0.06839178
112	0xbd304cb9	-0.04304192
113	0xbd868170	-0.06567657
114	0xbd181fa1	-0.03713954
115	0xbd64d276	-0.055864774
116	0xbbdde0cc	-0.0067711826
117	0xbd82a35e	-0.06378816
118	0xbd89ec81	-0.06734563
119	0xbd0aea12	-0.033914633
120	0xbcead7b7	-0.028667314
121	0xbcf9b32c	-0.030480944
122	0xbcf939c5	-0.030423054
123	0xbcfa523e	-0.030556794
124	0xbcd88b9c	-0.026433758
125	0xbcde9b4d	-0.027173663
126	0x3d546f0c	0.051863715
127	0x3d4f1c2e	0.050563984
128	0x3d8674e6	0.06565265
129	0xbd1ff5d7	-0.03905281
130	0xbc828b44	-0.015935548
131	0xbd1ac548	-0.0377858
132	0x3cf59164	0.029976554
133	0x3cfd0cce	0.030889895
134	0xbb5d4fc1	-0.003376946
135	0xbbac5a78	-0.005259808
136	0xbbfe1087	-0.007753435
137	0x3ca30719	0.019900845
138	0x3b7a0d31	0.0038154835
139	0xbcb5bbb3	-0.022184229
140	0x3a2cedd1	0.00065967167
141	0xbcb69b0f	-0.022290735
142	0x3c6b18ef	0.014349206
143	0xbc4989bd	-0.012300906
144	0xbc1a493f	-0.009416877
145	0xbd012430	-0.03152865
146	0xbc57f15a	-0.013180101
147	0xbbb0c16f	-0.005394153
148	0xbc968f05	-0.018378744
149	0x3bd1e909	0.006405954
150	0xbd2343f1	-0.039859716
151	0x3bd8861a	0.006607783
152	0xbd002b2e	-0.03129118
153	0x3d1c886e	0.038216047
154	0x3d2372c1	0.03990436
155	0x3d04032d	0.03222959
156	0x3aeba442	0.001797803
157	0x3cfa3b9e	0.030546006
158	0x3c95cfa6	0.018287491
159	0xbba022f6	-0.00488698
160	0x398abe8f	0.00026463388
161	0x3c65658a	0.01400126
162	0x3c8b7426	0.017023157
163	0xbc85d134	-0.016335107
164	0x3c86d49b	0.0164588
165	0xbd347a8b	-0.04406218
166	0xbcddbc8b	-0.027067443
167	0xbd2bdfd7	-0.041961517
168	0x3c153a5f	0.009108155
169	0xbc3975f8	-0.01131963
170	0xbc2d0b7f	-0.010561823
171	0xbda5cae5	-0.0809534
172	0xbd960d42	-0.073267475
173	0xbd8b9294	-0.06815067
174	0xbd98b23d	-0.07455871
175	0xbd05a898	-0.032631487
176	0xbd6297b1	-0.055320445
177	0xbdec0c28	-0.11525756
178	0xbdcb81f9	-0.099369
179	0xbdd0f67b	-0.102032624
180	0x3ce980eb	0.028503856
181	0x3c20aa4e	0.009806229
182	0x3bdcd558	0.0067392997
183	0x3c7e94df	0.015538423
184	0x3bc4cb83	0.006005706
185	0x3cd82527	0.026384903
186	0x3c9445f7	0.018099768
187	0x3c8ae093	0.016952788
188	0xbcccacd1	-0.024984749
189	0xbce65b24	-0.028119631
190	0xbd600cdf	-0.054699775
191	0xbd441ce1	-0.047879104
192	0xbd3594c7	-0.04433134
193	0xbc89fa8b	-0.016843101
194	0xbc90c085	-0.017669925
195	0xbcf66673	-0.030078148
196	0xbd0c78d2	-0.03429491
197	0xbc175ca6	-0.009238398
198	0x3c117f66	0.008880472
199	0x3ccec4b9	0.025240289
200	0x3ca4f574	0.020136572
201	0x3cc5e0d8	0.024155065
202	0x3d24f24c	0.040270135
203	0x3c295c27	0.010336912
204	0x3cfa1cbd	0.030531282
205	0x3cf2d4ce	0.029642489
206	0x3d08723a	0.03331206
207	0x3d0aa03c	0.033844218
208	0x3cb5c719	0.022189664
209	0x3bb2d903	0.0054579987
210	0x3ce20802	0.027591709
211	0x3ce2998c	0.027661107
212	0x3d515928	0.051110417
213	0x3d24cba3	0.040233266
214	0xbb711306	-0.003678502
215	0x3ce6b2fd	0.02816152
216	0xbd17435b	-0.03692947
217	0xbd71393c	-0.058892474
218	0xbd442fa2	-0.04789699
219	0xbd059b90	-0.03261906
220	0xbd665f1e	-0.056243055
221	0xbcbe4128	-0.023224428
222	0xbd12c5d2	-0.035833187
223	0xbc0479bb	-0.008085663
224	0xbd08e144	-0.033417955
225	0xbd31b9eb	-0.043390196
226	0xbc64e88a	-0.013971457
227	0xbc28cb30	-0.01030235
228	0xbd317ecf	-0.043333825
229	0xbd7d7197	-0.061875906
230	0xbd1559d5	-0.036462624
231	0xbd52ef02	-0.051497467
232	0xbd1949e2	-0.037423976
233	0xbc846b88	-0.016164556
234	0xbd428b71	-0.047496263
235	0xbd1ec6fd	-0.03876399
236	0x3b437a2a	0.0029827454
237	0xbd400773	-0.046882104
238	0xbbed03f5	-0.0072331377
239	0xbced9c0b	-0.029005071
240	0x3c4c8a2f	0.012484117
241	0xbd38ce2b	-0.045118492
242	0xbacd2d93	-0.0015653841
243	0xbcc6db6d	-0.024274552
244	0x3b8d3cd0	0.004310228
245	0xbd01a3ee	-0.031650476
246	0xbb96f995	-0.004607389
247	0xbc8b8c6d	-0.017034734
248	0xbd0161c2	-0.03158737
249	0xbce85c28	-0.028364256
250	0x3bfbdf25	0.007686513
251	0x3c558070	0.01303111
252	0x3d304e87	0.04304364
253	0x3d642314	0.055697516
254	0x3d63f24e	0.055651
255	0x3d2dd856	0.042442642

model.4.bias f4 [64]
0	0xbd8fe235	-0.070255674
1	0xbc74b607	-0.014935977
2	0x3bfd75db	0.0077349967
3	0x3cbbcda2	0.022925202
4	0xbb810581	-0.0039374237
5	0x3bb79ff2	0.0056037838
6	0xbd8f4870	-0.06996238
7	0xbd40ef21	-0.04710305
8	0xbd249e25	-0.04018988
9	0x3d238123	0.039918076
10	0x3c584e9d	0.013202337
11	0xbba16607	-0.0049254927
12	0x3be13a95	0.0068734386
13	0x3c4e2c8e	0.012583865
14	0xbcf6dd42	-0.0301348
15	0xbc6da481	-0.014504553
16	0x3be6db18	0.007045161
17	0xbcb24034	-0.02175913
18	0x3cb78cc6	0.022405993
19	0xbd12e224	-0.035860196
20	0xbc0c79c6	-0.008573955
21	0xbced11eb	-0.028939208
22	0xbd009634	-0.031393245
23	0xbcf33daf	-0.029692499
24	0x3c59b78e	0.013288392
25	0xbd300894	-0.04297693
26	0xbcae0e96	-0.02124719
27	0x3c9eb2d7	0.019372387
28	0xbcb4b3b4	-0.022058345
29	0xbd655948	-0.05599335
30	0x3cf61711	0.030040296
31	0x3c4f59ad	0.012655658
32	0xbc31947e	-0.010838626
33	0xbd75485d	-0.059883464
34	0xbd29f5c9	-0.041494165
35	0xbc885d70	-0.016646117
36	0xbc0739b1	-0.008253501
37	0x3b2ab51a	0.0026047886
38	0xb906c2dc	-0.00012851827
39	0x3b5a76d1	0.003333498
40	0xbd4db840	-0.050224543
41	0xbd8f339d	-0.06992266
42	0x3bfef039	0.0077801016
43	0x3c32060d	0.0108657
44	0xbd79e528	-0.061009556
45	0xbb97c089	-0.0046311063
46	0x3cf6b4fd	0.030115599
47	0x3a654538	0.0008745971
48	0x3c2f4fcd	0.010700178
49	0xbc4c03b4	-0.012452055
50	0xbbc0b3a9	-0.005880792
51	0xbbdd143c	-0.006746797
52	0x3ca3496a	0.019932467
53	0xbc3b22bb	-0.011421855
54	0xbd0c3c63	-0.034237277
55	0xbc9d2801	-0.019184114
56	0xbb25f5ad	-0.0025323436
57	0x3bed7157	0.007246177
58	0xbc393d71	-0.011306153
59	0xbb11efcf	-0.0022268181
60	0xbc82cdcc	-0.015967272
61	0xbd6c4cd6	-0.057690464
62	0xbacb125d	-0.0015493144
63	0xbca69f45	-0.020339618

model.6.weight f4 [3, 64, 3, 3]
0	0x3d23bd11	0.03997523
1	0x3cd6a5d5	0.026202122
2	0x3c199858	0.0093747005
3	0x3cd48869	0.025943952
4	0x3ba45a50	0.005015649
5	0x3d138646	0.036016725
6	0xbd226d1f	-0.039654847
7	0xbc23aefa	-0.009990448
8	0x3d21d6ee	0.039511614
9	0x3d41966b	0.04726259
10	0x3ccd93bb	0.025094857
11	0xbc6a99b8	-0.014318876
12	0xbbf363ca	-0.0074276673
13	0x3ce30f4a	0.027717251
14	0x3c0e7674	0.008695234
15	0x3d081bd7	0.033229675
16	0x3d08020e	0.033205085
17	0x3cd3381b	0.02578359
18	0x3d562968	0.05228558
19	0x3d6f4b35	0.058421332
20	0x3d0b2938	0.033974856
21	0x3d4faac3	0.05069996
22	0x3d7276f9	0.059195492
23	0x3d2b3210	0.04179579
24	0x3d021d54	0.03176625
25	0x3dbb61eb	0.09149536
26	0x3d3cf609	0.046133075
27	0xbc3fad06	-0.011698967
28	0x3d3abecc	0.045592114
29	0x3cb854a7	0.022501303
30	0x3d2d43dd	0.042301048
31	0x3d4a3bae	0.04937332
32	0x3c1bfedf	0.009521215
33	0x3cc5147d	0.024057621
34	0x3be43cf2	0.006965273
35	0x3d14af44	0.03629996
36	0xbc49f65b	-0.012326802
37	0xbb2c2b7f	-0.0026271043
38	0xbd4eba28	-0.0504705
39	0xbd313128	-0.04325977
40	0xbd224971	-0.03962082
41	0x3b148c6a	0.00226667
42	0xbbf87752	-0.0075825835
43	0xbd1fd544	-0.039021745
44	0xbd17b018	-0.03703317
45	0x3d4fa889	0.050697837
46	0x3d835d02	0.06414224
47	0x3cfe58ee	0.031048264
48	0x3c8f0490	0.01745823
49	0x3d7addea	0.06124679
50	0x3d018688	0.03162244
51	0x3d43fa24	0.047845975
52	0xbbcc207a	-0.0062294574
53	0x3d845c58	0.06462926
54	0xbba5302b	-0.0050411425
55	0xbce513b0	-0.02796349
56	0xbc917952	-0.017758045
57	0xbc0f8749	-0.008760282
58	0xba585290	-0.0008252049
59	0x3c2ed68d	0.01067127
60	0x3c0b6334	0.008507539
61	0x3c4520a6	0.01203171
62	0xbc19fb59	-0.009398305
63	0x3d6c3e82	0.0576768
64	0xbadfe748	-0.0017082477
65	0x3d5b2d21	0.053509835
66	0x3d073559	0.03300986
67	0x3cdeb4b4	0.027185775
68	0x3b9c545d	0.004770799
69	0x3d8ab885	0.067734756
70	0x3cc0dddb	0.023543289
71	0x3d0f1223	0.034929406
72	0xbc0b5220	-0.008503467
73	0xbc068a20	-0.0082116425
74	0x3c03bbcd	0.008040381
75	0xbb6e37a3	-0.003634908
76	0xbc2efe1b	-0.010680701
77	0x3d241d53	0.04006703
78	0x3cc0de54	0.023543514
79	0xbbce4254	-0.006294528
80	0xbd02d83c	-0.0319445
81	0x3ca3d2a3	0.0199979
82	0x3c6485fc	0.01394796
83	0xbd10a7c9	-0.035316262
84	0x3cc69f6c	0.02424594
85	0x3d07b4fe	0.033131592
86	0x3c9f8b2f	0.019475548
87	0xbcac3f89	-0.02102639
88	0x3ce6d7da	0.028179098
89	0xbca5ca17	-0.020237966
90	0x3d00add3	0.03141577
91	0x3d4847fe	0.048896782
92	0x3cc71849	0.024303572
93	0xbb8f751c	-0.004377974
94	0x3d1aeffb	0.03782652
95	0x3d53d355	0.051715214
96	0x3d1a0317	0.037600603
97	0x3d796d80	0.060895443
98	0x3d82631b	0.06366559
99	0x3c13f26c	0.009029966
100	0x3d176241	0.036958937
101	0x3d733512	0.059376784
102	0x3d6bc287	0.057558563
103	0x3d8bd3b8	0.068274915
104	0xbab880b3	-0.0014076441
105	0xbbac3838	-0.0052557252
106	0x3c8c5d90	0.017134458
107	0x3cf080ab	0.029358229
108	0x3d6cb9fe	0.057794563
109	0x3d2efad4	0.042719677
110	0x3d8d4920	0.06898713
111	0x3c5d963c	0.013524588
112	0x3c4072b0	0.011746094
113	0x3d3e61aa	0.04647986
114	0x3d810172	0.06299104
115	0x3d8b4d8e	0.06801902
116	0x3d6b73bc	0.05748342
117	0x3d1b35b4	0.037893012
118	0xbadb635f	-0.0016737989
119	0x3b74a8d0	0.0037332065
120	0x3caef2ca	0.021356005
121	0xbc86b55c	-0.0164439
122	0x3ce643f7	0.02810858
123	0xbc144fab	-0.009052197
124	0x3cc7bad6	0.024381083
125	0xbd0e9ce7	-0.034817602
126	0x3ccb4a88	0.024815813
127	0x3d2d9551	0.042378727
128	0x3c3816d2	0.01123591
129	0x3b1cc0c1	0.0023918601
130	0x3c9c29e0	0.019062936
131	0x3d8ef4d8	0.06980294
132	0x3d598cd0	0.053112805
133	0x3d2076bd	0.039175738
134	0x3bea2d80	0.0071465373
135	0xbd33d2d1	-0.043902222
136	0xbbebf7f2	-0.0072011882
137	0x3aaf690a	0.0013382745
138	0x3c82bd15	0.015959302
139	0x3b06fe1a	0.0020598234
140	0x3cb93bbc	0.022611491
141	0x3c9b8404	0.018983848
142	0x3c161620	0.009160548
143	0x3c1217ee	0.008916838
144	0x3c5b4810	0.01338388
145	0x3c33972b	0.010961334
146	0x3c9e7c36	0.019346338
147	0x3d538740	0.051642656
148	0x3cabcbf8	0.020971283
149	0x3d2c2719	0.042029474
150	0x3cb1ba0f	0.021695165
151	0x3cc9cfdd	0.02463525
152	0x3cdb31d2	0.026757155
153	0x3c95fc0a	0.018308658
154	0xbc0e4b9b	-0.008685018
155	0xbd44d182	-0.048051365
156	0xbbb7c005	-0.0056076073
157	0xbcb25db2	-0.021773193
158	0xbb781caa	-0.0037858882
159	0x3cedd0f1	0.029030295
160	0x3ae78d88	0.0017666081
161	0xbd553725	-0.052054543
162	0xbd5381d8	-0.0516375
163	0xbd321c12	-0.0434838
164	0xbdb2b33d	-0.08725593
165	0xbdab73e5	-0.083717145
166	0xbd214460	-0.039371848
167	0xbddeda27	-0.10881453
168	0xbd6978fb	-0.05700014
169	0xbd7cb1d9	-0.061693046
170	0xbd8e1de8	-0.06939298
171	0x3b25951d	0.002526588
172	0x3b88e1cd	0.004177308
173	0xbca74510	-0.020418674
174	0xbcc9a180	-0.024613142
175	0xbd03de37	-0.032194342
176	0x3cbc3a3d	0.022976989
177	0x3d1213f0	0.035663545
178	0xbd02cb40	-0.031932116
179	0x3cedbad6	0.029019754
180	0x3d6b08a4	0.057381287
181	0x3d7ce7ff	0.061744686
182	0x3d429cfb	0.04751299
183	0x3ccddbc7	0.025129212
184	0x3c118197	0.008880994
185	0x3c671881	0.014104963
186	0xbb504577	-0.0031779686
187	0x3d97b4e6	0.074075505
188	0x3d809647	0.06278663
189	0x3cb82c24	0.022481985
190	0xbd086c7c	-0.033306584
191	0xbcc8f20a	-0.024529476
192	0xbd3fdcaa	-0.0468413
193	0xbd4cef2a	-0.050032772
194	0xbb1361fe	-0.0022488828
195	0x3cf2df5a	0.029647518
196	0x3aafeef0	0.0013422649
197	0x3c12df84	0.008964423
198	0xbca89efa	-0.020583618
199	0x3c78cef1	0.015186057
200	0xbc156d0b	-0.009120236
201	0xbd0f43de	-0.034976833
202	0xbbea8374	-0.0071567837
203	0xbcf1c672	-0.029513571
204	0xbd2204c2	-0.03955532
205	0x3d03cb50	0.032176316
206	0x3d00572e	0.03133314
207	0x3c500404	0.01269627
208	0x3bb1cd71	0.005426102
209	0x3ca54df9	0.020178782
210	0x3c6eb971	0.01457058
211	0xbc30f0b4	-0.010799576
212	0xbc8eb3d2	-0.01741973
213	0xbc506958	-0.012720428
214	0x3a3a3a98	0.0007104068
215	0x3d06e47e	0.03293275
216	0xbccc725f	-0.02495688
217	0x3b8a137d	0.004213749
218	0xbc133002	-0.008983614
219	0x3c263a9d	0.01014581
220	0x3d1b77d9	0.037956093
221	0xbcae44b1	-0.021272989
222	0x3d032115	0.03201397
223	0x3d3cd550	0.04610187
224	0x3bbfcce6	0.005853283
225	0xbc4308d1	-0.011903957
226	0xbcc51cc2	-0.024061564
227	0xbc6f5e28	-0.014609851
228	0x3cfe0bcf	0.03101149
229	0x3d55d724	0.052207127
230	0x3c0476fa	0.008085007
231	0x3d276248	0.040865213
232	0xbc28702f	-0.010280653
233	0xbc2e135e	-0.010624735
234	0xbc88cff2	-0.016700719
235	0x3ca98dad	0.02069744
236	0xbd1638be	-0.036675207
237	0x3c07dcab	0.008292357
238	0x3c5c542d	0.013447803
239	0xbcd8a7a0	-0.026447117
240	0xbcaa63f1	-0.020799609
241	0xbb19bd3c	-0.002345874
242	0xbcf57bc1	-0.029966237
243	0xbd975c96	-0.07390706
244	0xbbe660a4	-0.0070305634
245	0xbd8416e2	-0.06449677
246	0xbc1b2855	-0.009470065
247	0xbd1602bd	-0.036623705
248	0xbd8540d0	-0.06506503
249	0xbd9cfb42	-0.07665111
250	0xbcc8c5c3	-0.024508363
251	0xbd91b0aa	-0.07113774
252	0x3c89404b	0.01675429
253	0xb8cfb690	-9.904534e-05
254	0xbd45902a	-0.04823319
255	0xbd239872	-0.039940305

model.6.bias f4 [3]
0	0xbd321bfc	-0.04348372
1	0x3cfb437d	0.03067183
2	0x3bd44174	0.006477529
